model_best.pth (torch, 72612 bytes, 8 tensors)

fc1.weight f4 [64, 9]
00000000: 4207 75bf 83fe b53e 9865 34be 6cff cdbe
00000010: 5801 213e 61c1 07bc b24f 34bf 41ee 24be
00000020: 4ae8 ef3b 6ad5 b93e 7f74 2ebe f53b 213f
00000030: 0e4b 07be cdaa 13be 8cdb fc3d d2d6 a0be
00000040: 2025 473f 3821 d5bf dc6d 2b3f ddb2 97bd
00000050: 2639 25bf c03c 9ebe 5d09 303d 82dd 8e3c
00000060: e849 413f 0a33 c23e b56a f9bf 6c26 83be
00000070: 2228 71bf 7c65 7bbf 580f 73bf 96a0 703e
00000080: 2116 8fbe 3543 023d c223 783e d189 03c0
00000090: 2bac 173f 3a99 c5be 4480 7c3f 1d3e adbd
000000a0: ad22 263e ba0a 163e f784 c73e 52e7 95be
000000b0: 49d9 0cc0 b5d5 53c0 0c19 d1be a210 753f
000000c0: 0a0c 29be a5e5 453e 5f63 e93d 998c 043f
000000d0: 45dd 19bf 9572 b8be 5bf8 82be 5de4 84be
000000e0: 7e01 00bf c850 c7be 54b1 193e 72cf 83bd
000000f0: 13f0 b8be c385 93be c9c1 10be 20a0 203d
00000100: c66f 8dbe 20fd 3b3e 5bdc b3bd d80d 8cbe
00000110: c682 5fbe 0b44 90be baf1 a53e 40e1 68bd
00000120: e5f7 4b3e 6e8d 01bf ab7a bb3e a944 a33d
00000130: c39a 0c3e 0d46 bb3d c8d1 e33e 7fdf 31bf
00000140: aeaf b7bf d9e5 1ebf 008c cd3d 233d c5bf
00000150: 958c 54bd 0891 ea3b 85e3 703e 9788 3a3f
00000160: 7abe 0fbe f5ab 0ec0 a387 89be 5f33 82be
00000170: cbea 263e 76b4 c0bd 0ee9 00be 5649 eebc
00000180: 8bcc adbd c080 383e eba5 923d 4aac 4d3e
00000190: a045 99be 7b21 23be 6bf9 47be 6191 81be
000001a0: 56d9 133e 5633 cd3d 1e6c 0bbe 8f60 aebe
000001b0: d5c2 25c0 0bc8 08bf 037d ac3d 4ddb f2be
000001c0: eb26 c53d affa 92be 2a31 00bf 8d95 043d
000001d0: 32bc 8e3e 9175 d83e 7a73 60be e966 97be
000001e0: b29a fabe aea2 8cbe 5295 803e 86c8 bebe
000001f0: e71a bbbe 6d93 d4bf 7fb4 93be 6be7 bcbd
00000200: 2021 1dbd 831b 51be ab0e a8bb 0bcb 53be
00000210: 46e4 41be 3e2d 293e 762c 803e 4012 9a3c
00000220: 000c 80bc 8002 33bc 2b43 34bc d6c5 c1bd
00000230: f6e1 21be 76e6 0fbd 76d3 193e 4083 70be
00000240: 5e28 423e abea 363d a324 6e3e 8b36 43bd
00000250: 3681 01bd b64e 1fbe db64 f93d d8f3 1abe
00000260: 93de 83be d49b d03f a24b 2a3d 092c 473e
00000270: b574 783e 58d5 453e 8928 aabe aa2d 673f
00000280: dc26 84bd 4a3f 56c0 1053 f73d a833 a53e
00000290: b59c 69bd 0a6d 01bf dbae 8b3e 24fc 9fbe
000002a0: 6c2c a3bd a56c e13e c172 12bf bde3 61be
000002b0: 9049 ffbd 5605 273f 02c1 a6be e3b3 0a3e
000002c0: fe99 10be 1fe6 3ebf a317 fabf f23b 6140
000002d0: 879a 95be e0b0 c23d bbdb 353e c0c2 62bd
000002e0: 9072 77be a341 67be d0f0 cf3d bb8f de3d
000002f0: f0b1 a93d e093 633e 7aee 8fbe 08b9 2abe
00000300: 0758 98be e365 86be cb8f 12be 50e8 943d
00000310: 5b83 37be 5686 a43b aac2 36bf 13af b0be
00000320: 415e 0f3f b081 aebe 57ca e23c 464e ee3d
00000330: 85a7 07bf 7cbb 503e e27a 2a40 e949 a5bd
00000340: 211c 1d3f ae03 f5be bbb7 6c3d 29a2 943c
00000350: 0d1f 163b 5c94 d6be cc35 4fbd 6c78 e0bf
00000360: 1a18 603e 2b15 5bbd ba20 383c a3da bf3e
00000370: 183b f83d ef61 673e 60bd c2bd b2dc 02bf
00000380: bb32 42bf 473a 87be 0009 803c 6695 803d
00000390: 168e bc3c 2bd0 a1be 96bf 6bbd 16e1 623d
000003a0: d0fd 833d da74 8b3e c834 a1bf 45bf 0e3e
000003b0: b0cb 673d d333 223e f780 343e 8e12 eebd
000003c0: be68 87be 984f 763d 232c bf3f a709 c2bf
000003d0: 44d3 67be b446 b1be bccb e83d 24f6 0cbe
000003e0: 3748 4e3e d63a f03e 29ba 1dbf c3d1 51be
000003f0: 2512 d8bd 6d02 cabd ec92 14bf d532 0bbf
-0.957142 0.3554574 -0.1761688 -0.40233934 0.15723169 -0.008285851 -0.70434105 -0.16106512
0.007321392 0.36295635 -0.17036627 0.6298211 -0.13212225 -0.14420624 0.12346563 -0.31413895
0.77791023 -1.6650763 0.6696451 -0.07407162 -0.64540327 -0.30905724 0.04297768 0.017439608
0.75503397 0.37929565 -1.9485689 -0.2561525 -0.9420186 -0.9820173 -0.9494529 0.23498759
-0.2794657 0.031802375 0.2423239 -2.0552866 0.5924708 -0.38593465 0.9863322 -0.08459113
0.16224165 0.1465253 0.38968632 -0.29278046 -2.200762 -3.3099186 -0.40839422 0.95728505
-0.16508499 0.19325884 0.11395907 0.51777035 -0.60103256 -0.3602492 -0.25580105 -0.25955477
-0.50002277 -0.3892882 0.15009052 -0.064360514 -0.36120662 -0.2881299 -0.14136423 0.039215207
-0.2762434 0.18358278 -0.08782264 -0.27354312 -0.2182723 -0.28176913 0.32410985 -0.05685544
0.19918783 -0.5060643 0.36617026 0.0797208 0.13730912 0.091442205 0.44495988 -0.6948165
-1.4350488 -0.6206947 0.100364685 -1.5409282 -0.051891882 0.0071584024 0.23524292 0.7286467
-0.14037505 -2.2292454 -0.26861295 -0.25429818 0.16300504 -0.0940942 -0.12588903 -0.029087704
-0.08486279 0.18017864 0.071605526 0.20085254 -0.29935932 -0.1593074 -0.19528739 -0.25306228
0.14438376 0.10019557 -0.13615462 -0.34058043 -2.5900166 -0.5343024 0.084222816 -0.47432938
0.09626564 -0.2870688 -0.5007502 0.032369185 0.27877957 0.42277196 -0.21919051 -0.29570702
-0.48946148 -0.27467865 0.25113922 -0.37262362 -0.36543962 -1.6607491 -0.28848645 -0.09223827
-0.03836167 -0.20420651 -0.0051287017 -0.20682923 -0.18934736 0.16521165 0.2503392 0.01880753
-0.015630722 -0.010925889 -0.011002342 -0.09461562 -0.15808854 -0.035131894 0.15022072 -0.23487568
0.18960711 0.04465739 0.23256163 -0.047659438 -0.031617366 -0.1555737 0.1217744 -0.15132082
-0.25755748 1.6297555 0.041576035 0.19450392 0.2426327 0.19319665 -0.3323405 0.9030405
-0.06452724 -3.3476129 0.1207639 0.32265973 -0.057034213 -0.50557005 0.27281842 -0.31247056
-0.07967457 0.44028202 -0.5720635 -0.22059532 -0.12465203 0.65242517 -0.32569128 0.13545184
-0.14121243 -0.74569887 -1.9538463 3.5192838 -0.29219458 0.095063925 0.17759602 -0.05536151
-0.24164796 -0.22583632 0.10153353 0.10867258 0.08285892 0.22224379 -0.2811163 -0.16672146
-0.2975466 -0.26249608 -0.14312665 0.072708726 -0.17921202 0.005020897 -0.71390784 -0.3450857
0.56003195 -0.3408332 0.027684374 0.11636023 -0.5298999 0.2038402 2.6637502 -0.08070738
0.61371046 -0.4785437 0.057792407 0.01814373 0.0022906691 -0.41910064 -0.050588414 -1.753675
0.21884194 -0.053486984 0.011238271 0.37471494 0.12120646 0.22595952 -0.09508777 -0.51118004
-0.7585866 -0.2641165 0.015629292 0.062784955 0.02301697 -0.31604132 -0.057555757 0.05539044
0.06444895 0.27237588 -1.2594233 0.13940151 0.056590736 0.15840082 0.17627321 -0.11624633
-0.264471 0.0601345 1.4935344 -1.5159196 -0.22639185 -0.34624255 0.11366984 -0.1376577
0.20144735 0.46919888 -0.6161218 -0.20490174 -0.10550336 -0.09863744 -0.58036685 -0.5437444

fc1.bias f4 [64]
00000000: 004d 3abe ee3c a63e 862c b0be 773f 5fbf
00000010: 99dc aabe 1772 4b3e 8c34 933c ebb4 08be
00000020: 89a9 67be 5f27 693e 573f 9abe 85bc a5be
00000030: 898a 92be ab43 57be 64b7 943e a259 aabe
00000040: 73af 8abe 6f66 b83d ed1f 82be 3fd5 153e
00000050: 9b88 993d 48bd 3d3e 9602 593d 97f9 123e
00000060: 714e 1cbe ab62 483a d2a7 173e ccd6 81be
00000070: 3cae 03bf 5915 f8be 225e 473c d039 a6be
00000080: 8a98 d73d b87e e43e 0430 d1be 4610 1bbd
00000090: b133 a13d e55c 63be 6ffd e23b 260a 3c3e
000000a0: de5f 5cbe 9f85 2c3e 9768 a53e 56af 8b3b
000000b0: 965f e1bd a50d 41bd a9ac 40be 6b0d afbe
000000c0: d9f0 303d 00ab 7a3e 74d8 543e 0dd7 c5bd
000000d0: a1b3 993e 01e3 813e 4b40 223e b763 01be
000000e0: ce22 793e 909f f33d ea1f d03d 4ac3 373c
000000f0: 3b22 2c3e b79e 1e3e a9b4 3dbe 34a4 81be
-0.18193436 0.3246836 -0.3440897 -0.87206215 -0.33371428 0.1986774 0.017969392 -0.13350265
-0.22623266 0.22768925 -0.3012645 -0.3237039 -0.2862132 -0.21021907 0.29046166 -0.3327151
-0.27086982 0.09003913 -0.25414982 0.14632128 0.074967586 0.18529236 0.05298098 0.14353023
-0.15264298 0.0007644097 0.14810112 -0.2535919 -0.51437736 -0.48453787 0.012168439 -0.32465982
0.105271414 0.4462793 -0.40856946 -0.037857316 0.078711875 -0.22203405 0.0069271843 0.18363246
-0.21520945 0.16847847 0.32306358 0.004262845 -0.1100456 -0.047132153 -0.18815865 -0.34189925
0.04319844 0.24479294 0.20785695 -0.09660158 0.30019858 0.25368503 0.15844838 -0.12635694
0.24329683 0.118956685 0.10162337 0.011215994 0.16809933 0.15490232 -0.18525948 -0.2532059

fc2.weight f4 [128, 64]
00000000: cde1 243d fa2e 05be 7a8b 453d 8966 33bd
00000010: 5265 bb3c c667 c13b 4682 523d 84e6 3bbd
00000020: 2277 d9bd b418 df3d a4ab babd 0823 7f3d
00000030: 3d7a 75be a60b 133d 6477 0bbd 000e ad3a
00000040: 24e3 dfbd bd5b fdbd 3fce b2bd d4e4 2fbe
00000050: 1402 42bd 8042 b33a 2d2e d3bd 09ad 5abc
00000060: 44bb 7cbd c061 ee3d 8a20 483d 2fc9 803d
00000070: f2ad 2dbd af78 83bc 8390 babe 276d d3bd
00000080: 1104 64bf 997e 36bd 8114 d93d 7314 d13d
00000090: 08bb 9b3d 06fb dd3d 6f41 ac3d 50ed 103c
000000a0: 5054 043d 96cf f5bc 2aed 88bd bab2 8a3d
000000b0: 2ca6 47bd 4587 ecbd 67e1 d7bb e782 653d
000000c0: 4de0 bdba 3f89 8f3c 4372 aebd 7ec8 c53d
000000d0: 07f0 b83d 229a ccbd e22d afbd cab1 a03d
000000e0: 0b24 3abb 36d4 913a 9589 fdbc b2b2 f43d
000000f0: 20c0 4abd 1033 78bd 8865 6abe e883 b4bd
00000100: dc2a 0fbe a1cd 0f3e 2dad 003e 6bb2 bdbe
00000110: 1a03 2fbd 4803 473d 3f97 0fbe ecab c8bd
00000120: 2885 1ebd cc29 cc3d 047c 53bd c8e6 6fbc
00000130: 5e36 afbd e7ec 203e a011 46bd f873 a1bd
00000140: 207f 46bc 4ba4 a3bd 8bb6 babc 87b1 44bf
00000150: 04d5 133d e617 c53d 5fa5 32be dd24 ec3d
00000160: 22dd ddbd 2856 23bd 41a8 c8bd a554 cb3d
00000170: 80ae 04bd 63d1 da3e b832 fdbc ee01 953d
00000180: 82bc 97be 7ec6 9e3d 6a27 d83c 6719 2dbd
00000190: ab4e 9d3d 757b 9ebd 1c52 253d 86d1 e5bd
000001a0: f0da d53c ed8e 87bc a881 333d 00e3 1abc
000001b0: 01bd c73d 7d74 63be 63d2 b7bd fb6e f33c
000001c0: 66db 89bd 7025 18bd 55f5 b63d 2d5d dabd
000001d0: a881 03bf 66fa 213e 5098 5f3c be37 f13d
000001e0: 152b d4bd 42a4 c4bf 9805 c13c c360 d8bc
000001f0: 80a5 b53b a10a 64be aa4a 86be 68b2 4e3d
00000200: 0af3 973d 8846 9bbc a400 61bd 0092 3b3b
00000210: 8cc0 a1bd 84ad cdbd 800b a33b 20ba a7bb
00000220: 107d aebc 9e83 c93d 7892 bdbc 168e be3d
00000230: 366d e2bd 34e2 63bd b071 ca3d 78e9 f33c
00000240: 00bd cd3a 8083 e1bd d0ad c13c f80a 2ebd
00000250: c405 f9bd f830 5c3d 6c1b fc3d 0826 a73c
00000260: f8bc 68bd 88f7 55bd a0d7 acbb 6425 61bd
00000270: d85e a7bd e022 25bd a84b fd3d 7c06 5abd
00000280: 3c11 d0bd 24f3 72bd 34de d23d 9cec 403d
00000290: c0a9 833d 104a 4e3c a4f5 14bd e0eb 2ebd
000002a0: 2cad ff3d 34ef e8bd 5ccc d7bd 6032 fc3c
000002b0: 00f8 93bd 8427 513d 68cf 0ebd b084 223c
000002c0: 509a fdbd 004c 6339 709b 09bd d817 e3bd
000002d0: 9003 77bd 7096 2a3c c094 93bc 3a08 a83d
000002e0: 3eab 8fbd a00a 84bd 78ea 4fbd 406c 8abc
000002f0: ea91 cfbd a805 52bd a41f 67bd 6609 a8bd
00000300: 13ab 6ebd bb4a cfbd 60a3 573e d594 f8bd
00000310: 42fc b13d 6e0d d73c 6e4e cf3c 48d8 a1bd
00000320: faad 123d 00e7 83bd 60f2 063c fe00 aa3c
00000330: 21ab 04bd d726 91bd 0c92 25bd 3aca e03d
00000340: fcc5 1bbd 23f4 0a3e 386d f33c 0527 d0bd
00000350: 60b1 8abb dad9 ea3d a38b f1bd 176c 97bd
00000360: a49a 593d e8ad df3c f283 c23d 5255 68bc
00000370: 7206 663d 2068 dd3d 7d3d 9dbc e39e a73d
00000380: b2bb 023e 5307 483d 700c 90bd 67bf 693d
00000390: 6fc1 4dbc b912 a83c f9b2 8c3c a02f e93d
000003a0: 9255 eebd 7cf7 ac3d b07e 0fbe 0a13 99bd
000003b0: 0524 37bc 542f 133d 7cb2 4cbd 8043 853d
000003c0: 0ca3 503b 857a bb3b 9654 3a3d 5f42 37bd
000003d0: df05 1fbe b0f4 f3bd a0bb b1bb 4544 723d
000003e0: c838 31bd 0093 533c 3d44 57bd 3dac 5c3d
000003f0: 2486 50bd e841 35be 51a0 47be e01d 633d
0.040254403 -0.13006201 0.04822872 -0.043798957 0.022875462 0.0059022633 0.05139377 -0.045874134
-0.10618426 0.108933836 -0.09114769 0.062289268 -0.23972411 0.03589978 -0.034049407 0.0013203025
-0.109319955 -0.12371013 -0.087307446 -0.17177135 -0.047365263 0.0013676435 -0.10311542 -0.013346919
-0.061702028 0.11639738 0.048859157 0.06288373 -0.042402215 -0.016048757 -0.3643838 -0.103235535
-0.89068705 -0.044554327 0.10599614 0.102089785 0.07604033 0.108388945 0.08410918 0.008845642
0.03230697 -0.030006211 -0.066858605 0.06772371 -0.04874246 -0.11549238 -0.0065881494 0.05603304
-0.0014486403 0.017521499 -0.085178874 0.096573815 0.090301566 -0.09990336 -0.08553673 0.078464106
-0.002840283 0.0011125866 -0.030949393 0.11948146 -0.04949963 -0.060595572 -0.22890294 -0.088142216
-0.13981193 0.14043285 0.12566061 -0.37050185 -0.042727567 0.048587114 -0.1402254 -0.097984165
-0.038701206 0.099689096 -0.051631942 -0.014642425 -0.085552916 0.15715371 -0.048356652 -0.078834474
-0.01211527 -0.07990321 -0.022792121 -0.76833385 0.03609182 0.09623699 -0.17445897 0.115304686
-0.10833193 -0.039877087 -0.09797717 0.09928254 -0.03239298 0.42737874 -0.030907974 0.07275759
-0.29636008 0.07752703 0.026385982 -0.042260554 0.0768102 -0.07738391 0.04036151 -0.11221604
0.026105374 -0.016547645 0.04382482 -0.009453535 0.097528465 -0.22212406 -0.08975675 0.029716006
-0.067313 -0.03714508 0.08933512 -0.10662303 -0.51369715 0.15818176 0.013647154 0.1177821
-0.1035978 -1.5362628 0.023562238 -0.026413327 0.005543411 -0.2226968 -0.2622884 0.05046311
0.07419403 -0.01895453 -0.05493225 0.0028620958 -0.078980535 -0.10042861 0.004975736 -0.0051186234
-0.021299869 0.09839557 -0.02314113 0.093044445 -0.110559866 -0.055635646 0.098849654 0.029774413
0.0015696585 -0.1101141 0.02364245 -0.04249093 -0.12159303 0.053757638 0.12309918 0.020403877
-0.05682084 -0.052238017 -0.005274728 -0.0549673 -0.08172387 -0.040316463 0.12367946 -0.05322884
-0.10159537 -0.05931391 0.10296288 0.04710065 0.064288616 0.0125909 -0.036367074 -0.042705417
0.12484202 -0.113737494 -0.10537025 0.03078574 -0.072250366 0.051063076 -0.034865767 0.0099193305
-0.123829484 0.00021676719 -0.033595502 -0.11088532 -0.06030613 0.010411844 -0.018015265 0.08204694
-0.07015084 -0.06447339 -0.050760716 -0.01689732 -0.10135253 -0.051274925 -0.05642666 -0.082049176
-0.058268618 -0.101216756 0.21058416 -0.121377625 0.086906925 0.026251521 0.025305953 -0.079025805
0.03581045 -0.06440544 0.008236498 0.020752426 -0.032389764 -0.07087486 -0.040422484 0.10976072
-0.03803061 0.13569693 0.029715165 -0.101636924 -0.0042325705 0.11467333 -0.11794212 -0.073936634
0.053125992 0.027304605 0.09497823 -0.014180498 0.05615849 0.10810876 -0.019194359 0.08184602
0.12766913 0.04883511 -0.07033622 0.0570673 -0.012558325 0.02051674 0.017175185 0.11386037
-0.11637415 0.084456414 -0.14013171 -0.074743345 -0.011178021 0.035933807 -0.049974903 0.06507015
0.0031835465 0.0057213926 0.045490824 -0.04474103 -0.15529583 -0.11911905 -0.005423978 0.05914714
-0.04326704 0.0129134655 -0.05255531 0.053875197 -0.050909176 -0.17700922 -0.1949475 0.055448413

fc2.bias f4 [128]
00000000: 2f97 0c3e 8d94 5d3c 6834 aa3d c90b 1dbe
00000010: a4d9 fe3c e251 b53d 54b0 b4bd b811 543d
00000020: 37f6 81be 0ce9 a9bd c980 a73d 148f dcbd
00000030: 30fc 183c b668 943d 99e7 71bd 51e5 2abe
00000040: cd93 563e ad89 00be e36b 78be 30dc 863d
00000050: c717 f9bd b030 733c cc29 f1bd 9a10 72bd
00000060: 84b7 abbd 9ed3 d6be 1024 c53c 0031 93bd
00000070: 5499 8bbd 7336 373e e189 8cba 1cde d4bd
00000080: 5a32 963c 9ca4 63bd d783 413d 7c23 c4be
00000090: 9a34 923d 3eb7 a9bd 3098 e6bc ce6a d53d
000000a0: cb20 203e 5d55 2c3c 3c64 b93d 9a19 b6bd
000000b0: 33a1 eb3c 9269 b13d 8371 4a3e 39b0 613d
000000c0: 1812 82bd 94be 6a3e 5f51 03bd 22a1 bfbd
000000d0: 9ab8 003e 00f9 3e3d 70c1 403d 5f65 d73b
000000e0: ca15 3e3e 6d89 cb3d 44ec 383e f2c7 a2bd
000000f0: e4a4 b53d 1c7a 983b a0fd 123e 3809 253d
00000100: 14e1 0b3d bef9 333d d82d 6fbd 8674 b13d
00000110: bd10 8dbd 7994 a43d 35c3 46be c4bc c1bd
00000120: 2d69 813d f4d7 ab3d 2810 153e bf64 c73e
00000130: 2872 24bd 9099 dabd bf45 e13d 7066 343c
00000140: 19cb 943d 774c e43c 00ca eebb 6922 503d
00000150: 0f2e e9bd 1001 6b3d f994 44be bfab 443e
00000160: b05e b7be b803 f5bc a1b6 b53d 64f3 60bd
00000170: dd46 593e c56d e2bd 39a0 0dbe ba07 803d
00000180: 30b7 f83d baa1 ec3c c2bd 2a3c 08ae 36be
00000190: 00ed 65bd 6428 c2bd 038f f53d 009f 5bbc
000001a0: 3c2c a13d ec4f afbd 4926 a73b c7c9 803d
000001b0: da97 16be b210 23be 78e8 23bd b420 593e
000001c0: 6f3e 603d 05c1 07be 85bb bd3d 492a 033d
000001d0: 7374 afbc 829a 133e a0b1 063d 7fe5 253d
000001e0: 3aa6 4e3e 2012 a9bc 68da 94bd f315 d6bd
000001f0: 2402 1bbd 3aed 5d3d 7c46 ae3d 44e6 bcbc
0.13729547 0.013524187 0.08310777 -0.15336527 0.031109639 0.088535085 -0.088226944 0.05177471
-0.2538316 -0.08296403 0.08178861 -0.107694775 0.00933747 0.072465345 -0.05905876 -0.1668904
0.20954819 -0.12552519 -0.24259906 0.06584966 -0.12162738 0.014843151 -0.1177555 -0.059097864
-0.08384612 -0.41958326 0.024065048 -0.071870804 -0.068163544 0.17891864 -0.0010722243 -0.103939265
0.018334556 -0.055576906 0.047244873 -0.38308322 0.07138939 -0.08286904 -0.02814874 0.10420762
0.1563751 0.010518399 0.09052321 -0.08891602 0.02876339 0.08662714 0.19769864 0.0550997
-0.06351107 0.22924262 -0.032060023 -0.093569055 0.1257042 0.046624184 0.047059476 0.0065733637
0.18563 0.09938321 0.18058878 -0.07948293 0.08869341 0.0046532284 0.14354563 0.040291995
0.034150198 0.043939345 -0.05839333 0.08664803 -0.06887958 0.080361314 -0.19410403 -0.09459832
0.06318889 0.08390799 0.14556944 0.3894405 -0.04014793 -0.10673821 0.10999631 0.011010751
0.072653 0.027868493 -0.007287264 0.050814066 -0.11385738 0.05737406 -0.19197454 0.19206141
-0.35814428 -0.029909 0.08872724 -0.054919615 0.21218438 -0.11056093 -0.13830651 0.06251474
0.12144315 0.028885711 0.010421218 -0.17839825 -0.056134224 -0.0948036 0.11990168 -0.013404608
0.07869765 -0.08560166 0.0051009995 0.06288486 -0.14706364 -0.15924338 -0.04001662 0.21203882
0.05474704 -0.13257225 0.09264282 0.03202275 -0.021417832 0.14414409 0.03288424 0.040502068
0.20180598 -0.020638525 -0.0726822 -0.10453405 -0.03784384 0.054181315 0.085095376 -0.023059018

fc3.weight f4 [64, 128]
00000000: 22be 873c 38d8 88bd 6809 963d 17cd eabd
00000010: e5a5 f6bb c80a af3d 77ec 8dbd d5d5 a1bc
00000020: ced6 ad3d c470 9f3c b97b 1f3d 1ad4 023d
00000030: a016 ad3d 2376 36bd 0ab0 c2bd 901f 09bd
00000040: 34c0 2cbc 9e8d 6cbd 9968 0fbd f0e7 d4bd
00000050: a738 253b 98e6 c43c dcb5 8c3d 7ef5 7e3a
00000060: 6228 743d 12f2 18bd c0ae f7bc f0b3 cabc
00000070: 46b5 3cbd 40e9 4e3d a967 32bd 02e9 75bb
00000080: 452b 20bc c0f0 113d a05b aebd 1366 d3bd
00000090: 57af 6e3d 5b21 b33d 152f b5bd 82c3 8bbd
000000a0: ff6d 553d 4903 a2bd 0767 e1bd c16a 963d
000000b0: 4ccc b3bd 9297 01bd a0ed 3a3d 318b 7ebd
000000c0: e765 4cbc c57b fdbc d8d0 ddbd 67ed 88bc
000000d0: 0e92 323c 3b8c 133b 39ce 023d 205a 64bb
000000e0: f8ad 1cbc c8b3 1cbd bf90 9fbd d212 25ba
000000f0: 97fc 98bc 34cb 443d 6f64 693b 20c5 af3d
00000100: 17f4 483d b5d6 b33c cf51 3a3d 4f7e a33d
00000110: 9798 a6bb d119 35bd cba9 4fbd 412f ddbb
00000120: 8588 9cbd 1855 67bb da3f 43bd 13bd 173d
00000130: e9b4 abbd ccea 7ebc 9cd4 67bd 670b 0f3d
00000140: f5da 2d3d 293a a63c 4073 9ebd 6d7d 1e3c
00000150: cf4a 87bd e10f 813c fa34 0f3d 7768 953b
00000160: d6bb a2bd 0396 1d3d 33c5 12bd 0575 1dbc
00000170: 25a0 b0bd c898 97bd e66b eebd 6ce7 46bd
00000180: ff7c 853d 6e2a ef3b 8615 aa3c 9ee2 98bd
00000190: 0236 87bd 6636 6abd 8561 b03c 75d4 85bd
000001a0: 2a91 5bbd ae74 94bc b19d d5bd 9fa8 523d
000001b0: 734a 46bd 9370 95bc e645 603d 4e6e f53c
000001c0: d4f4 773c d385 e3bc b6fa 82bd 7d54 a4bd
000001d0: 9ea0 6a3d 3751 82bd 4f55 ed3c 65d9 083c
000001e0: 5e4d 2c3c e72d a7bc 7ad4 54bd 0a95 c9bd
000001f0: dc55 243d 8d5f 673d 1f54 8abd 8bee 23bd
00000200: 7cd5 e13b cfbe 5fbc 1d5e 563c 1e9e 533b
00000210: a50c c5bc 8ecc c1bb a4f2 1f3d 3272 eabd
00000220: b6f9 9dbc bc4f 58bd f6c4 323d 1fb1 7cbd
00000230: 9521 47bd 2f68 e0bc 6ce0 8ebd d243 dfbd
00000240: a0b0 84bd fe12 463d df5c a5bc c02f efbd
00000250: 1563 44bd 93e7 d33c bc68 713d 6820 d4bd
00000260: 2793 df3c 7c36 6b3d f112 a3bc 954f 91bc
00000270: e393 53bb 3ed9 95bd 84d0 07bd 53fd ef3c
00000280: 57bb c3bd fff1 5bbd 3d07 b2bd 0b2d ebbd
00000290: 0f74 303c 6fd9 423c d31d 4e3c 68ba a93d
000002a0: 4648 063d 731f 343d c629 c9bd 7046 673d
000002b0: 0b0e 0bbd 37e8 663d 5eca 18bd 8ba1 ebbd
000002c0: 8c59 9ebb b523 1e3d 09e4 3f3d 0866 af3d
000002d0: e800 3bbd a8e0 53bc f736 9abd ada3 b3bd
000002e0: 0a02 023d 9dde 8e3c a56f 523b 70a0 373d
000002f0: 13cd 02bd 04fb b4bd c9ac 463d 08cd fe3c
00000300: 32d9 393d a18e 21bd cb86 3bbd 0809 06bd
00000310: fe13 0a3d f131 9a3d fbc2 2cbd eed3 64bd
00000320: e7ee f4bc 1278 24bc 6129 6ebd bdc4 85bd
00000330: c754 2cbd 5326 96b8 ae9c 1ebc 0357 5cbc
00000340: 340c c53c 1b6d c8bd a627 23bd 45a8 9abd
00000350: 9e0e 153c d940 33bd 2394 8b3d 00e1 d9bd
00000360: 7080 5a3c a854 893d b2f0 2cbd 2916 adbc
00000370: 6b2d c43c 6d78 523d d00c fd3c 4f8c 153c
00000380: b587 82bd 25aa c2bb 218e 5c3d e43f b3bd
00000390: 3de8 573c 0561 7e3d 2dee 69bd 92f9 96bb
000003a0: ea28 133d d064 613d 63b5 b8bd 54c2 97bd
000003b0: b9a4 67bd debc 53bd 37e4 923d 0233 d7bd
000003c0: ede7 d23b 6d72 413d ac9d c8bd 7e30 f3bc
000003d0: e50d bebd 080d 45bd c8dc 89bd 265a 4c3d
000003e0: 2f1b 6abd 2647 a2bd 0f46 af3d 6daf f83c
000003f0: b395 673d d32d 3c3d b795 d1bc 7818 0a3d
0.016570155 -0.066818655 0.07326013 -0.11464899 -0.0075271004 0.08546978 -0.06929868 -0.019755283
0.08488236 0.01946295 0.03893635 0.031940557 0.08451581 -0.044546258 -0.09506233 -0.033477366
-0.010543872 -0.057752244 -0.03501186 -0.10395801 0.002521077 0.024035737 0.068706244 0.0009725912
0.059608825 -0.03734023 -0.030234694 -0.024744004 -0.046071313 0.050515413 -0.04355589 -0.0037522917
-0.009775941 0.035629988 -0.0851357 -0.103222035 0.058272686 0.087465964 -0.08846871 -0.068243995
0.052106854 -0.07910783 -0.11005979 0.073445804 -0.08779201 -0.03163869 0.045636773 -0.062144462
-0.012475467 -0.030942807 -0.108308494 -0.016714765 0.01089908 0.0022514004 0.03193495 -0.0034843758
-0.009562962 -0.03825739 -0.0779128 -0.0006297055 -0.018675132 0.048045352 0.0035612842 0.085825205
0.049060907 0.021952966 0.045488175 0.07983076 -0.005084108 -0.044214074 -0.050699037 -0.006750018
-0.076432265 -0.0035298523 -0.047668315 0.03704555 -0.08384115 -0.01555891 -0.056599244 0.034922983
0.04244514 0.020291405 -0.07736826 0.0096734585 -0.066060655 0.015754642 0.03496263 0.0045595723
-0.07945983 0.03847314 -0.035832595 -0.009610419 -0.08624295 -0.074021876 -0.11641674 -0.048560545
0.06517982 0.007298759 0.020762216 -0.07465099 -0.06602098 -0.057180785 0.021530876 -0.065346636
-0.053605236 -0.018122043 -0.10430468 0.05143034 -0.048410844 -0.018242156 0.05475416 0.029959824
0.015134055 -0.027773773 -0.063954756 -0.08023927 0.057282083 -0.06363147 0.028971342 0.008352612
0.010516493 -0.02040763 -0.051960446 -0.0984288 0.040120944 0.05648761 -0.06754326 -0.040022414
0.0068919044 -0.013656332 0.013083962 0.003229029 -0.024053881 -0.0059142774 0.03904976 -0.11447562
-0.01928411 -0.052810416 0.043644868 -0.061692353 -0.04861601 -0.027393429 -0.06976399 -0.109016076
-0.06479001 0.048357956 -0.020185886 -0.116790295 -0.047946054 0.02586726 0.058937773 -0.103577435
0.027291847 0.057425007 -0.019906493 -0.017738143 -0.0032284192 -0.07316826 -0.03315784 0.0292956
-0.095572166 -0.053697582 -0.08692787 -0.11483201 0.010769858 0.0118926605 0.012580353 0.08287507
0.03278377 0.043975305 -0.09822421 0.05646366 -0.03394894 0.0563738 -0.037302367 -0.11505421
-0.004832452 0.03860827 0.04684833 0.08564383 -0.04565516 -0.01293198 -0.07530015 -0.08771453
0.031740226 0.017440135 0.0032110002 0.04483074 -0.031933855 -0.0883694 0.048504625 0.031103626
0.04537315 -0.039442662 -0.045782845 -0.032723457 0.033710472 0.07529057 -0.042178135 -0.055866174
-0.029899074 -0.010038393 -0.05814493 -0.065316655 -0.042073037 -7.159696e-05 -0.00968091 -0.01344848
0.02405367 -0.09786435 -0.039832734 -0.07551626 0.009097723 -0.043763015 0.06815364 -0.106386185
0.013336286 0.067056 -0.042221732 -0.02112873 0.023947438 0.05138438 0.030889899 0.00912769
-0.0637354 -0.005940693 0.053846482 -0.087524205 0.0131779285 0.062104244 -0.057111908 -0.004607388
0.03592769 0.055027783 -0.09018972 -0.07410112 -0.056553576 -0.05169379 0.07172435 -0.10507776
0.006436339 0.047228266 -0.097956985 -0.029686209 -0.09279994 -0.04810813 -0.06731564 0.04989066
-0.05715483 -0.07923727 0.085582845 0.030357087 0.05653925 0.04594214 -0.025584085 0.03371474

fc3.bias f4 [64]
00000000: c3cf 9cbc f229 2ebc a266 f2bd 3781 aabd
00000010: 61e4 46bd fbd0 273d e57d 9e3b 6a29 293d
00000020: faf5 283d 0912 bc3c 7216 eebd cb29 e73d
00000030: c398 0d3e 71cd dbbc 22e3 b4bd d499 73bd
00000040: 4805 d23c 4acd 353d f562 abbd 7262 3d3e
00000050: b68e 70bd 3083 7e3e 12f9 003e a669 093c
00000060: 491c 2bbc b462 b7bc f99d c6bd 6679 cebe
00000070: 8ebe 053e 6453 8bbd c934 5cbd f662 7b3b
00000080: 1e82 adbd 2b3c e43b 4dbd a1bd a9d9 1b3e
00000090: a24b 193c 917f 40bc 8616 8cbd 371f 0abc
000000a0: d631 78be 62ee 953c 5d4d e0bc f601 ccbd
000000b0: a06f 37bc 7ba4 13bd 6e17 c33d ea6a 0b3e
000000c0: 2a78 dcbd 8c13 ab3d 55ed 9c3d 4657 cbbe
000000d0: 5bd2 2abd c0e6 29bd 42e6 33bd d49b bbbd
000000e0: 8785 abbd a112 a93d 3593 babd 71a3 dabd
000000f0: 605c 76bc 00dd bd3e 5c37 cf3d dee4 113d
-0.019142037 -0.010630118 -0.11835982 -0.08325427 -0.048557643 0.040970784 0.004836785 0.04129926
0.041250207 0.022957819 -0.11625375 0.11287268 0.13827805 -0.02683136 -0.08832385 -0.059472874
0.025637284 0.044385232 -0.08368484 0.18494585 -0.05872985 0.24854732 0.12595013 0.008387005
-0.010443755 -0.022385933 -0.096981 -0.40326995 0.13060972 -0.06803015 -0.053761277 0.0038358546
-0.084720835 0.0069651804 -0.078974344 0.1521975 0.009356411 -0.011749164 -0.068402335 -0.008430294
-0.24237761 0.018302146 -0.02738064 -0.099613115 -0.011196047 -0.036045533 0.09525953 0.13615003
-0.10765107 0.08353338 0.07662455 -0.39715022 -0.041704517 -0.041479826 -0.043920763 -0.09160581
-0.08375078 0.08255506 -0.09110109 -0.10675705 -0.015036672 0.37082672 0.10117981 0.035618655

fc4.weight f4 [2, 64]
00000000: 95ae 3d3d a9ad b2bd 0daa c6be f8a0 cbbc
00000010: f67c e93d d573 fabe 907e 4d3d 8092 813e
00000020: e78c 31bc 9c6c cb3d 0888 c9bd b7f3 3abe
00000030: 5445 5a3f 9fdd ec3e de9d 18be 9bbc 343d
00000040: 300c c8bd a36a eb3d b6f0 5abe 77de ae3d
00000050: 2882 18bc 0072 61be 0a51 c23d 4612 f0bc
00000060: fd2c 83bd 021c 1e3e 2b29 db3c 56f6 a93e
00000070: 7e8a cc3c d7a8 afbd 7ee3 dbbc ada3 5e3d
00000080: e78f 0b3d bc4b b43d 30c5 82bb c491 563c
00000090: ac84 023e 4c9b cdbd 0002 a03d 1df5 22bc
000000a0: f95b 983d a887 c4be ef57 93be 028e c9bc
000000b0: 7f90 c0bd 50d2 2d3d 88a3 3cbd 86dc 0b3e
000000c0: 3fa0 bf3d 27f9 1b3e 890e 753d 5090 693e
000000d0: 5872 0dbd 6077 b23d cf66 bbbc 3320 9a3c
000000e0: 4c3d 9fbd 4db9 82bc d7bb 4abc 00ae e63d
000000f0: 77e4 3ebc a2cf 3e3f 02df 313e b3fe 393d
00000100: 07ea b63b e747 b0bd dce5 24bf 2d57 5cbb
00000110: 3b4d c5bd bb8e e0bc 2e4d cd3d 0d79 e23d
00000120: 5706 c83d 3c4f 0dbe 4379 90bd ba51 ed3d
00000130: fc67 bebe 78e1 20be 374f e73e 48f6 d2bc
00000140: 3eba 90be a485 7bbd a4f2 8cbd f811 9e3e
00000150: 56f6 8cbd d50f 683e 1653 033e e4ee 503e
00000160: 9ca9 3bbb 3a05 7c3e c1df 2f3d 05dd f93e
00000170: fe1c ba3d f7f0 563d 21af cebd 560d 723e
00000180: b459 f2bd 4a03 8fbd 2324 55be ff26 403d
00000190: bfc4 2abb 1ecf 193d d326 c53a cd2e 963d
000001a0: 436b cabd e5a2 f4bc 260e 81be 0bea 983d
000001b0: 7eea 7d3d 5761 b43d c665 afbe e8fa c13d
000001c0: d5af a23c 8940 d53d e1ff 823c 3c46 b53e
000001d0: 4c73 c2bd 0811 20ba 82e2 e8bc 7112 9cbd
000001e0: e27d 3abd 2c40 41bc 72f8 2d36 37db 82bb
000001f0: 3d1c b4bd 01b0 a6bd cc45 003e d8b1 2b3e
0.046309073 -0.08724529 -0.38801613 -0.02485703 0.114007875 -0.48916498 0.050169528 0.25307083
-0.010836816 0.09932825 -0.09840399 -0.18257032 0.85262036 0.46262833 -0.14903972 0.04412518
-0.097679496 0.11494949 -0.21380886 0.085385256 -0.009308375 -0.22016144 0.09488113 -0.029305588
-0.06405065 0.15440372 0.026753029 0.33195752 0.024968382 -0.085771255 -0.026841875 0.054355312
0.034072783 0.08803508 -0.0039907917 0.013096277 0.12745923 -0.10039386 0.078128815 -0.009946135
0.074394174 -0.38384748 -0.28778026 -0.024603847 -0.094025604 0.042436898 -0.046054393 0.13658342
0.093567364 0.15231763 0.059828315 0.22808957 -0.034532875 0.08714175 -0.022876171 0.018814182
-0.07775363 -0.015957499 -0.012373886 0.112636566 -0.01165115 0.7453557 0.17370227 0.045408916
0.0055820975 -0.08607464 -0.6441324 -0.0033621297 -0.09633871 -0.02741181 0.100244865 0.11058245
0.09766834 -0.13799757 -0.07054379 0.11587854 -0.3718871 -0.1571101 0.45177624 -0.025752202
-0.28267092 -0.061406747 -0.068822175 0.30873084 -0.06882922 0.2266229 0.12824664 0.2040363
-0.002863503 0.24611369 0.042937998 0.48801437 0.09087561 0.052475896 -0.10091997 0.236379
-0.11833516 -0.06983049 -0.20814566 0.04691219 -0.0026057211 0.037551038 0.0015041478 0.07333145
-0.0988374 -0.02986283 -0.25206107 0.07466515 0.061991207 0.088076286 -0.34257334 0.09471685
0.019859234 0.104127 0.015991153 0.35405147 -0.094946474 -0.00061060535 -0.02842832 -0.07620705
-0.045530207 -0.011795085 2.5923623e-06 -0.0039934176 -0.087944485 -0.08139039 0.12526625 0.16767061

fc4.bias f4 [2]
00000000: 2996 f83c 4292 9ebd
0.03034504 -0.0774274
