model_last.pth (torch, 72612 bytes, 8 tensors)

fc1.weight f4 [64, 9]
000000 12 ea a0 bf d4 85 e2 be bb 0c 98 3e 3a f6 ae 3e
       -1.2571433 -0.44242728 0.29697213 0.3417223
000010 e1 80 73 3c 00 36 87 3b ea 8a e5 3d 53 27 b6 be
       0.01486227 0.0041263103 0.112081364 -0.35576877
000020 b1 0f bb c0 9c 60 0f 3e b4 fd 07 3e 2e 68 7d 3e
       -5.8456655 0.14001697 0.13280374 0.24746773
000030 ea 38 8d be 24 ab a9 bd e2 70 f3 3b e2 5f 0a be
       -0.27582484 -0.082845956 0.007429228 -0.13513139
000040 d3 de 34 be 06 c1 b9 bd 41 68 1b 3f 2f 70 33 3e
       -0.17663126 -0.090700194 0.60705954 0.17523263
000050 6a 66 62 bf 84 a4 1b bf 93 51 70 3e fc 5e 70 be
       -0.8843752 -0.60797906 0.23468618 -0.23473734
000060 84 cb 3e 3e 31 a1 bf be f9 55 0d c0 52 14 60 bf
       0.18632323 -0.37427667 -2.2083724 -0.87531006
000070 e9 2e c3 be 4d cd 44 3f e2 dd 6d 3e 43 ae 63 be
       -0.38121727 0.76875764 0.23229173 -0.22234444
000080 59 b8 03 3e 3f 7e 1d bf 2c ea 94 bf 52 0b a4 be
       0.12863292 -0.6152076 -1.1633964 -0.32039887
000090 a7 0b 20 3f 01 3a aa be 51 76 f9 3e a0 70 7b 3e
       0.6251778 -0.33247378 0.4872308 0.24554682
0000a0 ed b4 82 bd b6 b2 bc 3d 49 56 40 3f 7d 33 ac be
       -0.06382165 0.09213774 0.7513166 -0.33633032
0000b0 1b 78 17 be 31 f4 ac bf d2 8b dd bd e7 f3 16 3e
       -0.1479191 -1.3512021 -0.10817684 0.14741479
0000c0 a8 d5 ac 3e 07 ff 96 3d 46 78 8a 3e 44 a3 79 3e
       0.33756757 0.07372861 0.27044886 0.24378687
0000d0 e9 59 05 bf dd 80 06 40 eb 50 bb bc ae 76 0c bf
       -0.52090317 2.1016152 -0.022865733 -0.5486859
0000e0 70 20 2f 3f 37 df 22 be 8d a9 4a 3d 14 1c 3a 3e
       0.6840887 -0.15905462 0.049478102 0.18174773
0000f0 09 8d d5 3c 73 dd c9 be 08 0d 77 3e e0 e9 07 be
       0.026068227 -0.39426765 0.24126065 -0.1327281
000100 60 aa 29 bd 76 c5 92 bd 4b 51 ef 3d e4 ff 83 be
       -0.041422248 -0.07166569 0.11685427 -0.25781167
000110 60 da 17 be 70 d0 ba 3d e3 fd 84 be 73 a7 6f 3e
       -0.14829397 0.091217875 -0.2597495 0.2340372
000120 05 cd 2b bf 9a d4 c4 3e 7a d9 8f 3e 45 ff aa 3e
       -0.6710971 0.38443452 0.2809561 0.3339788
000130 db 7a 9c 3d b1 d4 f9 bc 23 3f 87 bf fe ed 30 bf
       0.0764062 -0.030496927 -1.0566143 -0.6911315
000140 76 3b 80 3f 0a db c2 be fa 55 d6 be 62 4d 49 bf
       1.0018146 -0.3805774 -0.4186247 -0.786337
000150 de d4 75 bd ce 76 2f be 0b 32 14 3e c3 54 26 39
       -0.06001746 -0.17135164 0.14472215 0.0001586257
000160 71 6b 84 3e 99 26 3d 40 60 07 44 3e 0b 28 14 3d
       0.2586322 2.9554808 0.19143438 0.036171
000170 56 61 1c 3c 16 f5 3b 3e e6 45 0a be 56 51 35 bd
       0.009544691 0.18355212 -0.13503227 -0.04426702
000180 66 24 84 bd d6 94 5d be f0 df 64 3e 00 23 12 be
       -0.06452255 -0.21638808 0.2235105 -0.14271164
000190 de d0 70 be 30 a8 a1 3e b6 74 7a 3e a0 dc 28 be
       -0.23517177 0.3157363 0.24458584 -0.16490412
0001a0 40 88 39 be 2c 68 90 3e 3f e1 90 3e 5b 1a 14 3e
       -0.18118382 0.28204477 0.2829685 0.14463179
0001b0 14 88 0e bf f9 86 4e 3f 47 cb 2d 3d bf 56 0d be
       -0.5567639 0.806747 0.04243019 -0.13802622
0001c0 f8 c4 92 3e 88 c9 b6 be eb fa 3f bf db be 12 bf
       0.286659 -0.3570063 -0.74992245 -0.5732247
0001d0 9a 7b ea bd 6a 66 ef 3f 63 d8 01 3e f4 67 1f bf
       -0.114493564 1.8703129 0.12680201 -0.62267995
0001e0 fa 2b 0e 3e ff 45 2a 3e d1 26 43 3e 48 46 5f 3e
       0.13883963 0.16628264 0.19057776 0.21804154
0001f0 83 73 23 3f 29 d7 e2 3f ab 5e 28 40 29 96 12 bf
       0.6384813 1.7721912 2.630778 -0.57260376
000200 89 5e 3c bf 99 d8 d2 be 3a 35 50 3d f5 66 60 bd
       -0.7358175 -0.41180876 0.05083201 -0.054785687
000210 6b d0 87 3f 45 44 00 3f 54 9f f4 be 08 18 30 3f
       1.0610479 0.5010417 -0.47777808 0.6878667
000220 cf 09 3c 3f 2f 80 0b 3e f3 c9 98 be dd 43 87 3d
       0.73452467 0.13623117 -0.29841575 0.06604741
000230 7e 08 21 bd 28 4f e6 be 55 d3 1a 3f 25 67 b6 3f
       -0.03931474 -0.44982266 0.6047872 1.4250227
000240 c7 c3 1e c0 c7 8f 03 bf c8 bc 4c bf f8 eb 3b 3e
       -2.4806993 -0.5139126 -0.7997556 0.18351734
000250 6d 3a 26 3e be 29 26 be 32 9a 27 be f7 e9 5b bf
       0.16233225 -0.16226861 -0.16367415 -0.8590388
000260 bd 96 1e c0 7b 2e 25 3e d6 31 5e bc 96 b5 40 bd
       -2.4779503 0.16131012 -0.0135616865 -0.047048174
000270 46 e2 93 3d b8 3a 91 be ab d7 c6 bd 90 8e 3d be
       0.072208926 -0.2836511 -0.09709104 -0.18511415
000280 c0 f0 54 bd b0 e1 fc 3d da df 6b 3d 3e c0 7b be
       -0.05198741 0.12347734 0.05758653 -0.24585053
000290 95 6e 0b 3d cb 6a 86 be 59 7d a2 be 44 99 49 3e
       0.034041006 -0.26253352 -0.31736258 0.19687372
0002a0 2d a5 0a be fa 90 9a be 12 59 2f c0 6d 46 8b 3f
       -0.13539572 -0.30188733 -2.7398114 1.0880867
0002b0 21 66 1a bf 3a 2c 50 3d a2 65 3b bf 24 16 ec 3d
       -0.60312086 0.050823428 -0.73201954 0.115276605
0002c0 8b 0d 2d be b9 f7 1d 3f 0c 23 ad bf 6d 6a 18 40
       -0.16899697 0.6170612 -1.352632 2.3814957
0002d0 06 58 d3 3d ae 6d 45 3e 4b 8e 9a 3e 47 15 9b 3e
       0.103195235 0.1928012 0.30186686 0.3028967
0002e0 ee 4d 13 be 70 de 86 be b0 4f da bd b6 78 7e 3d
       -0.14385197 -0.2634158 -0.106597304 0.062126838
0002f0 38 32 9f be d7 21 60 40 5a 7a be 3e c4 ce b3 bf
       -0.31093 3.5020654 0.37202722 -1.4047475
000300 77 3e 08 bf 45 d8 e6 3d 28 b0 7c be 10 e7 8e 3f
       -0.53220314 0.11271719 -0.24676573 1.1164265
000310 73 93 88 bf 1d 4e 02 c0 7c f5 01 3f af e1 33 3e
       -1.0669998 -2.0360177 0.50765204 0.1756656
000320 d5 2e e0 bd 55 54 54 be b3 8d 19 3e 7e 5e 7c 3e
       -0.109464325 -0.20735295 0.1499546 0.24645421
000330 a6 ea 86 be 14 ec 1e bc d6 49 17 bf 5a 9d 09 bf
       -0.26350898 -0.00969984 -0.5909704 -0.53755724
000340 b2 b4 cd 3e be b0 5b 3f 53 43 c8 be 09 ae a9 bd
       0.40176922 0.8581656 -0.39113864 -0.08285148
000350 aa 99 03 3e fb a0 1d 3f d7 31 a8 bf 9c 3e 34 3f
       0.12851587 0.6157376 -1.314021 0.70408034
000360 48 16 6f 3f 98 d0 0a bf 68 aa 7b 3e 72 c8 80 be
       0.93393373 -0.5422454 0.24576724 -0.25152928
000370 f1 88 67 3e e5 a5 89 be 8a ef da 3e aa f2 ba be
       0.22610833 -0.2688438 0.4276088 -0.36513263
000380 e4 e6 ac bf bb 30 ba bf b4 59 86 be e0 ff 57 3e
       -1.3507962 -1.4546121 -0.26240313 0.21093702
000390 fb 6f 89 3e 72 b4 83 3e 40 65 93 3e 7b 70 3e 3e
       0.26843247 0.25723606 0.28788185 0.18597595
0003a0 98 b7 f3 3d b0 f7 3d bf 05 1e 04 c0 76 9f f3 3e
       0.11900252 -0.74206066 -2.0643322 0.47582597
0003b0 72 53 dc 3e 03 f5 84 3e fc b0 12 bd 84 26 23 3e
       0.43032414 0.2596818 -0.035813317 0.15932661
0003c0 42 64 80 bf 3f a2 9d be 4f f8 28 c0 40 4b 91 bf
       -1.0030596 -0.30787846 -2.6401556 -1.135109
0003d0 e8 71 73 bf a2 1e f9 be 05 5f 8a bc d8 35 88 3e
       -0.9509568 -0.48656183 -0.016891012 0.2660358
0003e0 b7 1b c3 3d aa f9 aa be 7d 62 bc be da aa 26 3f
       0.095267706 -0.33393604 -0.3679389 0.6510445
0003f0 de 06 2c 3f 9f b0 85 3f 1b 14 1c 3f 82 fe 27 be
       0.6719798 1.0444525 0.6096818 -0.16405681

fc1.bias f4 [64]
000000 df de bf 3d d6 9e 87 3e 32 f2 9f 3c 4b 37 89 be
       0.09368681 0.2648837 0.019524667 -0.26799998
000010 b7 77 62 3b 28 33 45 3e cd dc 9b 3d b0 bc 25 be
       0.003455622 0.19257796 0.07610474 -0.1618526
000020 f3 14 db 3d e7 6c 5c bd 00 87 39 3d ce 8d 50 3e
       0.10697355 -0.053814795 0.04529476 0.20366594
000030 3a 2f 21 bd 82 ba 46 be b2 ee d4 be 82 65 f1 be
       -0.03935168 -0.19407085 -0.4158836 -0.47147757
000040 e3 13 e7 bd 00 25 97 3b 99 00 53 3d d2 59 50 bf
       -0.1128309 0.004612565 0.05151424 -0.81387055
000050 c3 bb 9a be fc ad 3e bf 11 af 81 be f7 cd 3d be
       -0.30221376 -0.7448423 -0.25328878 -0.185356
000060 85 f9 90 3d ac 2b 55 3e 3c a0 14 3e 7e a0 bd bd
       0.07078842 0.20817441 0.1451425 -0.09259127
000070 9b db 79 be 79 63 ef 3c 2e f5 13 be 68 bd 8c be
       -0.24400179 0.029222237 -0.14448997 -0.27488256
000080 4a ca 53 3d 7d 23 0a 3f 3e 01 75 3e 30 d2 35 be
       0.05170659 0.539604 0.23926255 -0.17755961
000090 ab 5d 13 3c 53 d1 08 3e 73 9d 81 3e 14 e8 99 bd
       0.0089945 0.13361101 0.25315437 -0.075149685
0000a0 75 e9 84 3e db 4d 9a be ee 4a 3d bf 71 3d de 3d
       0.25959364 -0.30137524 -0.7394246 0.10851563
0000b0 b0 9f 5b bd 45 0c b7 be 36 97 ba bd d8 13 c0 3d
       -0.053619087 -0.35751548 -0.091108724 0.09378785
0000c0 18 86 e2 38 1f 84 4c bd 09 66 f2 bc 80 da 01 be
       0.00010801497 -0.049930688 -0.02958967 -0.12681007
0000d0 f6 1f 95 3d 13 33 71 be bb de a2 3e 55 91 73 3d
       0.07281487 -0.2355464 0.31810555 0.05946477
0000e0 91 a0 33 3d aa 8c b0 3d 04 5a d8 3e 9d 29 b9 be
       0.0438543 0.086205795 0.42256176 -0.3616456
0000f0 80 39 18 be 22 19 8c 3f 7a 2f 1d 3f 91 86 cb 3e
       -0.14865685 1.094517 0.6140057 0.39751104

fc2.weight f4 [128, 64]
000000 b6 50 97 be d3 59 fa 3c e6 b8 22 be d6 8d 37 be
       -0.29553765 0.03056041 -0.15890846 -0.179252
000010 a6 c9 2a 3d 15 7d 93 bd cd 3d 07 bc 3e 97 99 3d
       0.041696213 -0.07201592 -0.008254481 0.0749955
000020 fe 0d 3f 3d 46 16 ab 3e d4 0a d2 bd fc ba 99 3d
       0.046644203 0.3341543 -0.102559716 0.075063676
000030 23 4a 2a 3e 22 9d f4 bd 7e b3 a9 be e7 49 be 3e
       0.16629843 -0.11944033 -0.33144754 0.37165758
000040 1d 6f 06 be 00 3a 8d 3c ed 85 25 3e b7 f5 f7 be
       -0.13128324 0.01723957 0.1616437 -0.48429653
000050 e4 1c fa 3d 9b fe 29 3d 23 36 bf 3d d2 de 92 3e
       0.12212542 0.041502576 0.09336498 0.28685623
000060 01 a5 8b bd 1c 48 57 bc 94 4e 2f 3e 26 09 86 bd
       -0.06818581 -0.013139751 0.17119819 -0.06544714
000070 9a 73 1b 3e 74 8e 01 3e 70 d6 f2 3c bc a7 8f bd
       0.15180817 0.12651998 0.029643267 -0.07014415
000080 1f 06 88 bd 9b eb a9 3d aa 6a 46 3d 50 f8 ce 3d
       -0.066417925 0.08296891 0.048441567 0.101059556
000090 68 8d b0 bd 00 ed e7 3b 28 be e9 bc d3 e0 e0 3d
       -0.08620721 0.007077813 -0.028533056 0.10980382
0000a0 3c 5e e3 3d b2 a0 8b 3d 4b 50 97 3a 28 50 5b 3d
       0.11101958 0.068177596 0.0011544315 0.05354324
0000b0 3e 25 5c bd cd 14 b4 bd 82 29 c3 3d 17 f3 ba bd
       -0.053746454 -0.0879303 0.09529401 -0.09128397
0000c0 45 cb 14 3e ae e8 cc be ce a9 c0 bd 0c 9e f7 3d
       0.14530666 -0.4002127 -0.09407388 0.12090692
0000d0 59 11 54 bd 2e 06 98 3d ad 01 74 3d f3 de c7 3c
       -0.051774357 0.07423054 0.05957191 0.024398303
0000e0 40 a0 b7 bd 92 78 af bd ba 17 6b be c1 23 cb 3c
       -0.08966112 -0.08567919 -0.2295827 0.024797322
0000f0 2e e7 bc bd 4d 30 f1 3d 64 19 10 3d c7 39 b5 bd
       -0.092237815 0.11776791 0.035180464 -0.08848911
000100 10 6d d2 3b ec 25 d4 bd 5c f7 ad 3d e8 aa 2e 3d
       0.0064216927 -0.103587955 0.08494446 0.042643458
000110 e0 19 dd bd bb 09 a9 bd 3e 16 d6 bd d8 81 25 bd
       -0.10795951 -0.08253809 -0.10453461 -0.04040703
000120 dd f0 a2 3d 50 18 0d bc ea 48 9a bd 14 dc bb 3d
       0.07956097 -0.008611754 -0.075334385 0.09172836
000130 6b e1 25 bd 81 04 d3 bd 14 b5 3f 3e 47 3f 27 bc
       -0.04049818 -0.103035934 0.1872142 -0.010207958
000140 b4 2c d3 3d 00 38 18 b9 e0 a0 d7 3d 00 57 9c 3c
       0.10311261 -0.00014516711 0.10528731 0.019084454
000150 34 ac a3 bd 1f a5 b0 3d 53 1c 12 be 9a 50 a6 bd
       -0.079918295 0.08625244 -0.14268617 -0.08120842
000160 84 45 e7 3d cf d3 a3 bc 8d d9 30 bd 92 78 ce bd
       0.11292556 -0.01999846 -0.043176223 -0.10081591
000170 f3 c0 80 bc 43 c4 96 3b 86 7a 81 3d 10 16 19 3d
       -0.015717005 0.004601033 0.063221976 0.037374556
000180 72 4d 9e 3d 17 d7 ab 3d c0 d6 10 3c b8 df a8 bd
       0.07729615 0.083906345 0.008840263 -0.08245796
000190 12 57 8c bd e0 ca bb bc ee 8a f9 3d 80 e2 81 bd
       -0.06852545 -0.022923887 0.12184702 -0.063420296
0001a0 4b 8f 16 be a0 ca a0 3b 8f 5b 41 bc 47 c9 e0 be
       -0.147031 0.0049069673 -0.011801614 -0.43903562
0001b0 4a 81 48 bd 87 cb 30 be 4a 96 a3 bd 6f 64 eb 3d
       -0.048951425 -0.1726514 -0.0798765 0.114937656
0001c0 f4 74 70 3c 27 09 2d 3f b8 6d e9 bd 03 b4 88 bd
       0.014676321 0.6759209 -0.1139788 -0.066749595
0001d0 22 28 b6 3d d0 be 3c bd 90 65 65 3d a0 af 1f 3d
       0.088943735 -0.04608041 0.05600506 0.03898585
0001e0 46 54 9d bc 01 e4 5a 3d 41 72 22 be d1 cb 8a 3d
       -0.019205224 0.053440098 -0.15863897 0.06777156
0001f0 24 2a 63 3d 74 62 3c 3e 71 b6 82 bc bd cd 17 bd
       0.05546011 0.18396932 -0.015956135 -0.03706144
000200 98 58 ee 3d 48 2f df 3d 02 1e da 3c 43 11 86 bd
       0.11637992 0.1089769 0.026625637 -0.06546261
000210 63 4b 9e bd fc 7a 26 3c 19 94 f6 bd 24 21 cb bd
       -0.077292226 0.010161158 -0.12039966 -0.099184304
000220 1d 0e ca 3d 16 c5 62 3e 8e a0 f1 3d 68 00 1c 3d
       0.09865973 0.22145495 0.117982015 0.038086325
000230 e9 46 e7 bd 84 93 17 bd 1d 9c 69 bd a6 af ba bc
       -0.11292822 -0.037005916 -0.057033647 -0.022788834
000240 40 8f 48 3d 3c 97 83 bd 7b 7b 13 bf e5 72 b5 bc
       0.04896474 -0.0642533 -0.5761029 -0.022149513
000250 18 a8 89 bc 29 17 df 3c 8b 30 d9 3d a3 82 93 3e
       -0.016803786 0.027232723 0.10604962 0.28810605
000260 a9 0e 1c 3d a8 59 ec bd a8 02 7d 3d b1 99 c3 ba
       0.03809992 -0.11540538 0.06177011 -0.0014923123
000270 1f 7c 34 3d cb 5c 01 3e ec ed a0 3d d0 03 e8 bc
       0.044063684 0.12633054 0.0785788 -0.02832213
000280 f0 c8 0a be c9 db ff 3d 22 4c 82 bd 70 53 ea bd
       -0.13553214 0.124930926 -0.063621774 -0.11441696
000290 58 cb ed 3d 08 27 04 3d 00 9a a1 b9 c6 c3 b2 bd
       0.1161105 0.032263786 -0.00030823052 -0.08728747
0002a0 66 e6 91 3d 48 90 e0 bd 95 aa bf bd c1 4d 4c 3d
       0.07124023 -0.109650195 -0.09358708 0.04987884
0002b0 9f f2 8f bc 81 51 89 3d e6 a8 80 3d 73 00 87 3d
       -0.017571745 0.06704999 0.06282215 0.065918826
0002c0 4b 36 3e 3c 6f a5 ad 3e 7b a8 0d bd e0 4c c9 bd
       0.011609624 0.33915278 -0.034584504 -0.09829116
0002d0 ac 84 92 3d f0 87 3d 3c a7 d3 ae 3b 54 4e 77 bd
       0.071542114 0.011568055 0.0053352895 -0.060377434
0002e0 e2 76 33 3d c5 42 e1 bd ee c0 29 3e 2d ff 80 3d
       0.043814547 -0.109990634 0.16577503 0.06298671
0002f0 40 fd d8 3c b2 9d 8c be 06 6c 1d 3d 76 65 b3 3d
       0.026487947 -0.27464062 0.038433097 0.087595865
000300 68 00 12 3f 8a 06 f0 3d 03 71 49 3e 50 37 31 bd
       0.5703187 0.11719997 0.19672017 -0.04326564
000310 d6 68 f0 bc 4c b4 97 3d 81 7b 96 bd a8 66 fd 3c
       -0.029346865 0.07407436 -0.07347775 0.03093274
000320 4f 65 03 3e 00 d9 9d be 5c 98 95 bd 40 f1 17 bd
       0.12831615 -0.3082962 -0.07304451 -0.03709531
000330 4b 74 64 3d 3e d0 21 be 3f 65 bd 3d 2f 25 7a be
       0.055774968 -0.15802094 0.09247827 -0.24428247
000340 a7 89 54 3e fc c2 c6 bd ab 8b a7 3d 27 93 ee bd
       0.20755635 -0.09705159 0.081809364 -0.11649161
000350 56 be 96 3d 24 10 cd bd 54 d0 8b 3d 39 11 5b 3e
       0.073605224 -0.10012844 0.06826845 0.21393289
000360 2a 83 92 3d 04 bb ac 3d 45 6c 82 3e f2 1a 34 bd
       0.07153924 0.08434108 0.25473228 -0.04397101
000370 f7 1e 60 be b3 c4 3c bd 90 8a 63 bd 40 6b 93 bb
       -0.21886812 -0.046086024 -0.055552065 -0.004498869
000380 c1 bc 4f 3d f2 df 1c 3e 18 5d f3 3e 16 87 e6 bd
       0.05071712 0.15319803 0.47531962 -0.11256234
000390 66 1b a4 bd 60 8b e5 bb e4 04 f7 bd 22 cb 0a be
       -0.08013038 -0.00700514 -0.1206148 -0.13554052
0003a0 ae 79 2e bd f4 35 53 3d 71 2a 6d be 80 7f 61 3d
       -0.04259651 0.051565126 -0.23160721 0.055053234
0003b0 93 45 67 3b e4 6e 56 3d a6 a4 fa 3d 91 c9 05 be
       0.0035289272 0.052351847 0.122384354 -0.13065173
0003c0 5f 62 13 3e ba 65 a4 bf 0c 10 8b be 21 95 82 3d
       0.14392994 -1.2843544 -0.2716068 0.063761
0003d0 4b c9 d2 3d 32 fd b2 bd 9c 61 89 3e 6e f4 e8 3c
       0.102923 -0.087396994 0.26832283 0.028436866
0003e0 72 3d d1 bc 84 18 55 bd 4e 6a 2b be 82 4c b6 bd
       -0.025541995 -0.052025333 -0.16739771 -0.089013115
0003f0 c8 ed e3 3d f6 75 80 be c3 41 14 3e e7 22 39 3e
       0.111293375 -0.25089997 0.14478211 0.1807972

fc2.bias f4 [128]
000000 8d 8d 05 3e 4b 74 f3 bd 00 13 be 3b c8 16 f7 bc
       0.13042279 -0.118874155 0.005800605 -0.03016223
000010 8c 53 2c 3d a7 b7 07 bd cb 2e db 3d 27 af ac 3d
       0.042071864 -0.03313413 0.107022844 0.08431845
000020 d0 e5 89 bc 00 da 8a 3d 7d 62 e3 3d 5e c7 c4 3b
       -0.016833216 0.067798615 0.111027695 0.0060052117
000030 39 81 ed be 22 b3 b5 3b f8 8a 2e 3e b0 5d 37 3c
       -0.46387652 0.005545036 0.170452 0.01119177
000040 03 fe b8 3d 00 96 e2 ba 06 fe 6c 3e 24 4c 17 3d
       0.09032824 -0.0017287135 0.23143777 0.036937848
000050 69 d3 ec bb 7a 37 ef 3e 6e 18 84 bd 84 9a 01 bd
       -0.0072273505 0.46722013 -0.06449972 -0.0316415
000060 a9 68 04 3e d0 e2 47 3d 33 53 9a 3c e4 96 8b bd
       0.1293055 0.04880029 0.0188385 -0.068158895
000070 75 d0 02 bf 43 25 0d bc 08 93 65 3e 06 9e 29 3c
       -0.5109933 -0.008614841 0.22419369 0.010352617
000080 c8 2e f5 3d d0 86 12 3c d8 65 fc bd 5a 19 e8 bd
       0.119718134 0.008943275 -0.12324113 -0.113329604
000090 88 f1 d1 bc c6 a0 7f 3d a0 03 d1 bd b7 ee 9a 3c
       -0.025627866 0.062409185 -0.102057695 0.018912656
0000a0 96 c3 c0 bd 08 b8 b9 be ce f2 ac bd 58 3e a0 3c
       -0.09412305 -0.36273217 -0.08444749 0.019560978
0000b0 d5 3a 3a 3d 5e 5d af 3d 10 8c a0 3c 2f 1c 9b bd
       0.045466263 0.0856273 0.019598037 -0.07573735
0000c0 cb da 8e be 1e f2 b4 3d 65 54 18 3e 6c f3 36 bd
       -0.279013 0.08835243 0.14875944 -0.04466574
0000d0 e8 c4 d0 3d 90 07 15 bd 5c ee 05 bd 60 67 4e 3d
       0.10193807 -0.036384165 -0.03269802 0.050391555
0000e0 e7 a7 95 3c eb ce 84 3a 20 da b0 3d 18 6f 55 3d
       0.018268539 0.0010132467 0.08635354 0.0521079
0000f0 a9 fb 2e 3e da 91 ad bd ac 93 00 3d 44 ac 9f 3d
       0.17088188 -0.084750846 0.03139083 0.07796529
000100 70 19 27 bc bc 2e 15 3d eb fe c6 3c 56 25 05 3d
       -0.010198936 0.036421522 0.024291476 0.03250631
000110 a4 33 bc 3d 17 73 90 3b 08 8e d4 bd e0 18 87 bc
       0.09189537 0.004408251 -0.10378653 -0.016491354
000120 b7 1e bc 3d 46 e1 9e 3d e0 91 c7 bd 46 4a f0 3d
       0.09185546 0.07757811 -0.0974462 0.117329165
000130 10 c6 15 3e 4b 42 c5 3d c5 92 a7 bd d5 12 26 3c
       0.14626336 0.09631785 -0.08182291 0.010136326
000140 15 f7 98 bd 62 1a 62 3d eb 41 ff ba 99 8f 35 bc
       -0.07469002 0.05520094 -0.0019474601 -0.0110816
000150 88 72 8c 3d 6b 14 97 bd d6 e9 59 3e e9 68 87 3e
       0.068577826 -0.07376941 0.21280608 0.26447228
000160 2d fb 19 3c 15 c3 bb bc e9 b6 68 3c 0e bd d2 bd
       0.009398264 -0.02292017 0.014203765 -0.102899656
000170 66 45 f2 3d 70 9d 93 bd c4 9b 97 bc 9b 45 7a 3c
       0.11829643 -0.07207763 -0.018506892 0.015275384
000180 06 96 20 3d ba 03 dd 3d e5 33 3a be 40 6f 3e bd
       0.039205573 0.107917264 -0.18183859 -0.046492815
000190 83 4a 57 3e 28 00 4e bd f9 34 3e 3e c3 6b fe be
       0.21024518 -0.050293118 0.18574895 -0.4969159
0001a0 27 18 42 be fb f4 44 bd bb 2a 21 bc ee 44 c0 be
       -0.18954526 -0.048085194 -0.009836848 -0.3755259
0001b0 71 16 ac bc 13 a8 bb be a8 6b 82 be 2c 11 2a bd
       -0.021006795 -0.36651668 -0.2547276 -0.041520283
0001c0 5a ff a2 3d 3b 2f 67 3e 11 5e 0a bc d5 89 46 3d
       0.07958861 0.2257661 -0.008445279 0.04847129
0001d0 60 ef 9c 3c 01 24 1b be 98 2c eb bd 7e 2c cf 3d
       0.019157112 -0.15150453 -0.11483115 0.10115908
0001e0 81 ca 92 be 5a 15 a4 bc 00 18 cd 3a 2f 23 05 bd
       -0.28670123 -0.020029712 0.0015647411 -0.032504257
0001f0 ac df 83 bd eb 4b c5 3c 04 85 2a 3e 0c 10 a7 be
       -0.064391464 0.024084052 0.16652304 -0.3262943

fc3.weight f4 [64, 128]
000000 22 2c e1 bd ca 94 ea bc 9c 17 67 3d 07 82 ef bd
       -0.10994746 -0.028635401 0.056419 -0.116947226
000010 7a 82 9e bd b9 06 b1 3d c1 f5 3e bc ff b6 6a 3d
       -0.0773973 0.0864386 -0.011655272 0.057303425
000020 e3 8b 20 bd 85 24 8d 3d 2b b0 a2 3c 77 0c 71 bd
       -0.039195906 0.06891731 0.019859394 -0.058849778
000030 68 c8 a7 3b e0 49 21 bd b5 21 44 bb c9 c4 20 bd
       0.005120326 -0.039377093 -0.0029927318 -0.03925017
000040 13 f2 f0 bb b9 a0 af bc c3 48 2a bd 49 ef 94 3d
       -0.0073530762 -0.021438943 -0.041573297 0.072722025
000050 ad a5 bd 3c 27 09 02 bc 0e aa 4b bd 67 f7 a3 bd
       0.02315029 -0.007936752 -0.049722724 -0.080061726
000060 5e c3 01 3d b4 7f ac bb 66 99 4a bc 04 82 3a bd
       0.031680457 -0.005264247 -0.012365675 -0.04553415
000070 0e 55 dd bd 00 49 32 3c 84 20 cd bc 42 fd 2d 3d
       -0.108072385 0.010881662 -0.025039919 0.042477854
000080 2d 15 a5 bd cb b8 0e bd 1e 58 23 bd 19 66 03 bd
       -0.080606796 -0.0348442 -0.039878957 -0.03207979
000090 62 27 d1 bc 00 47 c9 bd f3 eb 57 3b 54 61 2b bd
       -0.025531475 -0.09827995 0.0032947033 -0.041840866
0000a0 26 01 5a bd bd b2 27 3d 1f 22 86 3d 21 bf c8 bc
       -0.05322375 0.040941942 0.06549477 -0.0245052
0000b0 c2 bf cb bd 62 0a 1c 3d 41 f6 23 bc f7 61 14 bd
       -0.09948684 0.03809584 -0.010007442 -0.03622624
0000c0 83 9f 9b bd 33 30 89 bd 0e 87 b1 bd 6f e8 60 3d
       -0.07598784 -0.066986464 -0.08668338 0.054909166
0000d0 7e eb ae 3d 99 72 90 bd 61 c7 83 bd 1c 27 ad 38
       0.0854101 -0.07053108 -0.06434513 8.2565675e-05
0000e0 57 b9 4c ba 1b c9 b1 bc c4 4f 92 3d 42 ed a9 bd
       -0.00078096 -0.02170234 0.0714412 -0.082972065
0000f0 0a b0 ec bc 97 02 19 3d 17 fa 8c bd 98 c2 f7 bc
       -0.028892536 0.037355985 -0.06883638 -0.030244157
000100 3d 7f a0 bd 24 62 a3 bd 4e de 90 bd 9f b4 4d 3d
       -0.07836769 -0.07977703 -0.07073651 0.05022108
000110 9c a6 82 bd ad ef a5 bd db 97 c1 3c 5e 0a b0 3d
       -0.063794345 -0.08102355 0.02363198 0.085957274
000120 ac a7 74 bd 76 5d 5f 3d 87 6e a9 3c 58 78 7a 3d
       -0.059730217 0.05453249 0.020682586 0.061149925
000130 40 d6 a3 bd 28 09 79 bd 84 f4 78 bd 3f a3 b2 3b
       -0.07999849 -0.060799748 -0.060780063 0.0054515894
000140 73 da fb bc 87 d1 b0 3c 62 e7 f3 bc bc 52 02 bd
       -0.030743813 0.021584285 -0.029773418 -0.031817183
000150 86 be 97 3d e9 ad a5 3a 14 3c 16 bd 1e 5f 22 3d
       0.07409386 0.001264033 -0.03667839 0.039641492
000160 e3 ff 96 3d d1 79 07 3d c3 f1 88 bd 81 93 5e 3d
       0.07373025 0.033075158 -0.066867374 0.05433989
000170 65 ce 97 3c 0a 07 26 bd c4 e7 49 bd 66 5c 55 3c
       0.018531034 -0.040534057 -0.049293295 0.013022518
000180 41 90 ad 3b 84 3e 1f 3d 75 98 eb 3c cf 3e 20 bd
       0.0052967374 0.03887798 0.02875922 -0.0391224
000190 40 84 cf bc 37 4a f7 bb c8 0f 67 bb 85 64 e3 3c
       -0.025331616 -0.007546689 -0.003525721 0.027757892
0001a0 69 a8 12 3c 3f 45 dd bd 91 0c 75 bc 44 f2 fe bc
       0.008951285 -0.10804223 -0.014956609 -0.03112138
0001b0 0b fd 9a bd 09 4f 7f bd da b0 d9 ba ef 3f 81 bd
       -0.07567795 -0.062331233 -0.0016608492 -0.063110225
0001c0 3c 49 06 bc fd 09 24 bd f4 2a ec 3b 6c 0d b1 bd
       -0.008196171 -0.040048588 0.007207269 -0.08645138
0001d0 0d 14 af bd 67 b6 91 3c a5 d3 20 bd d7 c5 4b bd
       -0.08548746 0.017787172 -0.03926434 -0.04974922
0001e0 e2 84 5e 3d a0 00 47 bd da 1d 1a bd 6d 39 f1 bd
       0.054325946 -0.04858458 -0.037626125 -0.11778531
0001f0 91 07 9d bd a9 3a 9b bd 38 e4 8e bd 50 02 fc bb
       -0.07667459 -0.07579548 -0.06977123 -0.0076907054
000200 a5 d4 51 3d 4e 49 05 3d 01 56 7f bd 60 95 03 bc
       0.051228184 0.032540612 -0.06233788 -0.008031219
000210 df 67 81 3d 84 ca 55 bd a6 c5 4d 3d d5 9c 22 bc
       0.0631864 -0.052195087 0.05023732 -0.009925087
000220 52 10 61 bd 19 92 3f bd 91 32 7b bd 66 32 b1 bd
       -0.054947205 -0.04677019 -0.06132752 -0.08652191
000230 8d 4d 26 3d 4b 9f 03 3d 3f d9 2f 39 e4 69 99 3d
       0.040601302 0.032134335 0.00016770231 0.074909
000240 91 00 b1 bd 16 81 1d bc a7 3b d4 bc 85 5a 46 bd
       -0.08642686 -0.009613296 -0.02590735 -0.04842617
000250 ec c5 4a 3d 39 47 89 bd 6e 0d 81 bd 7b d7 0f bd
       0.04950516 -0.06703038 -0.0630139 -0.035117608
000260 c4 00 d8 bc 40 e3 3d bd ec ea 40 bd 21 27 27 3d
       -0.026367553 -0.0463593 -0.04709904 0.0408088
000270 b4 26 7b bd 86 11 d2 bc a5 24 10 bd 37 67 13 3d
       -0.061316207 -0.025643121 -0.035191197 0.035987105
000280 5e 6d 6f bd 53 f8 6c 3d 85 9c 96 bd d3 f2 85 3d
       -0.05845391 0.057854008 -0.073540725 0.06540456
000290 74 2c 64 3c 96 8e 98 bc fe 62 66 bd e0 f4 f5 bc
       0.013926614 -0.018622678 -0.05624675 -0.030023992
0002a0 4c 57 7e bd ee 86 da 3b 24 70 6e bd 65 3d 1e 3c
       -0.06209497 0.006668917 -0.058212414 0.009658192
0002b0 75 9d 8c bb 13 96 0f bd 06 78 5c 3b bc 4e e8 bb
       -0.0042912313 -0.03505523 0.0033640875 -0.007089464
0002c0 77 8f b6 bd bb 69 af 3d 68 63 6d bc 0d 5a 30 bd
       -0.089140825 0.08565088 -0.014489032 -0.04305463
0002d0 9f cf ec bc 62 c7 df 3c 5a 3a 22 3d 82 94 f5 ba
       -0.028907595 0.027316753 0.03960643 -0.0018736275
0002e0 38 c1 52 3d fd 3d a3 bd 5f 59 92 3d fb bd 85 3d
       0.0514538 -0.07970808 0.071459524 0.065303765
0002f0 d0 59 b7 3b 92 18 20 bc 35 39 e8 bc 82 b7 04 3c
       0.0055954233 -0.009771483 -0.028347591 0.008100392
000300 29 73 0f 3d cb 47 a2 3d 16 b1 d0 bd 0a 1f 60 3b
       0.035021935 0.0792385 -0.101900265 0.0034198188
000310 0d 4d 37 bd 32 09 a0 3d 35 9f 82 bd 75 bf ea bc
       -0.044751216 0.07814254 -0.063780226 -0.028655747
000320 d4 2b 7e 3c 71 b5 24 3d c0 69 9a 3d a7 f7 4a bd
       0.015513379 0.0402121 0.075397015 -0.049552586
000330 d2 a5 ad bc c7 35 b4 bd 3b 7b f5 3c 58 51 de 3b
       -0.021197233 -0.0879932 0.029965987 0.0067845993
000340 4a a6 06 3b 5e 3b 5b bd a6 dc 46 bd 17 cd ad 3c
       0.0020545893 -0.053523414 -0.04855027 0.021215959
000350 0e 86 65 bc 65 05 56 3d e1 27 b4 bc c8 89 da bb
       -0.014009012 0.05225124 -0.021991672 -0.006669257
000360 73 8b 9e 3c b5 3f 17 3d f2 d7 59 3d 03 2f 81 bd
       0.019353604 0.03692599 0.053184457 -0.06307795
000370 e2 a4 21 bd d1 8f a5 bc a9 82 0a 3d 33 2e 71 bd
       -0.039463885 -0.020210179 0.033816013 -0.05888195
000380 25 e0 08 bd 2a 5a c2 bc 82 2e a6 3d 58 92 a1 bd
       -0.033416886 -0.023724634 0.081143394 -0.07889241
000390 ff 4f b1 bc 22 cb 61 bd 89 06 4c bd 52 ed 98 bb
       -0.02164459 -0.055125363 -0.04981092 -0.0046669627
0003a0 77 76 05 bd 48 11 b4 bd 3b de 89 bd 38 d6 0f bd
       -0.03258368 -0.08792359 -0.0673184 -0.035116404
0003b0 ad 5b 24 bd d3 60 64 3c 47 77 c8 bd d6 db 02 bd
       -0.04012649 0.0139391 -0.09788375 -0.031947933
0003c0 55 7d ae 3d 38 29 33 bd 16 26 a7 3d b7 d6 d7 bd
       0.08519999 -0.04374048 0.08161561 -0.105390005
0003d0 20 c6 83 3d 48 c8 1b bd f9 54 b7 3c 0e 0f 80 bd
       0.06434274 -0.0380328 0.022379385 -0.062528715
0003e0 fa ab 77 bd 41 c7 3a bd b6 6e a0 3d 52 21 3d 3d
       -0.060466744 -0.04560018 0.078336164 0.046174355
0003f0 55 89 68 bd 47 6d 62 bd e0 88 89 bd ef 9c a4 bc
       -0.056771595 -0.055279996 -0.0671556 -0.020094363

fc3.bias f4 [64]
000000 05 5a 36 3d 2f 7e 1f b9 f6 b8 f9 bd 1d f9 3d 3d
       0.044519443 -0.00015210429 -0.121934816 0.04638015
000010 03 13 02 bd 31 f5 cb bd cc 8d c3 bd 9a 87 9d bd
       -0.031756412 -0.09958876 -0.0954853 -0.076918796
000020 5c 28 f3 bc ed a0 eb 3c d4 9f 09 bd 11 ed 21 bd
       -0.02968233 0.028763259 -0.03359969 -0.039532725
000030 f0 6a 99 bd 02 10 cb 3d c9 54 9c bd d2 d4 30 3e
       -0.074911 0.099151626 -0.07633359 0.17268685
000040 c6 94 5b bd 1d 87 72 3c 39 af 1f 3d 9b 42 ba bc
       -0.05360868 0.014802721 0.038985465 -0.022736838
000050 20 66 5f 3d b3 b9 20 be 6e 28 58 bd 71 22 e2 bd
       0.054540753 -0.15695839 -0.05277293 -0.110417254
000060 9c 0a 9a 3d c8 f7 8e bd c0 d4 0f bd 40 75 bd bc
       0.07521555 -0.06980854 -0.035115004 -0.023127198
000070 5e a0 3f bb 6f 36 b7 3d 53 40 13 be 2d 4e 8f 3d
       -0.0029239873 0.08945929 -0.14380006 0.06997333
000080 a8 fb b1 bd 80 3b 19 bd 3a e9 b7 bb d4 0f a4 3d
       -0.08690578 -0.03741026 -0.0056125196 0.080108315
000090 3d 23 0d bf 12 01 82 bc 50 bc 5f 3c ae bc bc 3c
       -0.55131894 -0.015869651 0.013655737 0.023039188
0000a0 a0 a7 dc bd f6 10 b2 bd 3b 19 81 3c 1f 13 c7 bd
       -0.107741594 -0.08694641 0.015759101 -0.09720444
0000b0 3a 25 0a bd ef d1 01 be 1d 84 ba 3d 40 a6 95 bd
       -0.03372691 -0.1267774 0.0910723 -0.073071
0000c0 2a b5 e9 bd fa 87 4f 3e db b9 36 bd 42 c2 97 3d
       -0.114115074 0.20266715 -0.04461084 0.074100986
0000d0 57 db db 3b 2b 5b 29 3d d8 2e a3 be 29 54 07 bb
       0.006709497 0.04134671 -0.31871676 -0.0020649529
0000e0 02 72 5b 3d af 35 a0 bc 6a e8 84 bd 9a 2f 20 be
       0.053575523 -0.019556848 -0.06489642 -0.15643159
0000f0 59 ec be 3d fd ed ad bd 22 84 ff bc bc 96 26 bd
       0.093224235 -0.08492658 -0.031190936 -0.040671095

fc4.weight f4 [2, 64]
000000 da cb 51 bd b3 0e b0 bd d2 12 9a 3d 6e 5d 89 bd
       -0.0512198 -0.08596554 0.07523121 -0.067072734
000010 18 c4 50 bd 2b 16 bf bd 1b ca 79 bd e4 e7 fa bd
       -0.05096826 -0.093304 -0.06098376 -0.12251261
000020 e6 be 33 bc 39 73 82 3d 40 1c f8 bc 09 3f ff 3c
       -0.010970807 0.06369633 -0.030286908 0.031157987
000030 6b 6e 01 3c 87 89 7c be 40 00 ef 3b e9 d3 8f 3e
       0.007899861 -0.24661838 0.007293731 0.28091362
000040 4e 53 97 bd f4 10 eb bd ae 2b d8 bd 96 5f ee bb
       -0.07388936 -0.11477843 -0.10555206 -0.0072745783
000050 bd b8 41 3e 2a 5a 9e be 33 f8 f4 3d cc 77 3d be
       0.18918128 -0.30928165 0.11961403 -0.1850273
000060 ea 16 91 3d e4 2c 1c bd fe bd 90 3d 43 fb 4b bb
       0.07084449 -0.03812875 0.07067488 -0.0031125105
000070 e3 44 94 3d dc c5 dc bd 1f 69 4b 3d b3 6e ba 3d
       0.072397016 -0.10779926 0.0496608 0.091031455
000080 b2 44 93 3d 28 74 83 3d fa 81 f1 bd 41 d1 b7 bd
       0.07190837 0.064186394 -0.11792369 -0.08975459
000090 cb 9a d3 3e 7b de bc be 2e e4 4c bd 98 b7 af bc
       0.41329035 -0.3688849 -0.050022297 -0.021449849
0000a0 7c 7c 4a 3f a4 2a da 3d 5b 1f 8f bd 8c 25 55 be
       0.790962 0.10652664 -0.069884025 -0.20815104
0000b0 29 1a 3b bd 71 88 6c be df 8c d8 bd 29 b8 07 3d
       -0.045679245 -0.23098923 -0.10573744 0.033134613
0000c0 8d fb e9 3d 0c 11 d6 3e 64 d8 8e bd 26 cf 08 3d
       0.11424933 0.4180988 -0.06974867 0.033400677
0000d0 bd 3f f3 bc be 25 9c bd 85 77 97 3e a4 b1 95 bd
       -0.029693479 -0.07624386 0.29583374 -0.07309273
0000e0 02 2d 35 3d 70 d5 01 3e ac 11 bc 3c 67 95 e2 3e
       0.044232376 0.12679076 0.022957645 0.4425461
0000f0 88 fa 5d bd 4c fb ad bd 5d e3 0d be 48 7c 35 3d
       -0.054194003 -0.08495197 -0.13856263 0.044307977
000100 1f 4a a1 3a 51 cc b6 3d e6 45 dd 3d 7c 28 98 bd
       0.0012305415 0.08925689 0.10804348 -0.07429597
000110 49 f9 8a 3d 33 60 8c bb 6b 1d 6b bd 7c 67 a5 3d
       0.067858286 -0.004283929 -0.057401102 0.08076379
000120 da 66 13 bd ad 6c c2 bd 3c a4 83 bd ab 3e 53 3d
       -0.03598676 -0.094933845 -0.064278096 0.051573437
000130 18 8d bd bc 79 28 86 3e 22 59 fc 3d e9 79 b9 3e
       -0.023138568 0.26202753 0.12321688 0.36225823
000140 73 5b 18 be 1c b5 38 bd d0 25 b9 3c 76 3e 4c be
       -0.14878635 -0.045094594 0.022601038 -0.19945702
000150 d3 07 5e 3d ff 65 7e 3f 1b 24 dd bd db 1a 55 bd
       0.05420668 0.99374384 -0.10797902 -0.052027564
000160 97 48 df 3d 78 19 80 3c 5a 76 a9 3d 5a 01 eb bd
       0.10902517 0.015637144 0.08274527 -0.11474867
000170 34 b3 b9 3d ea 42 9b 3d ac f3 1b bf 69 f0 a6 3d
       0.090673834 0.07581122 -0.6091869 0.08151323
000180 92 b9 4e 3d 60 0a ea bc 28 1c 0e 3d 6d 12 f2 3d
       0.050469942 -0.0285694 0.03469482 0.11819921
000190 d4 65 b0 3e 66 5c 9e 3e 81 25 34 bd 35 a9 e1 3d
       0.3445269 0.3092987 -0.04398108 0.11018602
0001a0 53 34 4a bf 24 e7 d9 3d c7 c1 d0 bd 51 e8 8f 3e
       -0.7898609 0.1063979 -0.1019321 0.2810693
0001b0 bd 18 ce bb d8 62 96 3e b8 1f 88 bd c8 e7 ba bc
       -0.00628957 0.29372287 -0.06646675 -0.0228156
0001c0 81 1a e3 be b2 c3 1f 3f 0a a9 85 bd 4f 8b bd 3d
       -0.44356158 0.6240798 -0.06526382 0.09255087
0001d0 2d b1 c3 bb 58 ec 19 3d 95 65 8a 3e 0a 00 b6 3c
       -0.0059720487 0.03757891 0.27030626 0.022216816
0001e0 2a 02 0d bd 3e 64 7d 3d a6 9e ef 3d 8f d7 4f be
       -0.034425892 0.061863177 0.11700182 -0.20297073
0001f0 a6 c1 ac bd 7c 7c 98 bd 96 74 95 bd 00 36 1f bb
       -0.08435373 -0.074456185 -0.07297628 -0.002429366

fc4.bias f4 [2]
000000 b2 16 bf 3d cc f7 62 3d
       0.09330501 0.0554121
