model_last.pth (torch, 72612 bytes, 8 tensors)

fc1.weight f4 [64, 9]
-0.08911431 0.8564261 -0.012544063 0.49823925 -0.012397566 0.014913734 -0.09459788 0.11552981
0.12211257 -0.7269174 0.17460807 0.5440317 -0.23137295 0.25284183 -0.20652837 0.48010078
0.4881571 -1.1676089 0.28477907 -0.2865886 0.117886625 0.1628364 -0.27419564 -0.3051059
0.18058965 -0.022825044 0.24343579 0.181515 -0.40975967 0.15913734 -0.034044065 0.14540425
0.30339032 -0.7183518 -0.82251984 -2.5076928 -0.4570239 0.18100856 0.85546315 0.21709102
0.21757223 0.17614453 -0.57512814 -0.21347553 1.7531321 0.35387078 0.325329 -0.39962575
-0.39607966 0.25874797 -0.2919011 -0.07032437 -0.35904482 -0.07533146 -0.24891044 0.3203471
0.3083007 0.11013758 -0.063607 -0.038638342 0.087180674 0.08588976 0.07766508 0.16707484
-0.0018999996 0.081446156 0.05705748 -0.00809359 -0.10696414 -0.2228784 0.0031836643 -0.09489422
0.11891157 0.20561239 0.5745157 -0.16596565 -0.2585136 0.14898165 -0.65405583 -0.5398041
0.66037464 0.32353744 0.25378904 -1.3884329 -0.26376227 0.09710156 0.01232839 -0.29257888
0.051175933 1.0527756 -0.11430471 0.35629922 0.70533234 0.50941104 0.21182288 0.2722795
0.51371634 0.54128027 2.1045525 1.130296 0.70934665 -0.022789046 0.49672338 0.15372954
-0.18170084 -1.0733795 1.3885902 -4.7115808 -0.52497345 -0.03682429 0.32499215 0.24234813
0.3004001 0.02689976 0.18268669 -0.41633454 -0.40326247 -0.009856347 0.26759633 -0.6064596
-0.47112167 -0.025328295 0.102393165 -0.44957557 0.89759433 3.3126574 -0.5951259 -0.43299228
-0.113072895 0.6183811 0.16235659 -0.17329343 -0.36069515 -0.36817685 -1.1226416 0.05268737
-0.013187051 0.048186183 0.3320162 -0.21703629 -0.26114127 0.20345232 0.097878456 -0.16186444
-0.8145019 -0.46152115 0.30481568 -0.1915735 0.12698711 -0.12810285 0.009915813 -0.41689828
2.353217 -0.35253662 -0.15175928 -0.5295777 0.18708605 -0.19574891 0.19470185 0.30427682
-0.11620849 0.56755185 0.0028456054 0.019641917 0.08135438 0.27813518 -0.31185266 -0.27821848
-0.17086315 0.05566808 -0.10428524 0.6052293 -0.06886148 0.04112273 0.09978768 0.22112134
0.106637314 -0.43639594 -0.09552071 -1.3608474 -0.32904455 -0.11088729 0.024743795 -0.11784146
-0.31718037 0.10493851 0.37347975 0.39033493 0.12669654 -0.020519618 -0.25627312 0.15379868
0.02948893 -0.18672359 0.2523763 0.5370475 -0.21403578 -1.4425558 -0.09011816 0.35030752
0.3397416 -0.24553165 0.18925133 -0.0075820293 0.597756 0.25941768 -0.534641 0.7216726
-0.60826474 0.2287358 0.4568758 -0.08661919 0.026386345 -0.32462445 0.87083817 -0.9466302
-0.62251115 0.40377632 1.0931634 0.3681092 0.12347165 -0.0999682 0.5137314 -0.66952956
0.49825197 -0.26967773 -0.1562053 -0.031391185 0.1576997 -0.2613635 -0.27084547 0.24938416
0.25825378 -0.014326533 1.0108433 -0.4297759 0.9570092 0.5600594 -0.17667359 0.33670175
0.53532463 0.751973 -2.3794622 0.74313563 0.081225134 0.05317495 -0.1841252 0.18882808
0.16662522 0.26878494 -0.5118399 -1.2242248 -0.31585836 0.18649936 0.19243953 0.12825128
00000000: 9081 b6bd be3e 5b3f 9d85 4dbc 3719 ff3e
00000010: 291f 4bbc bc58 743c 89bc c1bd e59a ec3d
00000020: 2816 fa3d 4217 3abf 75cc 323e a945 0b3f
00000030: 08ed 6cbe 7c74 813e 2c7c 53be c5cf f53e
00000040: baef f93e 3574 95bf 90ce 913e bebb 92be
00000050: 8b6e f13d 96be 263e 5f63 8cbe d736 9cbe
00000060: 7eec 383e 96fb babc 3b47 793e 11df 393e
00000070: 05cc d1be e6f4 223e ca71 0bbd dae4 143e
00000080: fa55 9b3e e7e5 37bf a990 52bf 0a7e 20c0
00000090: 09ff e9be 4f5a 393e a2ff 5a3f 1c4d 5e3e
000000a0: 41cb 5e3e 3b5f 343e 993b 13bf 5499 5abe
000000b0: a266 e03f 8d2e b53e 8691 a63e bf9b ccbe
000000c0: f4ca cabe 9d7a 843e 1074 95be 3906 90bd
000000d0: b9d4 b7be 6147 9abd 61e2 7ebe 8904 a43e
000000e0: 97d9 9d3e d08f e13d 6344 82bd 3d43 1ebd
000000f0: c88b b23d f8e6 af3d df0e 9f3d ab15 2b3e
00000100: 6809 f9ba 3ecd a63d 1bb5 693d fa9a 04bc
00000110: 0410 dbbd 3c3a 64be 06a5 503b e757 c2bd
00000120: e987 f33d 0e8c 523e 7613 133f e6f2 29be
00000130: e55b 84be a58e 183e 3470 27bf 9a30 0abf
00000140: 500e 293f b3a6 a53e a3f0 813e 2bb8 b1bf
00000150: d90b 87be 2fdd c63d 04fd 493c e6cc 95be
00000160: db9d 513d 5ac1 863f 9618 eabd da6c b63e
00000170: a990 343f c368 023f 19e8 583e 3868 8b3e
00000180: ea82 033f 5891 0a3f fdb0 0640 8aad 903f
00000190: be97 353f 18b0 babc 8752 fe3e 476b 1d3e
000001a0: c90f 3abe 8064 89bf 53bd b13f 45c5 96c0
000001b0: a964 06bf 11d5 16bd 5f65 a63e 1c2a 783e
000001c0: 0bce 993e e35c dc3c 3812 3b3e cd29 d5be
000001d0: 6b78 cebe 847c 21bc 6302 893e f040 1bbf
000001e0: dc36 f1be 497d cfbc 82b3 d13d c52e e6be
000001f0: bec8 653f 9402 5440 2c5a 18bf 2ab1 ddbe
00000200: c392 e7bd 394e 1e3f ce40 263e d573 31be
00000210: 09ad b8be ad81 bcbe b8b2 8fbf b6ce 573d
00000220: 800e 58bc e05e 453d 07fe a93e c33e 5ebe
00000230: 4fb4 85be ce55 503e 8074 c83d cbbf 25be
00000240: 3283 50bf 804c ecbe cd10 9c3e d82b 44be
00000250: e908 023e 652d 03be ef75 223c b173 d5be
00000260: 1b9b 1640 ae7f b4be c966 1bbe 6792 07bf
00000270: 7c93 3f3e 6772 48be ec5f 473e 2cca 9b3e
00000280: b8fe edbd 144b 113f 567d 3a3b 16e8 a03c
00000290: 209d a63d bc67 8e3e 27ab 9fbe a772 8ebe
000002a0: c0f6 2ebe 3604 643d 8093 d5bd 4ff0 1a3f
000002b0: 3f07 8dbd 4f70 283d 7c5d cc3d a26d 623e
000002c0: aa64 da3d 4a6f dfbe 5da0 c3bd 3f30 aebf
000002d0: 8778 a8be e018 e3bd 80b3 ca3c dd56 f1bd
000002e0: 7765 a2be 00ea d63d bd38 bf3e fbd9 c73e
000002f0: bdbc 013e c218 a8bc 3b36 83be 677d 1d3e
00000300: c592 f13c 7834 3fbe 7737 813e f27b 093f
00000310: 322c 5bbe aba5 b8bf df8f b8bd 825b b33e
00000320: 9cf2 ad3e a66c 7bbe 1acb 413e ac72 f8bb
00000330: 8a06 193f 65d2 843e 3cde 08bf 89bf 383f
00000340: 3db7 1bbf b839 6a3e a0eb e93e 6765 b1bd
00000350: 2d28 d83c 2d35 a6be 40ef 5e3f 5b56 72bf
00000360: e45c 1fbf c5bb ce3e c7ec 8b3f cf78 bc3e
00000370: b4de fc3d 21bc ccbd e783 033f 4a66 2bbf
00000380: e21a ff3e 3313 8abe 48f4 1fbe 0b94 00bd
00000390: 087c 213e 70d1 85be 42ac 8abe 905e 7f3e
000003a0: d739 843e d6b9 6abc 5063 813f 960b dcbe
000003b0: 8efe 743f 0e60 0f3f ece9 34be 2c64 ac3e
000003c0: 090b 093f 4d81 403f 1c49 18c0 233e 3e3f
000003d0: 5d59 a63d facd 593d 518b 3cbe 265c 413e
000003e0: cd9f 2a3e 2e9e 893e f107 03bf 66b3 9cbf
000003f0: 30b8 a1be b0f9 3e3e de0e 453e 4e54 033e

fc1.bias f4 [64]
0.39189532 -0.4703578 -0.1628257 0.24848929 0.007279289 -0.12585191 0.14413983 0.31442636
0.13492662 -0.26760975 0.44938925 0.53749526 -0.23890588 -0.20219797 0.11317753 -0.18208794
-0.032884017 -0.042475447 0.30836856 -0.092325196 0.12122003 -0.071625605 -0.017936436 -0.11180299
0.29919234 0.2904328 0.69259113 0.05986616 0.23647694 -0.14481212 0.00302584 -0.3626518
0.07500689 -0.05610397 -0.034284104 0.18205556 -0.09050738 -0.11605269 0.39269164 -0.316059
0.12714985 0.29335317 0.124769576 -0.23052995 -0.025088837 0.079414114 -0.2193735 0.3571148
-0.013919435 0.32093012 0.6203048 -0.21439523 -0.32179725 -0.044846416 -0.17823964 -0.18953435
0.03387059 -0.12755279 0.40257117 0.002196034 -0.21497208 0.059778176 0.07841412 0.0013103485
00000000: 81a6 c83e bdd2 f0be c8bb 26be fa73 7e3e
00000010: 1a87 ee3b 53df 00be 6499 133e 7efc a03e
00000020: 342a 0a3e 2504 89be 5916 e63e 4a99 093f
00000030: bea3 74be fc0c 4fbe 9fc9 e73d 4375 3abe
00000040: 64b1 06bd bcfa 2dbd 7ce2 9d3e fe14 bdbd
00000050: 3542 f83d 72b0 92bd 6fef 92bc f7f8 e4bd
00000060: bd2f 993e 9cb3 943e a74d 313f 3836 753d
00000070: 0327 723e a149 14be 2c4d 463b 7fad b9be
00000080: 369d 993d 47cd 65bd 7d6d 0cbd c66c 3a3e
00000090: ef5b b9bd 08ad edbd e10e c93e 7cd2 a1be
000000a0: 9233 023e 6332 963e 3187 ff3d 0b10 6cbe
000000b0: 1b87 cdbc dea3 a23d 72a3 60be c0d7 b63e
000000c0: 580e 64bc f450 a43e 4ccc 1e3f 6c8a 5bbe
000000d0: 9cc2 a4be e0b0 37bd 7484 36be 4b15 42be
000000e0: e3bb 0a3d 339d 02be cf1d ce3e 56eb 0f3b
000000f0: a421 5cbe f6d9 743d 9597 a03d 00c0 ab3a

fc2.weight f4 [128, 64]
0.08613386 0.015369556 -0.10065423 0.024782836 -0.048233625 -0.040797077 -0.06466572 -0.10823335
-0.011771602 0.08736368 -0.0311324 -0.06979786 0.079765774 -0.31734565 -0.04414806 0.009871557
0.09021044 0.066549234 0.00358212 0.051549133 -0.06021643 -0.061483458 -0.07633587 -0.14103961
-0.12665482 -0.014624134 0.012898947 0.0117865205 -0.06902583 0.12710857 -0.032077808 0.032607466
-0.001221776 0.10368414 0.12074515 0.11592747 0.076674685 0.07756365 0.027599016 -0.011146997
0.029078433 0.03335457 0.1273314 -0.04775101 -0.044825375 -0.008630436 -0.072216965 -0.062157802
0.07608656 -0.06568082 -0.07096889 -0.07452662 -0.039996624 -0.0040468276 0.04963302 0.07279575
-0.38814342 0.03850603 -0.08824513 -0.006895423 -0.1170009 0.09025991 -0.0029256176 0.05103667
-0.1016077 -0.016344912 -0.07864319 0.055854775 -0.03930208 0.019428127 -0.082929395 -0.099741206
-0.11522994 -0.009095865 0.04821156 0.04089659 0.028648071 0.04229292 -0.12349916 0.094036385
0.009042179 -0.1270862 -0.10790074 -0.0321834 0.10218335 -0.14809729 0.040873945 -0.03593971
-0.14430329 0.07417247 -0.040616583 -0.10367295 -0.03499131 0.03675072 -0.029437765 0.09379289
0.015712604 0.08792342 0.08642925 -0.12232651 0.06663757 -0.012040409 0.09813701 -0.0062883296
-0.13377576 -0.008213147 -0.008100585 0.009030566 0.096455894 -0.019859377 -0.014848384 0.03171429
-0.09275472 0.10793216 -0.21764389 0.19856386 -0.09277615 -0.10578486 0.13020264 0.15637489
0.038666327 0.02162385 0.06753567 -0.08402817 -0.115303114 0.03917609 -0.07627798 0.0007623881
0.008103526 -0.0462247 -0.10632467 0.01599904 0.10789096 0.041731097 0.061866563 -0.13053994
-0.0069628637 0.09363238 0.021379134 -0.13060436 0.05817709 0.0069164895 -0.0054646926 -0.112851664
-0.035955597 -0.051949944 0.10125099 -0.03331235 -0.057619303 -0.04312023 0.06932321 -0.19743095
-0.15438138 -0.01224342 -0.08593009 0.01730867 0.01791212 0.08858993 0.16120782 -0.053824928
-0.06758578 -0.016787553 -0.023430696 -0.036625504 -0.03363775 -0.0009773575 -0.06461206 0.079883784
0.098323904 0.23057988 0.1114937 -0.05382812 -0.045582924 0.04819737 -0.10898043 0.12369722
0.07814894 0.07495056 0.15355842 0.06388638 -0.012036681 0.109527305 -0.018035071 0.09099051
0.0026808893 -0.041917145 0.08311546 -0.06262584 -0.08434726 -0.054593712 0.1700395 0.028783843
0.23977634 0.011796128 -0.112004876 0.023034541 -0.009942166 0.08787107 0.06363127 0.107271776
-0.04814759 0.05020037 -0.044209883 0.018768812 0.06944967 -0.14635704 0.05707482 -0.06815432
0.074638136 -0.4760482 0.056197777 -0.06008079 -0.07857877 0.111687936 -0.04106535 -0.056560546
-0.06892685 -0.12398885 -0.2363431 -0.100976765 -0.034067273 -0.06540262 0.08728334 -0.118499815
-0.09963827 -0.06307989 -0.05834808 0.06585574 0.056681775 0.11684054 -0.020146437 0.09937631
1.165088 0.04715994 -0.013638858 -0.07850291 -0.018571177 -0.07908659 0.021679312 -0.04866209
0.098999254 -0.052552655 -0.8340785 -0.0685967 0.06296277 -0.115370974 -0.41511846 0.07151606
-0.1432351 -0.033618033 0.09850227 0.012374446 0.10255375 0.10978417 0.0645383 0.12329996
00000000: f366 b03d 97d0 7b3c ce23 cebd 6005 cb3c
00000010: 9f90 45bd d61a 27bd 766f 84bd 72a9 ddbd
00000020: addd 40bc bbeb b23d 6009 ffbc 2ef2 8ebd
00000030: 3d5c a33d 217b a2be 99d4 34bd 50bc 213c
00000040: 40c0 b83d f74a 883d 00c2 6a3b 2f25 533d
00000050: 81a5 76bd 14d6 7bbd fb55 9cbd b06c 10be
00000060: cdb1 01be 109a 6fbc 1b56 533c 401c 413c
00000070: 6a5d 8dbd c028 023e 0564 03bd 688f 053d
00000080: 0024 a0ba 5a58 d43d 3c49 f73d 626b ed3d
00000090: 9e07 9d3d b1d9 9e3d 5517 e23c e5a1 36bc
000000a0: e535 ee3c cd9e 083d 2a63 023e 9096 43bd
000000b0: d09a 37bd ac66 0dbc 7de6 93bd 2e99 7ebd
000000c0: 45d3 9b3d aa83 86bd 2358 91bd 6aa1 98bd
000000d0: 80d3 23bd 409b 84bb fe4b 4b3d f015 953d
000000e0: bcba c6be 80b8 1d3d ddb9 b4bd 00f3 e1bb
000000f0: 2b9e efbd 30da b83d b8bb 3fbb d40b 513d
00000100: b317 d0bd c4e5 85bc ae0f a1bd fac7 643d
00000110: 38fb 20bd bc27 9f3c e3d6 a9bd 1e45 ccbd
00000120: adfd ebbd d306 15bc 7c79 453d 2f83 273d
00000130: 5caf ea3c 573b 2d3d 21ed fcbd 2696 c03d
00000140: a625 143c e322 02be 10fb dcbd bed2 03bd
00000150: 8145 d13d d1a6 17be 706b 273d 8435 13bd
00000160: 3ec4 13be bce7 973d 935d 26bd 7c52 d4bd
00000170: 0c53 0fbd ec87 163d 7827 f1bc 7d16 c03d
00000180: b8b7 803c 3211 b43d d201 b13d 5286 fabd
00000190: 4779 883d 2345 45bc 0ffc c83d 550e cebb
000001a0: 83fc 08be 6f90 06bc 51b8 04bc f0f4 133c
000001b0: ab8a c53d 22b0 a2bc a346 73bc d8e6 013d
000001c0: 30f6 bdbd 890b dd3d 0ade 5ebe 5354 4b3e
000001d0: 6c01 bebd bca5 d8bd d753 053e bd20 203e
000001e0: 9560 1e3d 8024 b13c 2450 8a3d f616 acbd
000001f0: 0a24 ecbd 1c77 203d a137 9cbd 00db 473a
00000200: a7c4 043c 1c56 3dbd c0c0 d9bd 6b10 833c
00000210: f0f5 dc3d 3aee 2a3d cb67 7d3d 43ac 05be
00000220: bc28 e4bb 55c2 bf3d 4b23 af3c 26bd 05be
00000230: 1a4b 6e3d b8a3 e23b 2a11 b3bb c61e e7bd
00000240: 2d46 13bd 77c9 54bd ae5c cf3d 8872 08bd
00000250: 3802 6cbd d79e 30bd 54f9 8d3d 572b 4abe
00000260: 2716 1ebe a098 48bc 1dfc afbd e9ca 8d3c
00000270: 70bc 923c a36e b53d aa13 253e 8777 5cbd
00000280: 6a6a 8abd 0d86 89bc bbf1 bfbc a004 16bd
00000290: bdc7 09bd ad1a 80ba 5453 84bd 1c9a a33d
000002a0: 0b5e c93d 221d 6c3e cf56 e43d e07a 5cbd
000002b0: 29b5 3abd 9b6a 453d 2231 dfbd f854 fd3d
000002c0: 8d0c a03d ae7f 993d 6b3e 1d3e ddd6 823d
000002d0: 8035 45bc da4f e03d 49be 93bc 3c59 ba3d
000002e0: dcb1 2f3b 50b1 2bbd 7038 aa3d fa41 80bd
000002f0: 42be acbd a89d 5fbd d61e 2e3e 18cc eb3c
00000300: ee87 753e 8c44 413c d062 e5bd efb2 bc3c
00000310: 77e4 22bc bff5 b33d 1c51 823d 4eb1 db3d
00000320: 6836 45bd e79e 4d3d 6c15 35bd 0dc1 993c
00000330: a13b 8e3d 9fde 15be 49c7 693d 7e94 8bbd
00000340: e1db 983d 97bc f3be a42f 663d 4617 76bd
00000350: e8ed a0bd a5bc e43d 2434 28bd 08ac 67bd
00000360: 8529 8dbd deed fdbd ed03 72be e8cc cebd
00000370: 208a 0bbd cff1 85bd 9cc1 b23d 08b0 f2bd
00000380: 260f ccbd 0830 81bd 65fe 6ebd 60df 863d
00000390: 262b 683d 184a ef3d 240a a5bc cf85 cb3d
000003a0: 9b21 953f c82a 413d 8475 5fbc 22c6 a0bd
000003b0: 9522 98bc 26f8 a1bd d098 b13c e651 47bd
000003c0: 1fc0 ca3d 7441 57bd 2b86 55bf 6d7c 8cbd
000003d0: a0f2 803d 9e47 ecbd 688a d4be 0377 923d
000003e0: 39ac 12be 10b3 09bd 8fbb c93d 30be 4a3c
000003f0: b307 d23d 86d6 e03d a82c 843d b084 fc3d

fc2.bias f4 [128]
0.08829484 0.012459339 0.09236444 -0.1103166 -0.18562372 0.024914216 0.22612906 0.028534696
-0.12847553 -0.16520756 -0.08616149 0.0618937 -0.07795716 -0.01900157 -0.03760366 0.059388123
0.108495906 0.2246285 -0.011174202 0.118895344 -0.082373835 -0.1217884 0.100348465 -0.0038146477
-0.25759298 0.08590528 -0.15770301 -0.16000342 -0.41204312 0.05916646 -0.1382702 0.05145666
-0.07148862 -0.12764233 -0.2545897 0.1334753 -0.01614213 0.007150322 0.10067874 -0.030631676
-0.053186156 -0.04097891 -0.18450832 -0.038452193 -0.28034157 -0.03646384 -0.10918635 0.27527002
0.020998832 0.06776895 0.16947684 -0.08288208 0.06769013 -0.06463105 0.042496935 0.16348808
-0.030176088 -0.027373347 0.03672292 -0.071913995 -0.12089803 0.13563411 0.09810827 -0.10496707
-0.0084373355 0.03753577 -0.02145505 0.038857788 0.25252172 0.15217505 0.08096781 0.012826905
-0.007750721 -0.0892313 0.06316633 -0.115163244 -0.010733266 0.0073251515 0.257208 -0.41782856
-0.03605263 -0.024859745 -0.031878643 -0.2050116 0.061455473 0.2951067 -0.06724749 -0.14222486
0.0063199103 -0.1619097 -0.08686018 0.32105812 -0.12905377 -0.10157866 -0.034557026 0.10219458
0.093433306 -0.05017587 0.14425898 0.0414843 0.040790014 0.0775389 -0.11303805 -0.003867209
-0.08474724 0.08458192 0.06538421 0.040507477 -0.043802183 0.014409537 -0.1240751 -0.091482185
0.114216074 0.04124004 0.061397955 0.024568494 0.10301103 0.0895017 0.3315846 0.31050387
0.26894343 0.07378441 0.10044018 0.101657584 -0.08312038 0.07245428 0.07216771 0.1264071
00000000: edd3 b43d 4122 4c3c 9129 bd3d abed e1bd
00000010: 2514 3ebe e618 cc3c 608e 673e 98c1 e93c
00000020: 178f 03be 2c2c 29be 6f75 b0bd 4084 7d3d
00000030: 01a8 9fbd 2ea9 9bbc 4c06 1abd f640 733d
00000040: 1a33 de3d 0305 663e 0014 37bc 677f f33d
00000050: 9db3 a8bd 326c f9bd 7f83 cd3d 2bff 79bb
00000060: 3ae3 83be 1cef af3d e67c 21be f0d7 23be
00000070: 51f7 d2be 8858 723d b496 0dbe 38c4 523d
00000080: a068 92bd acb4 02be 9559 82be c0ad 083e
00000090: 803c 84bc 404d ea3b a830 ce3d 48ef fabc
000000a0: bad9 59bd 80d9 27bd c0ef 3cbe 0c80 1dbd
000000b0: ee88 8fbe 1c5b 15bd 189d dfbd 31f0 8c3e
000000c0: be05 ac3c 72ca 8a3d 568b 2d3e 14be a9bd
000000d0: 1fa1 8a3d 495d 84bd 4411 2e3d 6b69 273e
000000e0: d833 f7bc 123e e0bc c66a 163d a547 93bd
000000f0: 6399 f7bd abe3 0a3e fdec c83d faf8 d6bd
00000100: c03c 0abc 1cbf 193d 80c2 afbc 5829 1f3d
00000110: 874a 813e c7d3 1b3e 73d2 a53d f027 523c
00000120: c3f9 fdbb e6be b6bd 595d 813d b5da ebbd
00000130: 95da 2fbc d307 f03b c4b0 833e a0ed d5be
00000140: ecab 13bd aaa6 cbbc 2e93 02bd 90ee 51be
00000150: bcb8 7b3d 3a18 973e 0db9 89bd 65a3 11be
00000160: 4017 cf3b a8cb 25be c0e3 b1bd bb61 a43e
00000170: ac26 04be 7908 d0bd ab8b 0dbd 644b d13d
00000180: f659 bf3d 3785 4dbd a0b8 133e 71eb 293d
00000190: 6e13 273d b7cc 9e3d 7e80 e7bd 0071 7dbb
000001a0: f68f adbd 4939 ad3d 28e8 853d 2beb 253d
000001b0: eb69 33bd fb15 6c3c 161b febd 035b bbbd
000001c0: 1eea e93d 51eb 283d 6c7c 7b3d de43 c93c
000001d0: 72f7 d23d ab4c b73d 75c5 a93e 5dfa 9e3e
000001e0: f4b2 893e 481c 973d 95b3 cd3d da31 d03d
000001f0: 053b aabd e962 943d aacc 933d dd70 013e

fc3.weight f4 [64, 128]
-0.004790652 0.064723626 -0.053120233 -0.06015202 -0.057343457 0.08073395 0.08837496 -0.015282141
0.068013124 -0.03639833 0.064226896 -0.058758616 -0.075339854 0.053780004 0.013577959 -0.03337005
0.030424397 -0.053788655 -0.06109768 0.059686355 -0.048781782 0.048542716 -0.076871715 0.06437736
0.051454607 -0.0086307265 -0.015849333 0.21010238 0.014813199 0.042117283 -0.18276736 0.04062418
-0.037240185 -0.014759183 -0.055566214 -0.115710884 0.028141579 0.03950365 -0.045811135 0.017483879
-0.023185534 0.013100073 -0.03641416 -0.016347203 0.015593909 0.021476379 0.056761056 -0.18506746
-0.081275135 0.007116676 -0.060793713 0.080852486 0.06972881 -0.039910585 0.08311957 -0.077914454
-0.005053091 -0.08398931 0.06321648 -0.008748349 0.018591918 0.004623525 0.0012807036 -0.04822946
-0.024769818 -0.058103643 0.08118342 -0.028229 0.03897839 0.07940253 -0.07411904 0.020309692
0.086576015 0.033491645 0.030217793 -0.04185064 0.059431106 0.052315112 -0.0161882 -0.090474926
0.4122553 0.01108308 0.029375872 -0.09288603 -0.047199845 -0.83396184 -0.089645185 0.019651968
0.08048546 -0.015124655 -0.06020752 0.041261904 -0.0021171714 -0.010455629 -0.032697327 0.058064234
0.054425374 -0.0022119256 -0.018017845 -0.004400384 0.011427929 -0.0030517005 -0.02238417 -0.02370501
-0.092816554 -0.0742436 0.03279624 0.03454258 -0.15693988 0.071740374 0.05051561 -0.014593634
-0.080093876 0.016655523 -0.07406819 0.03307077 -0.041270014 0.054340992 0.03519306 -0.031293098
-0.26368323 0.07312723 -0.09102354 0.026333923 0.06384559 -0.060515672 -0.06843524 0.07580032
0.0034732032 0.092980884 -0.049442824 -0.021237517 -0.021711612 0.034713034 -0.034252338 -0.042795256
0.06425455 0.021433465 0.06152135 -0.001256524 0.0635233 -0.06148828 -0.009166807 -0.021207035
-0.017968623 0.005864405 0.071217194 -0.009688171 -0.033566788 0.04166415 -0.056942627 0.0115885185
0.061772462 -0.022005154 -0.059310976 -0.4761072 0.05767321 -0.08346984 -0.035826612 -0.06329309
-0.006425719 -0.08531819 0.2898405 0.1611321 -0.06618764 -0.00040920376 -0.06729165 0.0890582
-0.06614952 0.048536785 -0.01203602 -0.050330244 -0.018502347 -0.05515191 0.029901978 0.24148329
0.059364304 -0.03661811 -0.013873372 0.029808672 -0.008721075 -0.13109747 0.06453182 -0.11399838
-0.06517025 0.05508953 0.6037241 -0.0103699565 0.07012331 0.011410811 -0.0011401064 0.07631055
-0.057046875 0.076802745 -0.029750975 -0.004931413 -0.049638018 -0.07499175 -0.103499405 -0.07728908
-0.08897639 -0.03347529 -0.050887767 0.038253248 -0.08517049 -0.027331904 -0.32195967 0.064671606
-0.1269454 -0.047390927 -0.0766345 -0.035795186 0.05113854 -0.1166538 0.09651311 -0.08369322
0.01603793 -0.08520606 -0.05461261 -0.42356128 -0.092987984 -0.003927357 0.03339655 -0.031693295
0.007441317 -0.0533898 -0.08714913 -0.06299316 -0.07877266 -0.052665334 0.029224277 -0.021298561
0.09562615 0.06866104 0.010498033 -0.079528496 0.11015532 -0.001813883 -0.005937448 0.07884748
-0.015104155 -0.042522192 0.052553862 -0.060960814 0.0652073 0.09153191 -0.17854023 -0.07744363
0.30664006 -0.041986194 -0.06626604 0.085976146 0.05865689 0.07329912 -0.017663717 -0.04578138
00000000: e7fa 9cbb d28d 843d 9a94 59bd f761 76bd
00000010: f9e0 6abd d757 a53d eefd b43d f261 7abc
00000020: 774a 8b3d 6a16 15bd 6489 833d e0ac 70bd
00000030: c84b 9abd 6c48 5c3d 1676 5e3c 09af 08bd
00000040: 963c f93c 7e51 5cbd 9041 7abd ae79 743d
00000050: 68cf 47bd bad4 463d eb6e 9dbd 47d8 833d
00000060: 11c2 523d e467 0dbc 76d6 81bc 1425 573e
00000070: 0fb3 723c 2c83 2c3d 5e27 3bbe 8a65 263d
00000080: 2a89 18bd 80d0 71bc 6699 63bd d4f9 ecbd
00000090: 2b89 e63c 94ce 213d 75a4 3bbd 5a3a 8f3c
000000a0: 97ef bdbc b0a1 563c 0427 15bd 92ea 85bc
000000b0: 987d 7f3c 3bef af3c 487e 683d 5382 3dbe
000000c0: 9473 a6bd 0133 e93b d402 79bd fd95 a53d
000000d0: facd 8e3d 4879 23bd 983a aa3d 9d91 9fbd
000000e0: 6694 a5bb 9602 acbd a477 813d 3c55 0fbc
000000f0: 144e 983c f080 973b 48dd a73a 418c 45bd
00000100: 13ea cabc 16fe 6dbd 7e43 a63d 8140 e7bc
00000110: cea7 1f3d cb9d a23d b9cb 97bd 8360 a63c
00000120: c44e b13d 892e 093d 4e8b f73c 946b 2bbd
00000130: 086e 733d 5f48 563d 1e9d 84bc eb4a b9bd
00000140: 2013 d33e cf95 353c aba5 f03c 083b bebd
00000150: a054 41bd 867e 55bf e597 b7bd 2afd a03c
00000160: 90d5 a43d 67cd 77bc 299c 76bd 3e02 293d
00000170: 3ec0 0abb 164e 2bbc a2ed 05bd c3d4 6d3d
00000180: 24ed 5e3d f4f5 10bb 299a 93bc 1931 90bb
00000190: 353c 3b3c 0aff 47bb 025f b7bc 0231 c2bc
000001a0: 9b16 bebd 070d 98bd 5a55 063d 857c 0d3d
000001b0: d9b4 20be 9eec 923d 75e9 4e3d 231a 6fbc
000001c0: 4208 a4bd 2a71 883c 10b1 97bd 3775 073d
000001d0: bf0a 29bd a994 5e3d 9926 103d 312d 00bd
000001e0: 7d01 87be bbc3 953d 8d6a babd 3dba d73c
000001f0: 7ac1 823d 48df 77bd c627 8cbd 333d 9b3d
00000200: ae9e 633b c36c be3d 8f84 4abd 4dfa adbc
00000210: 8ddc b1bc 412f 0e3d 2e4c 0cbd 144a 2fbd
00000220: e497 833d 3c95 af3c d0fd 7b3d f3b1 a4ba
00000230: 8118 823d 22db 7bbd 6030 16bc 60ba adbc
00000240: ef32 93bc 322a c03b 52da 913d 22bb 1ebc
00000250: 547d 09bd 07a8 2a3d ac3c 69bd c5dd 3d3c
00000260: 1f05 7d3d 2744 b4bc 11f0 72bd 53c4 f3be
00000270: be3a 6c3d 3cf2 aabd edbe 12bd cf9f 81bd
00000280: d68e d2bb 4ebb aebd f965 943e d0ff 243e
00000290: 638d 87bd 668a d6b9 34d0 89bd 2564 b63d
000002a0: 6679 87bd 82ce 463d ba32 45bc 1627 4ebd
000002b0: 3c92 97bc f8e6 61bd fef4 f43c 6547 773e
000002c0: fc27 733d dffc 15bd 244d 63bc 5131 f43c
000002d0: d7e2 0ebc 6a3e 06be 4229 843d fc77 e9bd
000002e0: fb77 85bd 8fa5 613d aa8d 1a3f c0e6 29bc
000002f0: cf9c 8f3d 69f4 3a3c 9f6f 95ba b548 9c3d
00000300: fca9 69bd c24a 9d3d 51b8 f3bc b197 a1bb
00000310: 3c51 4bbd 4695 99bd 7ff7 d3bd bd49 9ebd
00000320: 4139 b6bd 631d 09bd b16f 50bd 70af 1c3d
00000330: de6d aebd 28e7 dfbc e6d7 a4be 8c72 843d
00000340: fafd 01be fd1c 42bd 8cf2 9cbd f99d 12bd
00000350: a576 513d 30e8 eebd aaa8 c53d 5a67 abbd
00000360: fa61 833c 8480 aebd 79b1 5fbd 06dd d8be
00000370: 7c70 bebd 0fb1 80bb d2ca 083d d4d0 01bd
00000380: 4bd6 f33b 43af 5abd 3e7b b2bd 8f02 81bd
00000390: 8f53 a1bd 9bb7 57bd c067 ef3c 527a aebc
000003a0: a5d7 c33d 299e 8c3d f1ff 2b3c d6df a2bd
000003b0: 1d99 e13d d0bf edba ec8e c2bb ca7a a13d
000003c0: 6b77 77bc c02b 2ebd b842 573d 0cb2 79bd
000003d0: 688b 853d 1575 bb3d 40d3 36be c49a 9ebd
000003e0: edff 9c3e b7f9 2bbd 7db6 87bd 4314 b03d
000003f0: 3542 703d d91d 963d 80b3 90bc 4285 3bbd

fc3.bias f4 [64]
-0.09993745 -0.53558797 0.19375356 0.04170653 -0.009795424 0.0129051665 -0.0015570626 -0.13134141
-0.097132705 0.22105855 -0.14702769 0.050935067 0.045816734 0.054760773 0.036494207 -0.11643556
-0.10284215 -0.08570239 0.044398386 -0.08524372 0.09665045 0.037836447 0.16445139 -0.04524858
0.05659516 0.004184961 0.1632977 -0.077284686 0.007899577 0.029213678 0.07895049 -0.065494835
-0.0901751 -0.050179582 0.13020103 0.13466078 -0.0005402541 0.08191963 0.019100942 0.18090586
-0.45572305 0.014258695 0.02578035 -0.03507026 0.02763304 0.055430718 0.059497368 -0.049197543
-0.15595505 -0.028027795 0.026840039 0.011317828 0.07670985 0.02640235 0.03176878 -0.09556369
-0.078664884 0.014492248 -0.06973763 0.05264955 -0.05169439 0.024351543 0.38648593 0.07912865
00000000: 01ac ccbd 4b1c 09bf 5567 463e 77d4 2a3d
00000010: fc7c 20bc 3170 533c 5a16 ccba 5d7e 06be
00000020: 83ed c6bd 2c5d 623e 6d8e 16be 4aa1 503d
00000030: 54aa 3b3d d54c 603d f37a 153d c475 eebd
00000040: e89e d2bd bc84 afbd 15db 353d 4294 aebd
00000050: acf0 c53d 64fa 1a3d f265 283e 9356 39bd
00000060: 54d0 673d ff21 893b 8337 273e 6f47 9ebd
00000070: 3a6d 013c 8651 ef3c cbb0 a13d 2822 86bd
00000080: b9ad b8bd 1b89 4dbd 6b53 053e 84e4 093e
00000090: d79f 0dba 7bc5 a73d 9479 9c3c 633f 393e
000000a0: 8854 e9be 4d9d 693c 5031 d33c d5a5 0fbd
000000b0: af5e e23c 520b 633d 83b3 733d 5d83 49bd
000000c0: aeb2 1fbe 8c9a e5bc a4df db3c 696e 393c
000000d0: 0e1a 9d3d be49 d83c fb1f 023d e5b6 c3bd
000000e0: 0e1b a1bd e570 6d3c 9ad2 8ebd 0ea7 573d
000000f0: 7fbd 53bd e37c c73c 7ce1 c53e 340e a23d

fc4.weight f4 [2, 64]
-0.07497924 0.24345315 0.28491497 -0.03307253 0.101535164 -0.066984944 0.05463645 0.118857585
-0.08610467 0.4101701 -0.07076908 0.0011959607 -0.046705738 -0.11568711 0.037304305 0.045973577
0.10652153 0.026666 0.06545915 0.14615455 0.2975145 -0.018626243 0.07793742 -0.08234958
-0.051091533 -0.021620646 -0.09129423 0.026446238 -0.06267213 0.06959635 0.07512188 0.036343683
-0.09382503 0.10819321 -0.33824185 -0.11946771 -0.06968414 0.06369416 -0.063613996 0.062366582
0.00023653259 -0.11943136 0.025876446 0.09401514 -0.11640693 0.25185958 -0.07717374 0.028777685
0.058187537 -0.09839262 -0.18037696 -0.08100672 -0.033835247 0.03764275 0.098041385 -0.06694561
-0.09973406 0.086177506 -0.029891517 -0.031360444 0.015097729 0.83640164 -0.46147606 0.13245782
-0.069909334 -0.16883327 0.11239167 -0.10945693 -0.107076004 -0.04494704 0.00027616322 -0.10783159
-0.06969653 0.33524406 -0.12993081 0.04696414 -0.58459854 -0.026542002 -0.084317915 -0.09055022
-0.11890638 -0.10218237 -0.052802507 0.017486729 -0.18349206 -0.067357555 0.26628038 -0.09339845
0.016756045 0.106902346 0.09458839 0.015415095 0.04836402 0.01862391 -0.030035391 -0.006316538
0.080684766 -0.1121223 0.08815193 0.12536623 0.07134512 0.0069409222 0.07887696 0.338825
-0.3090303 -0.122482345 -0.063107185 -0.013755407 -0.062132828 -0.051448137 0.32979363 0.054356113
-0.10835167 0.064845346 0.099794894 -0.0046273787 0.044533655 0.113381736 0.07735554 -0.04188302
-0.104602754 0.098697305 -0.0772313 0.36632344 -0.16502325 -0.36585638 -0.106475174 0.026233232
00000000: b78e 99bd c84b 793e 60e0 913e 1077 07bd
00000010: abf1 cf3d 672f 89bd 78ca 5f3d 9b6b f33d
00000020: a557 b0bd d101 d23e 61ef 90bd c8c1 9c3a
00000030: 844e 3fbd 5ded ecbd 66cc 183d ca4e 3c3d
00000040: f627 da3d a872 da3c 720f 863d 8aa9 153e
00000050: d253 983e 1096 98bc a79d 9f3d e6a6 a8bd
00000060: 5b45 51bd c81d b1bc 78f8 babd c8a5 d83c
00000070: 3f5a 80bd 8888 8e3d 80d9 993d 1ddd 143d
00000080: 5627 c0bd 6794 dd3d 092e adbe 7dab f4bd
00000090: 8fb6 8ebd 1572 823d 0e48 82bd 1a74 7f3d
000000a0: bc05 7839 6e98 f4bd d7fa d33c 028b c03d
000000b0: c266 eebd bdf3 803e 440d 9ebd 2ebf eb3c
000000c0: 0e56 6e3d 1282 c9bd bdb4 38be dae6 a5bd
000000d0: d496 0abd 492f 1a3d ecc9 c83d c81a 89bd
000000e0: 5f41 ccbd d57d b03d 0edf f4bc cf73 00bd
000000f0: 775c 773c 6b1e 563f 9746 ecbe 06a3 073e
00000100: a02c 8fbd a1e2 2cbe 9b2d e63d f42a e0bd
00000110: aa4a dbbd 631a 38bd 00ca 9039 cfd6 dcbd
00000120: 0ebd 8ebd 1ca5 ab3e 950c 05be 785d 403d
00000130: 40a8 15bf 9d6e d9bc dfae acbd 6572 b9bd
00000140: 3085 f3bd fe44 d1bd 7147 58bd 5440 8f3c
00000150: 58e5 3bbe c2f2 89bd e755 883e b047 bfbd
00000160: f943 893c 9eef da3d 8fb7 c13d 988f 7c3c
00000170: 5a19 463d 2c91 983c c80c f6bc f6fa cebb
00000180: 0e3e a53d 60a0 e5bd 0089 b43d 0160 003e
00000190: 641d 923d ad70 e33b 3e8a a13d 787a ad3e
000001a0: 3839 9ebe 06d8 fabd 573e 81bd 5c5e 61bc
000001b0: fe7e 7ebd 48bb 52bd b6da a83e 84a4 5e3d
000001c0: 7be7 ddbd a3cd 843d 4461 cc3d 44a1 97bb
000001d0: ec68 363d af34 e83d 956c 9e3d 888d 2bbd
000001e0: f839 d6bd d021 ca3d 722b 9ebd bf8e bb3e
000001f0: dbfb 28be 8751 bbbe a80f dabd 13e7 d63c

fc4.bias f4 [2]
0.034036033 -0.044738237
00000000: 5e69 0b3d 713f 37bd
