model_last.pth (torch, 72612 bytes, 8 tensors)

fc1.weight f4 [64, 9]
0	0xbe8ba32e	-0.27272934
1	0xbed75b5a	-0.42061883
2	0xbe1b8d43	-0.15190606
3	0x3ddff3c2	0.10935165
4	0x3aae31cd	0.0013289988
5	0x3d7746cc	0.06037025
6	0x3f39ace2	0.72529423
7	0x3f08a074	0.5336983
8	0x3e0a8041	0.13525487
9	0xbc04ab2b	-0.00809745
10	0x3eaa5368	0.3326676
11	0x3e064a3e	0.13114259
12	0xbe0c2480	-0.13685799
13	0xbe189706	-0.14901361
14	0xbe865130	-0.26233816
15	0x3e0b76e0	0.13619566
16	0x3ea5816b	0.323253
17	0x3e970627	0.2949688
18	0x3fa98216	1.3242824
19	0xbf1f6a83	-0.622719
20	0x3e8a99b3	0.27070388
21	0xbea3b1f4	-0.31971705
22	0x3d88689c	0.06660578
23	0xbebe34a3	-0.37149534
24	0xbf7274df	-0.9470958
25	0x3f80c6c9	1.0060664
26	0x3f92652d	1.1437126
27	0x3e8673ff	0.26260373
28	0xbeb4874c	-0.35259473
29	0xbee74bb8	-0.45174956
30	0xbee6f684	-0.45109951
31	0x3d532602	0.05154992
32	0x3de25c70	0.11052787
33	0xbf0e57ec	-0.5560291
34	0x3eff20cc	0.4982971
35	0x3f0891bf	0.5334739
36	0x3d2484d4	0.040165737
37	0x3e28ce27	0.16484891
38	0xbf37d86e	-0.7181462
39	0xbe87363b	-0.26408562
40	0x3e29ada2	0.16570142
41	0x3e3ec680	0.18630409
42	0xbdf1e5b5	-0.11811391
43	0x3f1fcfdb	0.6242654
44	0xbfd70baa	-1.6800435
45	0x3e14e522	0.14540532
46	0x3f0d3c44	0.55170083
47	0x3eba08b9	0.3633478
48	0xbeb6db05	-0.35713974
49	0x3deb1483	0.11478522
50	0x3e27b73d	0.16378494
51	0xbeaac1ce	-0.33350986
52	0x3f4f3083	0.809334
53	0x3f8ba749	1.0910426
54	0xbdc166f6	-0.09443466
55	0xbe9ccf5f	-0.30626962
56	0xbddb6b86	-0.10713868
57	0xbd270360	-0.040774703
58	0xbea8daa3	-0.32979307
59	0xbe0046a6	-0.1252695
60	0xbe9fb8e6	-0.31195754
61	0xbe5b01ab	-0.21387355
62	0x3e35fb68	0.17771685
63	0xbe79aacb	-0.24381559
64	0xbf23d354	-0.63994336
65	0xbf2392b5	-0.6389573
66	0xbeb4071e	-0.3516168
67	0x3dbf231d	0.09332869
68	0xbd3f047e	-0.046635143
69	0x3d4e7f7f	0.05041456
70	0x3e99048f	0.2988629
71	0xc021fad3	-2.530934
72	0xbe1b5890	-0.15170503
73	0xbe037ca0	-0.1284051
74	0xbe66d74b	-0.22543065
75	0x3d2fe836	0.042946063
76	0xbe3907d0	-0.18069386
77	0xbe6eb5b0	-0.23311496
78	0xbe869483	-0.2628518
79	0x3e08403e	0.13305756
80	0xbe7dca1b	-0.24784128
81	0xbe8a82d4	-0.2705294
82	0x3dd83470	0.10556877
83	0xbe4a9af8	-0.19785678
84	0xbe46d393	-0.19416647
85	0xbe6594a6	-0.22419986
86	0xbd801750	-0.062544465
87	0xbcdf2f96	-0.02724437
88	0xbe0dee9b	-0.13860552
89	0xbe7576eb	-0.23971145
90	0xbec75f5c	-0.3893994
91	0xbe657631	-0.22408368
92	0x3f02c53a	0.51082194
93	0xbea71f6f	-0.3264117
94	0x3e2a432a	0.16627184
95	0xbeade2f3	-0.3396221
96	0xbe42c4c4	-0.19020373
97	0xbf294f8a	-0.6613699
98	0xbea2b539	-0.31778887
99	0xbee0845e	-0.43850988
100	0xbec9c650	-0.39409113
101	0xbd1802ec	-0.03711216
102	0x3ed35bb0	0.4128089
103	0x3e55178d	0.20809765
104	0xbe90e04c	-0.28296125
105	0xbee78965	-0.4522201
106	0xbe3edfec	-0.18640107
107	0xbf962ad3	-1.1731819
108	0xbf7285ce	-0.9473542
109	0xbe829028	-0.25500607
110	0x3ef9cf06	0.4879076
111	0xbee210b6	-0.44153374
112	0x3dbded48	0.092737734
113	0x3d868c58	0.06569737
114	0x3f438381	0.76372534
115	0xbf42adcb	-0.7604644
116	0xbe9d9b37	-0.30782482
117	0xbcad6f2b	-0.021171173
118	0xbe295248	-0.16535294
119	0xbe02a85b	-0.12759535
120	0x3db74100	0.08947945
121	0xbdf7eb70	-0.12105453
122	0xbc581b56	-0.013190111
123	0x3c4bcd80	0.012439132
124	0xbe6fbcab	-0.23411815
125	0x3da17c06	0.07884984
126	0x3e8e540d	0.277985
127	0xbef2a0e6	-0.4738838
128	0x3f64f973	0.8944313
129	0x3e7a5a06	0.24448404
130	0xbe8594b2	-0.26090008
131	0x3eb71d8c	0.3576473
132	0xbf3a42e0	-0.72758293
133	0xbf170bff	-0.5900268
134	0xbf824ef6	-1.0180347
135	0x3ea2c870	0.31793547
136	0xbe653e6b	-0.22387092
137	0xbcebe930	-0.028797716
138	0x3e9ff65f	0.31242654
139	0xbdf53e52	-0.11974777
140	0xbd1806ed	-0.03711598
141	0x3d87f356	0.066382095
142	0xbc620db8	-0.013797216
143	0xbe8b47ad	-0.27203122
144	0x3f02e69c	0.5113313
145	0xbf4eccf9	-0.80781513
146	0xbe991f68	-0.29906774
147	0x3f196c39	0.5993076
148	0xbe6ac57a	-0.22926894
149	0x3dfe9196	0.12430112
150	0xbedd05be	-0.43168443
151	0x3eb645c4	0.35600102
152	0xbea364dd	-0.3191289
153	0x3f093886	0.5360187
154	0xbe4c0596	-0.19924006
155	0xbfa531b2	-1.2905791
156	0xbdd09000	-0.10183716
157	0x3d8bfe3a	0.06835599
158	0x3df34a5c	0.11879417
159	0x3f0cc348	0.54985476
160	0x3f7c75de	0.9861735
161	0xbf2454f3	-0.6419212
162	0x3b2db58b	0.0026505913
163	0x3d1d1a3b	0.038355093
164	0xbf56885e	-0.8380183
165	0xbeb55364	-0.35415184
166	0x3e75d5cc	0.24007338
167	0x3dcd07ce	0.10011254
168	0xbdbd8532	-0.092539206
169	0xbecc4497	-0.3989608
170	0x3d37fa75	0.04491659
171	0xbe95d5d1	-0.2926469
172	0xbbc9aff0	-0.0061550066
173	0xbeaa641c	-0.33279502
174	0xbeec423a	-0.46144277
175	0x3dd77b82	0.10521604
176	0x3d5e312f	0.054246124
177	0x3dee945b	0.1164939
178	0xbf2172a3	-0.63065547
179	0xbe7f227b	-0.24915497
180	0x3e0e886e	0.13919231
181	0x3f0e53c7	0.55596584
182	0xbf292b6f	-0.660819
183	0xbd913904	-0.07090953
184	0x3e3bbf93	0.18334799
185	0xbe856b19	-0.26058272
186	0x3b12ebc5	0.0022418362
187	0x3f09126b	0.5354373
188	0xbf205222	-0.62625325
189	0x3d640f0b	0.05567841
190	0x3e97b6de	0.29631704
191	0x3d802f90	0.06259072
192	0xbe365a20	-0.17807817
193	0xbea17958	-0.3153789
194	0xbe28b7be	-0.16476342
195	0xbdb2093b	-0.08693167
196	0x3dc95566	0.098307416
197	0xbe7b1976	-0.24521431
198	0xbe9a2f34	-0.30114138
199	0xbe932b67	-0.2874405
200	0x3ccdf1d6	0.02513973
201	0x3e4ae758	0.19814813
202	0xbe29c3f0	-0.1657865
203	0xbea36f27	-0.3192074
204	0x3e0ff913	0.14059858
205	0xbe86471f	-0.26226136
206	0xbe96761f	-0.29386994
207	0x3d00b331	0.03142089
208	0x3db9f882	0.09080602
209	0xbe51599e	-0.20444342
210	0x3e01bc87	0.12669574
211	0xbe22a66d	-0.15883799
212	0x3dfe1a7d	0.12407396
213	0xbce5dd45	-0.028059611
214	0xbe6a383d	-0.22873016
215	0x3f16e25c	0.58939147
216	0x3e00b3a9	0.12568535
217	0x3f44d314	0.7688458
218	0x3e6aa890	0.22915864
219	0xbdfebe80	-0.12438679
220	0x3da30410	0.07959759
221	0xbe1af368	-0.15131915
222	0x3e4d0235	0.20020373
223	0x3ec69683	0.38786706
224	0x3fde2c09	1.7357188
225	0x3e2677e6	0.16256675
226	0xbe059aac	-0.13047284
227	0x3e9a0e79	0.30089167
228	0xbe61ce89	-0.22051443
229	0xbeaa7a0a	-0.33296233
230	0x3de13e28	0.109981835
231	0x3bc108fa	0.0058909627
232	0x3e62c280	0.22144508
233	0x3d906237	0.07049983
234	0xbcdc56fe	-0.02689695
235	0x3ed56943	0.4168187
236	0x3e9c48b9	0.30524233
237	0xbd8edaad	-0.06975303
238	0x3e54cb3c	0.20780653
239	0xbe07c735	-0.13259585
240	0xbf604d7c	-0.8761823
241	0xbf25af74	-0.64720845
242	0x40218a25	2.5240567
243	0x3ea6976b	0.32537398
244	0x3e39d056	0.1814588
245	0xbc5bf456	-0.013424953
246	0xbe96b027	-0.2943127
247	0xbe03951e	-0.12849852
248	0xbe376368	-0.17909014
249	0xbb9e9fab	-0.0048408112
250	0xbe60d3a6	-0.21955737
251	0xbe01f6a3	-0.1269174
252	0xbf702c80	-0.938179
253	0x3eb27061	0.34851363
254	0x3dbd3fab	0.09240659
255	0x3e8bb656	0.2728755

fc1.bias f4 [64]
0	0xbe0b7061	-0.13617088
1	0x3a9ffd56	0.0012206237
2	0xbf066066	-0.5249084
3	0x3c3e9a34	0.011633445
4	0xbe84e4a6	-0.25955695
5	0xbeb62166	-0.35572356
6	0x3e9c9102	0.30579382
7	0xbe8d76c4	-0.27629673
8	0x3e690073	0.22754078
9	0x3e8d4f88	0.2759974
10	0xbe7500a3	-0.23926024
11	0x3ec18c12	0.37802178
12	0xbedcb82e	-0.43109268
13	0xbe9d12cb	-0.306784
14	0xbd531492	-0.05153329
15	0x3e403264	0.18769222
16	0x3ea318dd	0.31854907
17	0x3dc2ca94	0.09511295
18	0x3bebab42	0.0071920464
19	0xbec0d3ef	-0.37661693
20	0xbe4ac740	-0.1980257
21	0x3d8053b6	0.062659666
22	0x3e99bc7f	0.30026624
23	0x3e8fd730	0.28093863
24	0xbeb56db2	-0.35435253
25	0x3e53fa63	0.20700984
26	0x3d9035b1	0.07041491
27	0xbe47d8b3	-0.19516258
28	0x3da18358	0.0788638
29	0x3e1e68ae	0.1546962
30	0x3e8d2ab3	0.2757164
31	0x3ee4c723	0.4468318
32	0x3da8d9c6	0.08244662
33	0xbe16f71b	-0.14742701
34	0x3e31c3ae	0.17359802
35	0x3e834c61	0.2564421
36	0x3e096d89	0.1342069
37	0x3ea517ee	0.3224482
38	0x3e97b2cb	0.29628596
39	0xbe1d99db	-0.15390722
40	0x3de1a2af	0.110173576
41	0x3ed2eb83	0.41195306
42	0x3e894ecd	0.26817933
43	0xbf119a37	-0.5687594
44	0xbd3e5e37	-0.04647657
45	0x3e3d13c3	0.1846457
46	0xbea8eb9d	-0.3299226
47	0xbd250015	-0.04028328
48	0x3e65ed34	0.22453767
49	0xbdc87a31	-0.09788931
50	0xbe29dcd7	-0.1658815
51	0x3e204fcd	0.15655442
52	0x3e26d724	0.16293007
53	0xbdf0f648	-0.117657244
54	0xbd5b98c3	-0.05361248
55	0x3e41d26c	0.18927926
56	0x3cc5856b	0.02411147
57	0x3cbd7a16	0.023129504
58	0xbf018303	-0.50590533
59	0x3cc67a12	0.02422813
60	0x3ecc680b	0.39923128
61	0x3e7f8ab0	0.24955249
62	0xbd295cb6	-0.04134818
63	0xbd130e5b	-0.035902362

fc2.weight f4 [128, 64]
0	0x3db8d6a8	0.090253174
1	0x3ceeab28	0.029134348
2	0x3c1109e0	0.008852452
3	0x39690eef	0.00022226175
4	0xbddd3cf5	-0.10802642
5	0xbd7c8051	-0.06164581
6	0xbdc87384	-0.09787658
7	0xbdae7375	-0.085181154
8	0x3cacbd90	0.021086484
9	0xbc1a09a0	-0.009401709
10	0xbf9820bc	-1.188499
11	0xbea79142	-0.3272801
12	0x3de683cb	0.11255606
13	0x3d52c884	0.051460758
14	0x3cb20528	0.021730974
15	0x3d9f1e23	0.0776942
16	0xbd9c9d4f	-0.07647192
17	0x3c294b62	0.010332914
18	0x3d6d93c7	0.05800226
19	0xbdd8b535	-0.105814375
20	0x3f3fabbf	0.7487144
21	0xbdd3e7b8	-0.10346931
22	0xbd95cb4a	-0.07314165
23	0x3d2c5fdf	0.042083617
24	0x3f2a0a66	0.66422117
25	0x3debbaa8	0.11510211
26	0xbdf02502	-0.11725809
27	0xbc2d98c0	-0.0105955005
28	0x3db273d2	0.08713497
29	0x3cee11f8	0.029061303
30	0x3d864757	0.06556576
31	0xbcf1349f	-0.029444037
32	0xbd80c493	-0.062874936
33	0xbe1ff9e3	-0.15622668
34	0x3dc9db51	0.098562844
35	0x3d2c508c	0.042069003
36	0xbd6a2f41	-0.05717397
37	0xbe4d0ec6	-0.20025167
38	0x3eab289e	0.33429426
39	0xbd3a5269	-0.04548875
40	0x3d805b40	0.062674046
41	0xbc89e84e	-0.016834404
42	0x3e297b7d	0.16551013
43	0xbcb7ab0e	-0.022420432
44	0x3d266398	0.040622324
45	0xbd927f70	-0.07153213
46	0xbc1d8c9e	-0.009616045
47	0xbc48f987	-0.012266523
48	0xbeb786a6	-0.35844916
49	0xbe159669	-0.14608158
50	0xbce364e5	-0.027758071
51	0xbe873da7	-0.26414225
52	0xbe5d04d7	-0.21583878
53	0xbe88905f	-0.26672646
54	0x3d517e03	0.051145565
55	0x3e02aa18	0.12760198
56	0xbc9902d8	-0.018678114
57	0xbe6b8ae6	-0.23002204
58	0x3daa74a6	0.0832303
59	0x3e1616e4	0.1465717
60	0xbdc81b69	-0.09770853
61	0x3d82199c	0.06352541
62	0x3deb9f69	0.115050144
63	0xbca92b72	-0.0206506
64	0x3dd12c0e	0.10213481
65	0xbd2e51e8	-0.04255858
66	0x3e26ecda	0.16301289
67	0x3cd7a121	0.02632195
68	0xbd5d59c3	-0.05404068
69	0xbdeeb69a	-0.11655922
70	0xbd6ee89c	-0.058327302
71	0xbd210b23	-0.03931726
72	0x3d3f07e8	0.0466384
73	0xbd430e34	-0.047620967
74	0xbe12552d	-0.14290304
75	0xbcb437a6	-0.021999191
76	0x3daa4493	0.08313861
77	0xbcdac260	-0.026704013
78	0xbc09497d	-0.008379337
79	0xbd232905	-0.03983404
80	0xbfb78eb1	-1.4340421
81	0x3c88dfb6	0.016708236
82	0xbd61221e	-0.054964177
83	0xbd6b0115	-0.05737408
84	0xbdae82ac	-0.085210174
85	0xbdb52ce0	-0.0884645
86	0xbd91e6f2	-0.071241274
87	0xbe13e24d	-0.14441796
88	0xbe9ac251	-0.30226377
89	0xbda0ef5c	-0.07858154
90	0xbdff6811	-0.12471021
91	0x3dbb19d8	0.09135789
92	0xbca46d82	-0.020071749
93	0x3d8e0946	0.069353625
94	0x3dab5b07	0.083669715
95	0xbe383993	-0.17990713
96	0x3d9feb55	0.07808558
97	0x3d631586	0.05544045
98	0xbe0b61e0	-0.13611555
99	0xbd5d9d2c	-0.05410497
100	0x3b83f0a1	0.004026488
101	0xbf412320	-0.7544422
102	0xbcf33849	-0.029689925
103	0xbe361128	-0.17779982
104	0xbe127d9f	-0.14305733
105	0x3dfc241b	0.12311574
106	0x3c8dac15	0.01729397
107	0x3bbbf42a	0.0057358937
108	0x3de4832c	0.111578315
109	0x3de6c9e2	0.11268975
110	0x3e00128d	0.12507077
111	0x3d28336a	0.041064657
112	0xbc876172	-0.016525958
113	0x3e0f220a	0.13977829
114	0xbd23cabc	-0.039988264
115	0xbdb0dd82	-0.08635999
116	0x3dcc9706	0.09989743
117	0xbcf77f98	-0.030212209
118	0x3dde4952	0.108538285
119	0xbdabf146	-0.08395629
120	0x3d660618	0.056158155
121	0x3dd1277b	0.102126084
122	0x3cc31968	0.023815826
123	0xbddf49f6	-0.10902779
124	0x3d08a41c	0.033359632
125	0xbdbada34	-0.0912365
126	0xbd71efd3	-0.059066605
127	0x3d6e45cc	0.058172032
128	0xbd5a0101	-0.053223614
129	0xbd1e4724	-0.038642064
130	0xbdce1294	-0.10062137
131	0xbd0ca443	-0.03433634
132	0xbcebdf81	-0.028793098
133	0xbd9a063f	-0.075207226
134	0x3d310ee4	0.04322709
135	0xbcff3c80	-0.031156778
136	0x3dec2b80	0.115317345
137	0xbc7c81c0	-0.015411794
138	0x3c38c8f0	0.011278376
139	0x3de1f93a	0.11033864
140	0xbbe516cd	-0.0069912435
141	0xbd93a35a	-0.07208891
142	0xbd7deeb5	-0.061995227
143	0xbd4e74a4	-0.050404206
144	0x3d62c198	0.055360407
145	0xbe0e6e18	-0.13909185
146	0xbd9cf3c7	-0.07663684
147	0x3c7ff1fc	0.015621658
148	0xbbb4c460	-0.005516574
149	0x3dea1aac	0.114308685
150	0x3d360584	0.044438854
151	0xbdf6d365	-0.12052039
152	0xbc8dfce8	-0.01733251
153	0x3d735381	0.059405807
154	0xbdd7c70e	-0.105360135
155	0xbd0c59e8	-0.03426543
156	0xbc8339e6	-0.016018819
157	0xbcfce560	-0.030871093
158	0x3dbbbdfc	0.09167096
159	0xbd9337da	-0.07188387
160	0xbe097482	-0.1342335
161	0xbdd04402	-0.101692215
162	0xbc1f7e6f	-0.009734734
163	0x3b892457	0.0041852403
164	0x3dad3d3c	0.08458945
165	0xbddd7b70	-0.108145595
166	0x3d40fb15	0.04711445
167	0x3c4e5aeb	0.012594919
168	0xbde5e63a	-0.11225553
169	0x3b434633	0.002979648
170	0x3dba1a85	0.090870894
171	0xbcb09900	-0.021557331
172	0xbe023ce1	-0.12718536
173	0xbdbb9838	-0.09159893
174	0xbc401e40	-0.011725962
175	0x3c1813c9	0.009282061
176	0x3d8537bd	0.06504772
177	0xbdc01062	-0.09378125
178	0x3bd9d8b6	0.0066481484
179	0xbd40783e	-0.046989672
180	0xbde8d519	-0.1136877
181	0x3d1d7583	0.038442146
182	0xbe0f7567	-0.14009629
183	0xbd6ece42	-0.05830217
184	0x3c20b0f0	0.00980781
185	0x3d2f9aac	0.042872116
186	0xbd463306	-0.048388503
187	0xbca3cedc	-0.0199961
188	0x3d9b370b	0.07578858
189	0xbddcd7aa	-0.10783322
190	0xbdd41913	-0.10356345
191	0xbdce5390	-0.10074532
192	0x3dca086c	0.098648876
193	0xbd998d94	-0.07497707
194	0xbd0253e0	-0.03181827
195	0xbc982ba0	-0.01857549
196	0x3d1b70b8	0.037949294
197	0xbd8ad5e8	-0.06779081
198	0x3d436c98	0.047710985
199	0xbc899310	-0.016793758
200	0x3deb56e2	0.11491181
201	0xbd71848c	-0.058964297
202	0xbdef1518	-0.11673945
203	0x3cbd3848	0.023098126
204	0xbd2d1d30	-0.042264163
205	0x3dad0556	0.084482834
206	0xbd792038	-0.06082174
207	0xbd6c6930	-0.057717502
208	0xbde30216	-0.11084382
209	0x3ddb0aea	0.10695441
210	0xbcdcdd70	-0.026961058
211	0xbdebda82	-0.115162864
212	0xbd28cac0	-0.041208982
213	0x3d188ccc	0.03724365
214	0x3ddf4dd2	0.10903515
215	0x3d54bc00	0.051937103
216	0xbd491764	-0.049094573
217	0x3d5132ec	0.051073954
218	0x3b966aa0	0.0045903474
219	0xbc921b50	-0.01783529
220	0xbd80410e	-0.06262408
221	0xbdd0cd64	-0.10195425
222	0xbbfb0240	-0.0076601803
223	0x3c586020	0.013206512
224	0xbd9b9ccc	-0.07598266
225	0xbd8de2c6	-0.06928019
226	0xbd45648c	-0.048191592
227	0x3ddc6702	0.10761835
228	0xbd8d1dee	-0.06890474
229	0xbde7e462	-0.113228574
230	0x3bfe5500	0.0077615976
231	0x3dc15384	0.094397575
232	0x3b559f00	0.0032595992
233	0xbda305f2	-0.07960118
234	0x3d3885a8	0.04504934
235	0x3d191754	0.037375763
236	0x3c6db020	0.0145073235
237	0xbce07810	-0.027401
238	0xbd0ba260	-0.0340904
239	0xbcbe5780	-0.023235083
240	0xbc5a73f0	-0.013333306
241	0x3d9a1574	0.07523623
242	0xbd7d05cc	-0.061773106
243	0xbdbfddf4	-0.09368506
244	0x3d4502dc	0.04809843
245	0x3da5dd0a	0.080988005
246	0x3d80aa1a	0.06282444
247	0xbdad4a9e	-0.08461498
248	0xbd1dd9d8	-0.03853783
249	0xbd991e34	-0.07476464
250	0xbdd8dbdc	-0.1058881
251	0xbda86dd8	-0.08224076
252	0x3d528064	0.051391974
253	0xbb8d0540	-0.0043036044
254	0x3d8ca146	0.06866698
255	0x3df5c4ca	0.12000425

fc2.bias f4 [128]
0	0x3d6e5137	0.05818292
1	0x3df2786b	0.11839374
2	0xbdeb3631	-0.114849456
3	0xbdf2c446	-0.118538424
4	0xbe3e3811	-0.18576075
5	0xbbf15f13	-0.00736607
6	0x3de34e8c	0.11098966
7	0xbdde1963	-0.10844686
8	0xbe93ca07	-0.28865072
9	0xbdc61f48	-0.09673935
10	0x3df07ae9	0.11742193
11	0xbde53698	-0.111920536
12	0xbcea3431	-0.02858934
13	0x3c96742e	0.018365946
14	0x3d257e8d	0.04040389
15	0xbe119ff9	-0.14221181
16	0x3ddbbb95	0.10729138
17	0x3d5003a8	0.050784737
18	0xbd43aba8	-0.047771126
19	0x3e7b5795	0.24545129
20	0x3defe6e6	0.11713962
21	0xbdee27b5	-0.11628667
22	0xbdfc07d9	-0.12306184
23	0x3e025aa3	0.12729888
24	0x3d345e5f	0.04403531
25	0xbdbf34cb	-0.09336241
26	0xbd9b0b70	-0.07570541
27	0xbe29bafa	-0.16575232
28	0x3e4d2a4c	0.20035666
29	0xbdc61c94	-0.096734196
30	0xbe24679a	-0.16055146
31	0xbe66023e	-0.22461793
32	0xbe38bcf9	-0.18040837
33	0x3d8c4ae5	0.068502225
34	0xbdd959be	-0.1061282
35	0x3eb83722	0.35979563
36	0xbd88b10e	-0.066743955
37	0xbe521f36	-0.20519719
38	0xbc0a0abd	-0.008425412
39	0xbe2cc17a	-0.1687068
40	0x3e6e153b	0.23250286
41	0xbdb243c6	-0.08704333
42	0x3e071ab1	0.13193776
43	0x3db16968	0.08662683
44	0x3b2209dd	0.0024725117
45	0xbddcf5e0	-0.107890844
46	0x3db977a9	0.090560265
47	0xbe048dc4	-0.12944704
48	0xbd7bd654	-0.061483696
49	0xbd6f4030	-0.058410823
50	0xbd3d41a8	-0.046205193
51	0xbe012ac1	-0.12613966
52	0x3e25609c	0.16150135
53	0x3dc03ff2	0.093871966
54	0xbd70eb76	-0.058818303
55	0xbe44dbbd	-0.19224449
56	0xbe128cee	-0.14311573
57	0x3d24d770	0.04024452
58	0x3e5f75a0	0.21822214
59	0xbd668b26	-0.056285046
60	0x3d757b20	0.059931874
61	0x3db73af7	0.089467935
62	0x3b4b1a61	0.0030991065
63	0xbdc0be27	-0.09411269
64	0xbd33cb3a	-0.043894984
65	0x3d03ed05	0.03220846
66	0x3c8ead68	0.01741667
67	0xbdf2310a	-0.1182576
68	0x3b0bd009	0.0021333715
69	0x3dec6a10	0.11543667
70	0x3e1630bd	0.1466703
71	0xbd1471f1	-0.036241475
72	0xbcc5a2af	-0.024125425
73	0xbd3d2d16	-0.046185575
74	0x3d6803a3	0.056644093
75	0x3e4f483e	0.20242402
76	0xbe4e249c	-0.20131153
77	0x3ce32ce6	0.02773137
78	0x3d850db9	0.06496758
79	0xbd112e0b	-0.0354443
80	0x3c34981c	0.011022594
81	0xbd8de2aa	-0.06927998
82	0xbc981882	-0.018566374
83	0xbe51c813	-0.20486479
84	0xbb803cc0	-0.003913492
85	0x3d9d8b80	0.07692623
86	0x3e225909	0.15854277
87	0x3def3636	0.11680262
88	0x3d995da3	0.07488563
89	0x3e0a5492	0.13508824
90	0x3c662fa0	0.014049441
91	0xbe5ba9f2	-0.21451548
92	0x3de895e5	0.11356715
93	0x3b1c8981	0.002388567
94	0x3d81b20e	0.06332789
95	0x3e608a23	0.21927695
96	0x3d637cbd	0.05553888
97	0x3d2087d5	0.03919204
98	0xbcab2ae2	-0.020894472
99	0xbdf4c7bb	-0.11952158
100	0xbe6462c5	-0.22303303
101	0x3e0a8ae9	0.13529553
102	0x3ceb8184	0.028748281
103	0x3ccdc48a	0.025118131
104	0x3ca45208	0.020058647
105	0x3c336020	0.010948211
106	0xbe03954b	-0.1284992
107	0xbcf85a5c	-0.030316524
108	0xbd7dd4b4	-0.061970428
109	0x3e259818	0.161713
110	0xbe06da14	-0.13169128
111	0x3d0dac80	0.034588337
112	0x3dc2e594	0.09516445
113	0x3d8c3716	0.06846444
114	0x3e95ad88	0.29233956
115	0xbd6a3b0c	-0.057185218
116	0xbddfab44	-0.10921338
117	0xbdba9b22	-0.091116205
118	0x3ddc039e	0.107428774
119	0xbde9bad7	-0.1141259
120	0x3da23554	0.07920328
121	0x3ec10807	0.37701437
122	0xbdb9e506	-0.09076886
123	0xbd474f2d	-0.048659492
124	0xbe8235ce	-0.25431675
125	0xbbdfc5b5	-0.0068289884
126	0x3ed085ff	0.4072723
127	0xbdd4092f	-0.10353314

fc3.weight f4 [64, 128]
0	0xbe927ef8	-0.28612494
1	0xbd529e62	-0.051420577
2	0x3b422aac	0.0029627485
3	0x3d9c2f79	0.07626242
4	0xbd5956ad	-0.053061176
5	0xbb86f6f1	-0.004118793
6	0xbe5674d1	-0.20943
7	0x3da9694a	0.082720354
8	0xbe0f169e	-0.13973472
9	0xbe49fd79	-0.19725598
10	0x3da28ef4	0.079374224
11	0x3d71ba8c	0.059015796
12	0xbcb7a8cb	-0.022419354
13	0x3c9a1af0	0.018811673
14	0xbdf5dc72	-0.12004937
15	0xbcd23e99	-0.025664615
16	0x3d0ffa7c	0.03515099
17	0xbce0f8fb	-0.027462473
18	0x3bee92ab	0.007280668
19	0x3ec300a5	0.3808643
20	0xbe721c04	-0.236435
21	0xbd6a37b6	-0.057182036
22	0xbd2758de	-0.040856235
23	0xbd88b157	-0.0667445
24	0x3cd68f4d	0.026191378
25	0xbda68b8e	-0.08132087
26	0x3c6e9908	0.014562853
27	0xbd254f3e	-0.040358774
28	0xbc7f2663	-0.015573117
29	0x3d7d68f2	0.06186766
30	0xbd96a46f	-0.07355582
31	0xbd7a8edb	-0.061171394
32	0x3d1b05e7	0.037847426
33	0xbcb691ef	-0.022286383
34	0x3d07388f	0.033012923
35	0x3d92c42f	0.07166325
36	0xbdd8ca04	-0.105854064
37	0xbd85e1e6	-0.06537227
38	0x3be63d65	0.007026362
39	0x3d2b0f44	0.041762605
40	0x3d4f3e0b	0.05059628
41	0x3cb7ef28	0.022452906
42	0x3dab6286	0.08368401
43	0x3c87f1b6	0.016594749
44	0xbd873d62	-0.06603505
45	0x3d78db64	0.060756102
46	0x3da60982	0.08107282
47	0xbdb3f57b	-0.08787056
48	0xbc996c30	-0.018728346
49	0x3d83ea54	0.06441179
50	0xbcb7eaaf	-0.022450773
51	0xbc4e7736	-0.012601664
52	0xbca035a1	-0.019556822
53	0xbd6cc04c	-0.057800576
54	0x3c863cd6	0.01638643
55	0x3d1a3ecf	0.037657555
56	0xbd51e1bc	-0.051240668
57	0xbda65fb4	-0.08123723
58	0x3d3f3ead	0.04669063
59	0xbe0770fd	-0.13226695
60	0x3d936e18	0.07198733
61	0xbdb11234	-0.0864605
62	0xbda23ea2	-0.079221025
63	0xbcfc1f69	-0.030776696
64	0x3c3d38d3	0.0115491925
65	0xbd5a35b5	-0.053273875
66	0xbda1d871	-0.07902611
67	0x3ddba77d	0.10725305
68	0xbd8e84a2	-0.069588915
69	0x3d07eb4a	0.033183374
70	0x3da0796b	0.07835659
71	0x3d47ac08	0.048748046
72	0xbd814635	-0.06312219
73	0xbd955884	-0.07292274
74	0x3dac8859	0.08424444
75	0x3dc94713	0.098280095
76	0xbd73cb3a	-0.059519984
77	0x3ceddff6	0.029037457
78	0x3d2dd061	0.042435054
79	0xbd83aa7b	-0.06429001
80	0xbd7b5cef	-0.061367925
81	0xbd8140d6	-0.063111946
82	0x3dcb9303	0.0994015
83	0xbce0ed3f	-0.027456878
84	0xbb28180b	-0.0025649096
85	0xbc829035	-0.015937904
86	0x3d90fdec	0.07079682
87	0x3d8c86e3	0.06861665
88	0x3d9efa6f	0.0776261
89	0xbbd93d87	-0.006629649
90	0xbda8201f	-0.082092516
91	0x3c802e12	0.015646968
92	0x3b6174ad	0.003440182
93	0xbc9c8c73	-0.01910994
94	0x3cfe1f00	0.031020641
95	0xbcdfd87e	-0.027324911
96	0xbda29366	-0.0793827
97	0x3d430a81	0.04761744
98	0x3da2c075	0.079468645
99	0x3ce4cda3	0.027930086
100	0x3d9d7413	0.07688155
101	0xbc91ee8c	-0.017813943
102	0x3db3ebb5	0.08785192
103	0x3c816ede	0.015799936
104	0xbd313f5a	-0.043273307
105	0xbd98906a	-0.0744942
106	0xbd0b9007	-0.034072902
107	0x3da2190f	0.07914936
108	0xbd6a38bb	-0.05718301
109	0x3d95a97a	0.07307716
110	0x3dfdf0be	0.123994336
111	0xbd879eb6	-0.066220686
112	0xbcd95044	-0.026527531
113	0x3cee045d	0.029054815
114	0x3d89931c	0.06717512
115	0x3d10b5fd	0.035329808
116	0x3da0de1c	0.07854864
117	0x3db542e1	0.08850647
118	0x3c42bc7c	0.0118857585
119	0x3b411cce	0.0029466632
120	0x3da9ecc8	0.082971156
121	0xbd8b046a	-0.06787951
122	0x3d234e57	0.039869633
123	0xbbaa0210	-0.005188234
124	0xbcd017af	-0.025401918
125	0x3d2d940a	0.04237751
126	0xbc5c443d	-0.013444004
127	0x3d9e29d4	0.07722822
128	0x3d3cc4d4	0.046086147
129	0xbd590aa2	-0.052988656
130	0xbdb41872	-0.08793725
131	0xbd9b5856	-0.07585208
132	0xbdb52c51	-0.08846343
133	0xbd59a938	-0.053139895
134	0xbd89363e	-0.06699799
135	0xbc928dcf	-0.017889885
136	0xbd9e29d0	-0.07722819
137	0x3de39a4e	0.11113416
138	0xbd935cc5	-0.07195429
139	0xbd9225f2	-0.07136144
140	0x3d4de16c	0.050263807
141	0x3d9281ec	0.07153687
142	0xbd7304ef	-0.059330877
143	0x3d552a75	0.052042443
144	0xbdad303e	-0.08456467
145	0xbc8e3137	-0.017357452
146	0x3d6a1ab4	0.057154372
147	0xbe0155df	-0.12630413
148	0x3bdf332d	0.0068115206
149	0x3d866222	0.06561686
150	0xbac913d3	-0.0015340991
151	0x3d8c1dcf	0.06841623
152	0x3d0f0431	0.034916107
153	0x3d0f00c2	0.034912832
154	0x3cf44e06	0.02982236
155	0xbdb028ee	-0.08601557
156	0xbc48634e	-0.012230707
157	0xbce622ba	-0.02809273
158	0xbc67f44d	-0.014157367
159	0x3d6fbec5	0.05853154
160	0xbd387ec8	-0.045042783
161	0x3d85648a	0.06513317
162	0x3c12cec7	0.008960432
163	0xbda09701	-0.07841302
164	0x3d49611c	0.049164876
165	0x3d09d174	0.033647016
166	0x3da702f7	0.081548624
167	0x3d4793a3	0.04872478
168	0xbd9dda68	-0.07707673
169	0xbcd29bcf	-0.025709061
170	0x3d8c368c	0.068463415
171	0xbd60f80a	-0.05492405
172	0x3d9cb959	0.0765254
173	0xbdae0ebf	-0.08498906
174	0xbdf26365	-0.11835364
175	0xbdb4328f	-0.08798706
176	0xbb28a608	-0.0025733728
177	0xbc982de6	-0.018576574
178	0x3c24c1fe	0.010056017
179	0x3b062827	0.002047071
180	0xbdb2fef3	-0.08740034
181	0x3d97774b	0.073958
182	0xbc326b35	-0.010889818
183	0xbd2fc0cd	-0.04290848
184	0xbdbfdbd4	-0.09368101
185	0x3d2cad8e	0.042157702
186	0xbc2d5680	-0.010579705
187	0xbd8990ec	-0.06717095
188	0xbcdf895a	-0.027287174
189	0x3d27bde9	0.040952597
190	0xbd158ce7	-0.036511328
191	0x3bf1a9ec	0.0073749926
192	0x3c64d351	0.013966397
193	0x3d2e10e5	0.04249658
194	0xbcdf7ecb	-0.02728214
195	0xbd627431	-0.05528659
196	0x3cae5ef0	0.021285504
197	0x3d7ec04d	0.06219511
198	0x3d1adae8	0.03780642
199	0xbd834936	-0.06410448
200	0xbc4197bf	-0.011815964
201	0x3d682caf	0.05668324
202	0xbd671ace	-0.056422047
203	0x3d9b3172	0.0757779
204	0xbd1034b3	-0.035206508
205	0x3ca2b9ed	0.019864047
206	0x3c3a8efc	0.011386629
207	0xbda85f0d	-0.082212545
208	0x3cabee84	0.020987757
209	0x3d91a55d	0.07111619
210	0xbd0c7c92	-0.034298487
211	0xbd8cead0	-0.068807244
212	0xbdb467db	-0.08808871
213	0x3db24323	0.087042116
214	0xbdbb2c4d	-0.09139309
215	0xbdb99cd3	-0.09063115
216	0xbd8ee698	-0.06977576
217	0xbdb1ef0c	-0.08688173
218	0x3c57678b	0.013147245
219	0x3c516d30	0.01278238
220	0xbc828e3f	-0.015936969
221	0xbcecd988	-0.02891232
222	0xbda96574	-0.08271304
223	0xbd886686	-0.0666018
224	0x3d805e7a	0.0626802
225	0xbdae2c17	-0.08504503
226	0xbd728483	-0.059208404
227	0x3d5cd852	0.053917237
228	0x3d67e79b	0.05661736
229	0xbc4908d3	-0.01227017
230	0x3c88d91e	0.016705092
231	0xbcd2b9c0	-0.025723338
232	0x3d7810ed	0.060563017
233	0xbb637501	-0.003470719
234	0x3d2f49ba	0.04279492
235	0x3c649574	0.013951648
236	0xbca0d718	-0.019633815
237	0x3d899594	0.06717983
238	0xbc7e2bca	-0.01551337
239	0xbbc95081	-0.00614363
240	0xbcb31aae	-0.021863308
241	0xbd0c4fb8	-0.034255713
242	0x3d84a606	0.06476979
243	0x3d21ae40	0.03947282
244	0xbd9b24de	-0.07575391
245	0xbc6a8870	-0.014314756
246	0x3d94754b	0.07248934
247	0xbd9b1ccf	-0.07573854
248	0xbd492c10	-0.049114287
249	0xbcd0e7dd	-0.025501186
250	0x3d657892	0.056023188
251	0x3bdaa394	0.006672332
252	0xbd25dc89	-0.04049352
253	0xbceabd18	-0.02865462
254	0xbbdeab0f	-0.006795294
255	0x3d3f4b3d	0.046702612

fc3.bias f4 [64]
0	0xbc9af58d	-0.018915916
1	0xbcf21cad	-0.02955469
2	0x3dc58c9f	0.09645962
3	0xbdf0e4b1	-0.117623694
4	0xbd8305b6	-0.06397574
5	0xbde9780e	-0.11399852
6	0x3e08323e	0.13300416
7	0x3c62b7cf	0.013837769
8	0xbdae65c2	-0.085155025
9	0xbde9be37	-0.11413234
10	0xbd8325b8	-0.06403679
11	0xbdce4abe	-0.1007285
12	0xbcad6fd7	-0.021171493
13	0x3d9f5952	0.077807084
14	0x3bd300d7	0.006439309
15	0x3bde069e	0.006775691
16	0xbaab4842	-0.0013067799
17	0x3c6c4159	0.014419877
18	0xbd9fe9be	-0.07808255
19	0x3e0e381a	0.13888589
20	0x3d95cf78	0.07314962
21	0xbd01052d	-0.031499077
22	0xbb19d019	-0.0023469983
23	0xbcb63f4a	-0.022246975
24	0xbcc1fbae	-0.02367958
25	0x3d7f29fe	0.062295906
26	0xbe39ecb6	-0.18156704
27	0x3b528bbe	0.003212675
28	0x3e245d88	0.16051304
29	0xbc96b4c9	-0.018396752
30	0x3de1768c	0.11008939
31	0xbd45d842	-0.048301943
32	0xbd20fdd9	-0.039304588
33	0xbbc06ccd	-0.005872345
34	0xbcf24916	-0.029575866
35	0xbc972e34	-0.018454649
36	0xbd018ce5	-0.031628508
37	0xbe3fdbf9	-0.18736257
38	0x3e2a9045	0.16656597
39	0xbd94e215	-0.07269684
40	0x3d1aa60f	0.037756022
41	0x3c858a62	0.016301338
42	0x3d23061e	0.039800756
43	0xbc4c6ef8	-0.012477629
44	0xbd522a07	-0.05130961
45	0x3e57f01a	0.21087685
46	0xbd0bb183	-0.034104835
47	0x3e6a4796	0.2287887
48	0xbd6e9a1b	-0.058252435
49	0x3e4150b5	0.18878444
50	0xbd8af00a	-0.06784065
51	0xbbd9ee38	-0.0066507123
52	0x3bd45555	0.006479899
53	0xbdbebd7e	-0.093134865
54	0xbd06f9d0	-0.032953084
55	0xbe884bfd	-0.26620474
56	0x3e03113e	0.12799546
57	0x3c4b25e4	0.012399171
58	0x3dc22b16	0.09480874
59	0xbd2c23a6	-0.042026184
60	0xbe22dad8	-0.15903795
61	0xbb85463d	-0.004067211
62	0x3e31057c	0.17287248
63	0x3de6d73a	0.1127152

fc4.weight f4 [2, 64]
0	0x3e0fd3f9	0.14045705
1	0x3cf6555e	0.030070003
2	0xbf04c350	-0.51860523
3	0x3dff7f65	0.124754705
4	0x3ed8fa21	0.42378333
5	0xbdc02b5e	-0.09383272
6	0xbba78a2e	-0.005112908
7	0xbd0528d0	-0.032509625
8	0xbe440b31	-0.19144894
9	0x3b8b4308	0.004249934
10	0x3d016e5f	0.0315994
11	0x3d274f70	0.040847242
12	0x3c8a1388	0.016855016
13	0xbdbf8104	-0.0935078
14	0x3c274a38	0.010210566
15	0x3cbe97a8	0.023265675
16	0x3da2c980	0.07948589
17	0x3e011728	0.1260649
18	0xbd33beea	-0.04388324
19	0xbd3ea38d	-0.046542693
20	0xbda3b00a	-0.07992561
21	0x3d38645b	0.04501758
22	0xbd4c4a56	-0.04987558
23	0x3e0b8d76	0.13628182
24	0x3dc08f3b	0.09402319
25	0x3d59ea73	0.053202104
26	0x3e735c1b	0.23765604
27	0x3d2d434d	0.04230051
28	0x3ec6d2dc	0.38832748
29	0x3cd4bed6	0.025969904
30	0x3c7a1846	0.015264576
31	0x3dc368b3	0.09541454
32	0xbd584288	-0.052797824
33	0x3bdcf980	0.00674361
34	0x3da68278	0.08130354
35	0xbc241f60	-0.010017246
36	0xbd044134	-0.032288745
37	0xbddbd5e8	-0.10734159
38	0xbdca6318	-0.09882182
39	0x3bfc2355	0.0076946416
40	0x3e98dcd8	0.2985599
41	0x3b3b4f5e	0.0028581242
42	0xbd3bef2d	-0.045882393
43	0xbe350d4d	-0.17680855
44	0xbd8ec56f	-0.06971251
45	0xbe435f0f	-0.1907923
46	0xbb9b6212	-0.0047419155
47	0xbda1315a	-0.07870741
48	0x3d2dd7ac	0.04244201
49	0xbcbbbdfe	-0.022917744
50	0x3d17ebde	0.037090175
51	0xbda02498	-0.0781948
52	0xbdbb215c	-0.09137222
53	0xbbe96c24	-0.007123487
54	0x3ca31e38	0.01991187
55	0x3e3f5755	0.18685658
56	0xbe1bbd27	-0.15208875
57	0x3df340a2	0.11877562
58	0xbe056b33	-0.13029175
59	0x3d915a35	0.07097284
60	0x3e885b45	0.26632133
61	0xbcff336c	-0.03115245
62	0xbd1f7b81	-0.038936142
63	0xbda8d8b5	-0.082444586
64	0xbd890f05	-0.06692318
65	0x3dd9f935	0.106432356
66	0x3d485bb3	0.048915576
67	0xbdc3c15f	-0.09558367
68	0x3d2714b4	0.04079123
69	0xbebb8fc0	-0.3663311
70	0x3cb10b6c	0.021611892
71	0xbd6d4634	-0.05792828
72	0x3e85f828	0.2616589
73	0xbd611c56	-0.054958664
74	0x3d1d2d89	0.038373504
75	0xbc170bfa	-0.009219164
76	0x3d01f999	0.031732175
77	0x3cb19f90	0.02168253
78	0xbb55782f	-0.0032572856
79	0x3e3437f2	0.17599466
80	0xbcdefc48	-0.027219906
81	0xbdfe741a	-0.12424488
82	0x3c87e06e	0.016586509
83	0x3e1c5d9f	0.15270089
84	0x3e01b093	0.12665014
85	0x3d1274ad	0.035755802
86	0x3d774542	0.060368784
87	0x3c70beb3	0.014693904
88	0x3d7d6a7f	0.06186914
89	0x3c0abf98	0.008468531
90	0x3e7d0877	0.2471026
91	0x3b84b7c5	0.0040502273
92	0x3e9f26cf	0.31084296
93	0xbd979c5d	-0.07402871
94	0x3deb9cf5	0.115045466
95	0x3db8e8de	0.09028791
96	0x3daf54e1	0.08561111
97	0x3db19230	0.08670461
98	0xbca2dccc	-0.019880675
99	0x3d778020	0.060424924
100	0x3d6b40df	0.057434913
101	0xbec8e632	-0.39238125
102	0x3de5a444	0.11212972
103	0xbd8fdd32	-0.070246115
104	0x3e109254	0.1411832
105	0x3e552494	0.20814735
106	0xbdbb9904	-0.09160045
107	0xbe5cd2cd	-0.21564789
108	0xbcf035af	-0.029322473
109	0x3e961276	0.2931096
110	0x3d97aeea	0.07406409
111	0x3e810242	0.25197035
112	0x3dcb9592	0.09940638
113	0x3e5dc1ef	0.21656011
114	0x3e024357	0.12721
115	0x3dd1a69c	0.10236856
116	0xbe4ef642	-0.20211127
117	0xbdbc6fd5	-0.09201018
118	0x3d84e604	0.064891845
119	0xbc87a703	-0.01655913
120	0x3dea453d	0.114389874
121	0x3ded96c6	0.116010234
122	0xbd8eecd7	-0.06978767
123	0xbdb68b89	-0.08913333
124	0xbd0c239f	-0.03421366
125	0x3dd9c5d9	0.106334396
126	0xbe9da8c4	-0.3079282
127	0xbd0ebba2	-0.03484691

fc4.bias f4 [2]
0	0xbc25c186	-0.01011694
1	0xbc161c8c	-0.00916208
