model_best.pth (torch, 72173 bytes, 8 tensors)

fc1.weight f4 [64, 9]
000000 5a b8 11 be fc f5 0e 3f d7 e6 02 3e ef 9f 03 be
       -0.14230481 0.5584409 0.12783371 -0.12853979
000010 47 57 ad 3d 66 4c 8f 3e b2 06 59 3e eb e8 98 3d
       0.084639125 0.27987975 0.2119396 0.074663006
000020 4f 4a ef bd c4 d9 77 bf 86 e5 95 3e 7d e4 ff bc
       -0.11684095 -0.9681666 0.29276675 -0.031236881
000030 e9 af e9 3e b6 fb 5a 3e e9 da b3 3d 2a 91 18 3f
       0.4564202 0.21385083 0.08781988 0.595965
000040 af 57 2f bf 05 01 75 3f d0 e5 c6 3e 74 90 0c 3e
       -0.6849317 0.9570468 0.38847208 0.1372698
000050 ed 01 76 be f4 cc 67 3d 39 ee 78 3e 80 3e a0 bd
       -0.24024172 0.056591943 0.24309625 -0.07824421
000060 69 95 19 3e fa 2a 07 bf 3d e0 48 bf 5e ef 3a 3f
       0.14998402 -0.5279995 -0.7846716 0.73021495
000070 fc 1a 60 bf 1b dc 6a bf 3a b7 4c 3e 1a b7 85 bc
       -0.87541175 -0.91742104 0.1999177 -0.016322661
000080 35 93 0d 3b de ec 79 3f 49 30 dc be 51 90 e6 bd
       0.0021602635 0.97627056 -0.4300559 -0.11257995
000090 ac 00 35 bd 83 84 ab 3e 41 45 b9 3e 68 a3 a6 bc
       -0.044190094 0.33499536 0.3618565 -0.02034159
0000a0 0a 72 85 be cd ca 92 3e 28 68 68 bc 87 82 8c 3c
       -0.26063567 0.2867035 -0.014184989 0.017152084
0000b0 2d e0 5c 3e f8 da a7 bd 54 19 91 be 20 5c 22 be
       0.21569891 -0.08196062 -0.28339636 -0.15855455
0000c0 15 5a 56 be e5 33 11 be e1 10 bb 3c cd f9 83 be
       -0.20932801 -0.14179952 0.022835197 -0.2577652
0000d0 20 77 86 3e 6d 39 e4 bb a0 17 81 3e 30 1b 47 3e
       0.2626276 -0.0069648535 0.25213337 0.19443965
0000e0 25 7e 0f be 04 5c 93 bd c9 6f 8b 3d b9 4c 3b 3e
       -0.14012964 -0.07195285 0.06808431 0.18290986
0000f0 68 39 b1 be 0b 37 03 be 5f 62 ee 3d e4 d4 48 3d
       -0.3461411 -0.12813966 0.116398565 0.049031153
000100 ab 96 78 3f 82 be bb 3e 07 4d 02 3e 6e 24 f1 3d
       0.971049 0.36668783 0.12724696 0.117745265
000110 c6 23 94 3e 94 30 e3 3e 0e d7 18 3d 3c 03 dc bc
       0.28933543 0.44373 0.037314467 -0.026857011
000120 fe 10 a6 3e 7b 12 05 bf 53 ea 87 3e 8e 9c 42 be
       0.3243484 -0.51981324 0.26545963 -0.19005033
000130 5b 5b 9a 3e b6 35 2a be 87 1a d1 bc a5 e6 65 be
       0.30147824 -0.16622052 -0.025525345 -0.22451265
000140 47 90 65 bf 86 a6 67 3e 3c 4e fc 3d 60 13 78 3c
       -0.89673275 0.22622117 0.123196095 0.015141338
000150 b0 89 e0 3c 0c 69 ad bd ee 1f 9a be be 54 34 be
       0.027409405 -0.08467302 -0.30102485 -0.17610452
000160 00 9d 7d 3c 1b 14 1e be b4 6e 8d bf 62 b1 bd 3e
       0.015479326 -0.15437357 -1.1049409 0.37049395
000170 58 07 67 bf 52 ba 16 3f 54 fe 9f 3d 74 5b 20 be
       -0.9024558 0.5887805 0.07812181 -0.15659887
000180 d7 86 18 3f 4e a8 16 3f d8 fd 27 3f cf 80 33 3f
       0.5958075 0.5885056 0.6562171 0.7011842
000190 f6 33 ef 3e 95 98 cc 3d bf 43 f5 bd 4d 4f 50 3e
       0.4671933 0.0999004 -0.11975812 0.20342751
0001a0 7e c8 5c 3e 57 23 e0 3e 5f 70 20 be bb 1c 35 bf
       0.21560857 0.43776962 -0.15667866 -0.70746964
0001b0 83 cb fd 3e 44 90 4a 3f 17 24 85 3f 46 01 2c be
       0.4956933 0.7912638 1.0401639 -0.16797361
0001c0 5c c4 8e 3d c1 2d b6 be 8f 33 84 bc 55 fd d3 3d
       0.06971046 -0.35581782 -0.016137866 0.103510536
0001d0 db 9e 84 bf 1f 76 30 bd a8 b8 43 be 8f 50 00 bf
       -1.0360979 -0.0430814 -0.1911341 -0.5012292
0001e0 e9 eb 09 3e 18 ee 55 3e cc af 91 3e 91 78 96 be
       0.13468899 0.20891607 0.28454435 -0.2938886
0001f0 25 1d b5 3e 4e 32 35 3f cf cf 46 bf 20 11 c2 3d
       0.35373798 0.70779884 -0.7766084 0.094759226
000200 c4 b4 f5 be 15 67 e7 3d bf 79 34 3e 00 03 51 3d
       -0.47989476 0.11298958 0.17624567 0.05102825
000210 2e e8 8c 3f 53 29 53 3e 12 9e 29 3f 08 88 bb 3e
       1.1008356 0.20621233 0.6625682 0.3662722
000220 c9 2c 0b 3f e9 63 e4 bc a5 5d 86 3e a2 94 8d 3e
       0.5436521 -0.027879672 0.2624332 0.2765246
000230 4d f8 9a 3e ab db 1d 3d ee 4e b8 bd 96 b7 7d be
       0.30267563 0.03853957 -0.0899943 -0.24777064
000240 02 c0 77 3e 8a 82 50 3e fc 5d aa 3d 70 f3 e0 bc
       0.24194339 0.20362297 0.08318707 -0.02745983
000250 00 06 0a bc 04 c6 a9 be aa eb 48 3e f0 cb 13 be
       -0.008424282 -0.33158886 0.19621149 -0.14433265
000260 18 b7 94 be a7 72 93 3f c6 42 a3 3e 09 b6 15 3f
       -0.2904594 1.1519364 0.31886882 0.5848089
000270 a6 f2 08 3c dd cc 53 3e 2f 0e c0 be 10 6b 93 3d
       0.008358633 0.20683618 -0.3751082 0.07198155
000280 d2 68 f4 3d 43 06 33 bf 3a 48 ec be 98 9e 06 3f
       0.119340554 -0.6993143 -0.46148854 0.52585745
000290 22 06 15 3f e4 60 ea bd 3b bc 4d bd 1e 0f b3 3d
       0.5821248 -0.11444262 -0.05022834 0.08743118
0002a0 af 55 54 be 17 34 11 bf e0 1f ef 3f e7 8c 03 bf
       -0.2073581 -0.5672011 1.8681602 -0.51386875
0002b0 fe 41 6d bc 2a 90 62 be b4 e8 b1 bd 4b 5e 5f be
       -0.014481066 -0.22125307 -0.08686963 -0.21813314
0002c0 3a 98 8c 3e 41 32 18 be 83 e9 06 be 8d a1 05 3c
       0.2745989 -0.1486292 -0.13175015 0.0081561925
0002d0 70 7a d4 3e 47 c3 82 be f7 b0 cb be 7c 72 da bd
       0.41499662 -0.2553961 -0.3978345 -0.106663674
0002e0 70 9d 38 3e b3 b3 20 be ea 2d 98 be de 17 33 3f
       0.18028808 -0.1569355 -0.2972253 0.69958293
0002f0 2a ec 67 3f 36 41 8d bd 79 aa d9 3d 1b 4a 16 3f
       0.9059473 -0.068972036 0.10628218 0.58706826
000300 f5 31 20 be b2 ca f4 3d 3c dc 8a be ba 48 cc 3e
       -0.15644057 0.119527236 -0.2712115 0.39899236
000310 e1 51 46 bf 01 27 d3 be 10 00 41 3f 73 db a1 3d
       -0.7746869 -0.41240695 0.7539072 0.07903185
000320 49 12 a5 3e 0a b2 83 be 7d 5f c6 3d 0b 3c a0 3e
       0.32240513 -0.2572177 0.09686182 0.3129581
000330 df 47 9d 3e 89 a9 db bd c1 b4 7c bf b1 24 77 bd
       0.30718896 -0.10725696 -0.9871331 -0.060337726
000340 60 70 f8 3d 16 22 30 be 66 e8 c3 bd db 37 79 3e
       0.12130809 -0.17200503 -0.09565811 0.24337713
000350 dc 66 85 be fc 66 31 3f 7c f0 95 3e 21 89 a4 3e
       -0.26055038 0.69297767 0.29285038 0.3213587
000360 12 9c 1c bf 6d 4f d7 b9 67 84 53 3d 90 fa bd 3e
       -0.61175644 -0.00041067172 0.05163994 0.37105227
000370 26 96 53 3e 7c 44 35 be fc 6c d2 3e f1 60 20 bf
       0.20662746 -0.17701906 0.41098773 -0.6264792
000380 0a 3e 4a 3f 7e 5d 1c bf 3f 83 bf be 83 0c 6b be
       0.79000914 -0.6108016 -0.3740482 -0.22953992
000390 05 6e 98 3e 57 d4 25 3e 13 0b 9d be eb fe 8b be
       0.29771438 0.16194282 -0.3067251 -0.27342924
0003a0 aa a1 b1 3e cb 51 42 3f 21 99 9d bc 95 d4 39 3c
       0.34693652 0.75906056 -0.019238057 0.011342187
0003b0 4e c9 20 3e 13 58 81 3e 24 23 b2 3d 9f cc a4 3e
       0.15701792 0.25262508 0.08698109 0.32187364
0003c0 f8 e4 57 3e d2 61 84 be 48 e1 13 bf e2 6c 6a 3e
       0.21083438 -0.2585588 -0.57765627 0.22893098
0003d0 1a d8 5d 3e e1 82 8a 3e 44 3b e0 3d 78 7d 51 be
       0.21664467 0.27052978 0.10948804 -0.20458019
0003e0 5b 04 31 be d4 11 aa bd a4 01 81 be 66 cb cd bd
       -0.17286818 -0.08304182 -0.25196564 -0.10048561
0003f0 a3 50 65 bf 9c 99 b0 be 67 c2 ca be f4 57 bd 3e
       -0.89576167 -0.34492195 -0.39601442 0.36981165

fc1.bias f4 [64]
000000 d0 7b 29 3d 70 de cb 3d 49 29 70 be e3 c4 a9 3c
       0.041377842 0.09954536 -0.23453249 0.020723766
000010 9a c8 1b 3e d0 2a 86 bb c3 0e 1e bd a1 4a 7b be
       0.15213242 -0.004094459 -0.038588297 -0.24540187
000020 c9 ec 1a 3e 74 74 9e 3d f0 55 1a 3f 30 fa 04 be
       0.15129389 0.077370554 0.6028738 -0.12986064
000030 76 5c 82 be 9e 0a 87 be 98 e5 32 bd 78 8f 92 3d
       -0.25461167 -0.26375288 -0.04367599 0.07156271
000040 d7 92 81 3e 34 c2 4d bd 31 2f ed 3e 10 ad 99 be
       0.25307342 -0.050234035 0.46325067 -0.3001485
000050 e6 8a 97 be 10 28 72 3d 55 66 4a be ee d4 2e bb
       -0.2959816 0.059120238 -0.19765599 -0.002667721
000060 b2 71 cc 3e 81 a6 31 3e 09 23 43 3e 94 43 f9 3d
       0.39930493 0.17348672 0.19056334 0.12171093
000070 a6 92 c7 3e 34 0b a3 be 65 c5 b6 be 79 97 7e 3e
       0.3897907 -0.31844485 -0.35697475 0.2486247
000080 00 1c d5 bd ee b3 c7 3d a8 72 1f be 08 c4 15 3e
       -0.10405731 0.09751116 -0.15571082 0.14625561
000090 42 2e 44 3e 1a 39 83 3e c3 d8 64 be bc c4 44 3e
       0.19158271 0.25629503 -0.22348313 0.19215673
0000a0 5a 3d d0 be a1 bf 87 be 68 0c 04 be 82 48 01 3e
       -0.40671808 -0.2651339 -0.12895358 0.12625316
0000b0 b9 db 94 3e 19 62 c1 bd 97 f0 88 3e 4e b3 46 3e
       0.29073885 -0.09442539 0.26746055 0.19404337
0000c0 ea 7f f6 be fb 6d 86 bd ad a9 0a 3e f5 a7 87 3d
       -0.48144466 -0.06563946 0.13541289 0.06623832
0000d0 82 8c 55 3e e1 c0 40 be 04 4b 9d bd 18 fe 98 3d
       0.2085438 -0.18823577 -0.07680324 0.074703395
0000e0 85 40 91 3e 89 ce 7d be 36 91 84 be b7 0f c2 3c
       0.28369537 -0.24785818 -0.25892037 0.023689134
0000f0 13 03 96 bd 00 46 69 ba 3d 82 9c 3e ef 88 37 3e
       -0.07324805 -0.00088986754 0.30568114 0.1792333

fc2.weight f4 [128, 64]
000000 cd fb 43 3d 74 b6 18 3d 4f c6 1b bb 5d 56 d1 3d
       0.047847558 0.037283376 -0.0023769324 0.102215506
000010 f1 0c 0d 3e 20 53 bd bd 55 ef ed 3d 70 4b d8 3d
       0.13774468 -0.092443705 0.116179146 0.105612636
000020 b7 98 31 3c 64 1e 64 bd a6 b0 9c 3c 08 57 01 bd
       0.010839633 -0.055693045 0.019127201 -0.03157714
000030 9b 7a 46 3e 6e 71 c8 3d d4 86 ad bd c4 ae 61 bd
       0.19382708 0.0978726 -0.08472982 -0.05509831
000040 9c 3a 57 3d 2b 5a d7 3d 59 50 d0 3d 7e 6d 0a 3d
       0.05254613 0.10515245 0.10171575 0.033795826
000050 a1 5d 95 bd dc 1a c9 3d 14 4b f9 bd 44 7c 70 3d
       -0.07293249 0.09819576 -0.12172523 0.05871226
000060 8a 63 9a bd 5f c4 35 bd d9 c4 d8 bd 88 f5 dd 3d
       -0.07538517 -0.044376727 -0.10584421 0.10837847
000070 7d 23 a8 bc 20 83 84 3b 54 6f f4 3d 28 c6 88 3d
       -0.020524735 0.0040439516 0.11935297 0.0667842
000080 35 1c 5e 3d 46 04 97 3d 34 15 c7 bc f0 a2 ad 3c
       0.05422612 0.07373862 -0.024302103 0.021195859
000090 d4 be ca 3d 27 f3 cf bd cc 4c da bd 4e b8 e7 3c
       0.09899679 -0.101537995 -0.10659179 0.028286126
0000a0 b6 a9 e6 bd 8e 0a b2 bd e4 77 59 3b 00 11 ee 3d
       -0.112628385 -0.086934194 0.0033183033 0.11624336
0000b0 64 9a a5 3d 0e 3b fe 3c 20 0d a5 bd 94 a4 c6 bd
       0.08086088 0.031034019 -0.08059144 -0.096993595
0000c0 23 68 fb bd 7e 0f ae be 72 91 95 bd 6d 24 80 3c
       -0.12275722 -0.33996195 -0.07303132 0.01564237
0000d0 f4 57 3b bd f4 d4 b3 3d b6 65 81 3c 3a 23 84 bc
       -0.045738176 0.08780852 0.01579557 -0.016130079
0000e0 14 7a 12 3d b4 e1 80 ba c7 cf 3a 3c d0 54 3d 3d
       0.035760954 -0.000983289 0.011402077 0.04622346
0000f0 22 75 e6 bc 80 2d f4 bb fc 08 f7 3d e1 e0 1d 3d
       -0.028132025 -0.007451713 0.120622605 0.03854454
000100 5e 1e d2 bd 8e d6 dd bd 0c 38 dd bd 27 91 a3 3d
       -0.10259698 -0.10831939 -0.10801706 0.0798667
000110 7a 3b 72 3d 81 ef ec 3c 15 ef c5 bd e6 58 e7 3d
       0.059138753 0.028922798 -0.09664742 0.11296253
000120 22 e1 7d bd 94 76 92 bd a6 9d d8 3d 81 b8 b3 bd
       -0.06198228 -0.07151523 0.10576944 -0.08775426
000130 5e 7b d0 3d 99 7d ee 3d a2 cb 99 bd db f0 8a bd
       0.101797804 0.116450496 -0.07509543 -0.06784221
000140 08 ac 8b bd c4 a5 59 3d d5 f2 4f bd 81 4e af 3d
       -0.06819922 0.053136602 -0.050768692 0.08559895
000150 b0 2a 19 bc 4a f7 aa bd d8 f6 a9 bd f8 39 0e 3d
       -0.009348556 -0.08347948 -0.08299035 0.034723252
000160 90 74 58 3d b8 52 f5 3c d0 99 41 3d 88 fd 63 3d
       0.052845538 0.02994667 0.047265828 0.055661708
000170 06 81 b2 3d f0 3f 57 3c b7 eb cc bd 5e b9 05 bd
       0.087160155 0.0131378025 -0.100058965 -0.032647483
000180 66 06 a1 3d 93 16 f2 bc c3 b6 90 39 fc fd 87 bd
       0.078625485 -0.02955178 0.00027601988 -0.066402406
000190 64 20 da bd a3 a3 a0 bd 10 6d 68 3d 25 21 46 3d
       -0.10650709 -0.07843711 0.056744635 0.048371453
0001a0 30 7d ee 3d be 9c cd bd 7f e1 61 3c ac b4 ba 3d
       0.11644971 -0.10039662 0.013786673 0.09116492
0001b0 c0 a9 96 3b 4c 3b 8d bd 1f bf 06 be d0 51 63 3d
       0.0045978725 -0.068960756 -0.13158844 0.055497944
0001c0 7e 1e 78 bc e0 d1 58 bc 55 d9 d4 bd 87 0d 14 3d
       -0.015143989 -0.013233632 -0.10393015 0.036145713
0001d0 b0 2e 59 3d 0e 76 72 3d c1 b8 b8 bd e4 26 3d 3d
       0.05302304 0.059194617 -0.09019614 0.046179667
0001e0 5a b6 d0 bd bf 6d 25 bd 8e af 60 3c a2 db 88 bc
       -0.10191031 -0.040387865 0.0137137305 -0.016706292
0001f0 52 22 6f bc 22 0a d4 bd 80 34 80 bc 6a 69 d9 bb
       -0.014595585 -0.10353495 -0.015650034 -0.006634881
000200 fc 11 2e 3d 7e 16 9a bd 30 df 02 be fd 51 29 3f
       0.04249762 -0.07523821 -0.12780452 0.6614073
000210 5c 38 e4 3d 9c 27 46 3d cc 97 84 3d 28 c8 c9 bd
       0.11143562 0.04837762 0.064742655 -0.0985263
000220 b9 76 c0 3d 48 f2 a9 3c 9d a6 15 b9 ef 7a 95 bd
       0.093976445 0.020745412 -0.00014271816 -0.07298838
000230 c0 fa 43 3e 33 85 11 bd cd 06 84 bd de bb 00 3d
       0.19138622 -0.03552742 -0.0644661 0.031429164
000240 98 47 67 3d 80 85 ea 3d f8 d3 ff 3d 88 0d cf bd
       0.05646476 0.11451244 0.12491602 -0.10110003
000250 98 5f 6a bd d6 00 e3 3d 83 d6 3f bd 8f 8e 17 3d
       -0.05722007 0.11084144 -0.046835434 0.03700119
000260 e3 57 1c 3c ed 19 ef 3d 6f aa b9 bd 64 1a e8 3d
       0.009542438 0.11674867 -0.09065711 0.113331586
000270 a6 cc 09 3d 00 3a 06 3c 68 c7 ee 3d 0c 52 9c bd
       0.033642434 0.008192539 0.116591275 -0.07632837
000280 5a ec 79 3c 41 8d 06 bd e2 a8 00 3e 30 71 f7 3c
       0.0152541045 -0.032849554 0.12564424 0.03020534
000290 54 58 5b bd fc 6b 13 3d d8 62 42 bd be 34 03 bd
       -0.053551033 0.035991654 -0.047457546 -0.03203272
0002a0 2a 87 c7 3d 04 5f 3a 3d 14 67 9f 3d 90 2c 9c bd
       0.097425774 0.04550077 0.077833325 -0.07625687
0002b0 b0 7b 73 3c 92 b1 7a 3c 70 45 30 3c 2a c4 5f 3c
       0.014861032 0.015301125 0.010758743 0.013657609
0002c0 b4 e9 61 3d 83 35 18 bf ec b3 6d 3c 5b 0c 9f be
       0.055154517 -0.5945665 0.014508229 -0.31064114
0002d0 78 cc 3e 3d 74 bc 3b 3c e1 6b 62 bd f2 ec 69 3d
       0.046581715 0.011458505 -0.055278663 0.057110734
0002e0 70 1f 9b bd 08 92 1b bd cf 28 01 be 90 26 d8 3c
       -0.075743556 -0.037981063 -0.12613223 0.026385576
0002f0 1c 59 c7 3b 80 55 d8 3a 70 b9 e3 3c 4f 88 10 3d
       0.0060836207 0.0016504973 0.027798384 0.035286244
000300 0f c9 af 3b e9 4f 97 39 bd 4a c9 3d 21 f2 41 be
       0.005364544 0.00028860502 0.09828708 -0.18940021
000310 29 ca 82 bd 45 15 5a bd b0 36 29 3c 4f 9c d0 bd
       -0.06386215 -0.05324294 0.01032798 -0.101860635
000320 87 0d c8 3c 40 da f9 3d 16 6b 8e 3d 03 84 27 3d
       0.024420513 0.12199831 0.06954019 0.04089738
000330 4b de f0 bb a0 11 e4 3d d8 15 b0 3d e7 8b 99 3c
       -0.007350718 0.11136174 0.08597916 0.018743468
000340 40 0f 18 bc 4b 50 2a bd d0 79 e2 3c 85 76 aa 3d
       -0.00928098 -0.04158048 0.027645975 0.08323387
000350 6b cd 18 3d 64 76 5f bd 60 af 90 3c c8 ce 3b bb
       0.037305277 -0.054556265 0.01766175 -0.0028657187
000360 b4 34 d0 bd 7b 13 ff 3d a1 0a b7 bd e4 6c 97 bd
       -0.10166302 0.124548875 -0.08937574 -0.07393816
000370 36 f1 e2 3d 28 a1 e4 bc 88 d7 dc bd 67 e2 0c bd
       0.110811636 -0.027908877 -0.10783297 -0.0343956
000380 9f c5 e5 3c 1b 00 74 bd b2 b5 39 bd 08 26 ed bc
       0.028048335 -0.059570413 -0.045339294 -0.028948799
000390 1e bb fd 3d 3e d3 30 3d 20 4e fc bc 67 ad 91 bd
       0.123892054 0.043170206 -0.030798972 -0.07113152
0003a0 64 8a 0a be d3 03 e7 3c 90 22 c7 bd 42 a3 91 bd
       -0.13529354 0.028200066 -0.09723389 -0.07111217
0003b0 e6 a5 c5 3d 5f 48 06 be ee 3e cb 3d 34 e9 a2 bd
       0.09650783 -0.13113545 0.09924112 -0.07954636
0003c0 e4 49 f6 3c 53 bc d2 3e 4a c6 d3 3d 36 7a b5 3d
       0.03006453 0.41159305 0.10340555 0.088612005
0003d0 10 f6 49 bc cc 7f ce 3d eb 52 b9 3d b6 e9 80 bc
       -0.012326732 0.10082969 0.090490185 -0.015736442
0003e0 82 7b 91 3d 0c 65 25 3d f4 8c 03 be bf 0c 3e bb
       0.07103635 0.04037957 -0.12846738 -0.0028999296
0003f0 f6 93 7b 3c 80 16 cb 3c c8 51 bd bc 2a 47 1d bd
       0.015355101 0.024791002 -0.023110285 -0.038397945

fc2.bias f4 [128]
000000 a6 9f eb bc c6 ad 49 3d 31 c9 75 bb b9 81 b5 bc
       -0.02876265 0.04923799 -0.0037503953 -0.022156583
000010 1f 4b f8 bd 42 13 9e 3d aa 76 28 bd 20 32 24 bd
       -0.12123703 0.07718517 -0.041128792 -0.040086865
000020 b8 dd 9c bd d6 d0 47 3d 9b da 58 3d e5 fd 9a bd
       -0.07659477 0.048783146 0.052942853 -0.07567958
000030 5d f0 1c 3d 6f 41 96 be e4 95 6c bd a3 ef b9 3d
       0.038315166 -0.29346797 -0.057760134 0.0907891
000040 70 bf 3b 3d fc f1 1c bd d7 e7 a4 be c0 52 18 3c
       0.045836866 -0.03831671 -0.3220813 0.009297073
000050 42 ec 1a 3d 1a 43 cd 3d b5 9f b1 3d e7 0c 86 3d
       0.03782297 0.10022564 0.0867304 0.0654543
000060 92 12 4c bb 30 a7 4e bc f4 38 08 3e d0 06 98 3d
       -0.0031138998 -0.012613103 0.13302976 0.074231744
000070 87 c0 70 3a 8b 12 d4 bd 4c 7e 2b 3e 54 e3 e1 bd
       0.0009183962 -0.10355099 0.16747397 -0.110296875
000080 c7 53 46 bd ba be 4d 3e 8a 7a 99 bd 50 07 dd 3c
       -0.04841974 0.20092288 -0.074940756 0.026981026
000090 49 f9 a0 be 91 3f 95 3c 18 af 8a 3d 9d 02 57 bd
       -0.3144019 0.018218787 0.06771678 -0.052492727
0000a0 24 e3 02 be fc 6f 1c bd 0b c5 0d bc 68 4c a0 bc
       -0.1278196 -0.038192734 -0.008652936 -0.019567683
0000b0 22 eb b8 ba d0 d7 f1 3c e8 77 2b 3d c2 ce f0 3d
       -0.0014108161 0.029521853 0.0418624 0.11758186
0000c0 e3 62 8d 3d 9b e1 d8 3d 3e 07 d0 3d 70 d6 0e be
       0.06903627 0.10589906 0.10157631 -0.13948989
0000d0 1c 0b 4c bd 40 40 38 3d ef eb c8 bd 5b a1 cf 3d
       -0.049815282 0.04498315 -0.09810626 0.10138198
0000e0 89 7c 36 be da 0c a0 bd ae 67 ee bd 3a d4 97 3a
       -0.17820944 -0.07814951 -0.11640869 0.0011583634
0000f0 11 5b e1 bd bb ff 1d 3d da df f2 3d 78 11 c1 3d
       -0.11003698 0.03857396 0.118591025 0.0942716
000100 68 6d e2 bc 9e 7c ad ba 98 60 ec bc be 1c 35 3c
       -0.02764006 -0.0013235991 -0.028854653 0.011054216
000110 bb 40 1a be 23 64 bc 3d c0 11 67 bb bf ab 81 bd
       -0.15063755 0.09198787 -0.0035258383 -0.06331586
000120 d4 06 3f 3c c0 ee 2b 3c a7 14 82 3d 86 8c 5d 3d
       0.011659343 0.010493934 0.06351595 0.05408909
000130 08 43 ec 3d 46 87 e8 bb 78 f7 e0 3d 18 e9 4b 3d
       0.11536223 -0.007096204 0.10984701 0.049782842
000140 cd cf 84 3d 17 fc 4d bd 9c d7 9b 3d 24 6d 85 bd
       0.06484947 -0.05028924 0.076094836 -0.065149575
000150 6b e0 f9 bd 5b fb c9 bd 66 1b ce bd 4f 23 cb bd
       -0.122010075 -0.098623954 -0.100638196 -0.09918844
000160 7e 71 fa 3c 23 f4 9f 3d 60 63 34 bc 38 ea dd bd
       0.030571695 0.07810237 -0.011010021 -0.10835689
000170 16 ce 9f be 99 ec ba 3c b9 6f 22 bc e2 8d ca 3b
       -0.3121192 0.022817897 -0.009914332 0.0061814645
000180 92 f9 18 3d 5d 12 d9 3d 09 b1 d8 3c a0 8c 01 3c
       0.037347384 0.10599206 0.026451604 0.007907063
000190 49 5e da bd 06 c9 06 bc c1 3b 30 3c fc 32 50 bd
       -0.10662515 -0.008226639 0.010756434 -0.050829872
0001a0 fe c7 37 3d 81 1c 49 bd 0d 77 53 bd 00 33 74 ba
       0.04486846 -0.04909945 -0.051627208 -0.0009315461
0001b0 e0 a3 1f 3d d4 7c ca 3d c0 39 c6 bc 1a 25 ec 3c
       0.038974643 0.0988709 -0.02419746 0.028826285
0001c0 35 63 42 be 73 b8 c7 3c 10 8b 8e 3c 87 dd 49 3d
       -0.18983157 0.024379944 0.017400295 0.04928353
0001d0 b9 93 1a 3e 1f 6b 71 bd a9 56 23 3d dc 27 a6 bc
       0.15095414 -0.05894005 0.039877567 -0.020282678
0001e0 da a7 b7 3d 8c f9 7d bd f9 72 a8 3c af 8b 07 bd
       0.08967562 -0.062005565 0.020562636 -0.033092197
0001f0 d3 ca aa bb 3e 88 03 be 88 db ab bd 02 4f 12 3d
       -0.005212167 -0.12844941 -0.08391482 0.03571988

fc3.weight f4 [64, 128]
000000 21 95 5d 3d 90 7f f1 bb 36 4f 77 bd a4 d1 15 3d
       0.0540973 -0.007369943 -0.060378276 0.036576882
000010 8b 19 8a 3d b2 7c 74 bd 68 d7 3d 3d e8 d4 50 3c
       0.06743153 -0.05968923 0.046348006 0.012746073
000020 04 98 81 3c 92 1f 2f 3d 64 5c 9d 3d c9 c7 09 bd
       0.015819557 0.042754717 0.07683638 -0.033637796
000030 60 47 95 bd 37 f2 b1 bd 6f e0 96 3d 9a 98 87 3d
       -0.07289004 -0.08688777 0.07367026 0.06620903
000040 3e eb 09 3d 51 36 85 bd 6b eb ff 3d 08 9e 59 bc
       0.03367161 -0.06504501 0.12496074 -0.0132823065
000050 ab 83 e5 ba 77 bf a7 3d 64 62 ad 3c 27 f5 8e 3d
       -0.0017510554 0.08190816 0.02116508 0.06980353
000060 05 41 e9 bb fc d5 60 bd c5 1b 5d bd aa 2d 4f 3d
       -0.0071183466 -0.05489157 -0.05398156 0.050580658
000070 a8 18 ec bc 64 0a 99 bf 1f 12 77 bd 2e d9 cb bd
       -0.02882035 -1.1956296 -0.060320016 -0.09953533
000080 d7 3b 52 bd 4d 0c dc b9 e0 61 89 3b 3c 20 93 bc
       -0.0513266 -0.00041970835 0.004192576 -0.017959706
000090 c3 ad f3 3d 8c 09 de ba 52 1f 1b 3d 50 c5 5d 3d
       0.11898377 -0.0016940101 0.037871666 0.05414325
0000a0 ee 65 b2 bd 95 1b 4f bd 48 31 a5 bd 91 f3 5a 3d
       -0.08710848 -0.050563414 -0.0806604 0.05345494
0000b0 ed e9 b2 3d 50 8d 58 bd 25 5a 80 bd 33 be 9a bd
       0.08736024 -0.05286914 -0.06267194 -0.07555809
0000c0 08 23 05 3d b0 9e 1e bd 56 36 2a 3d 5d 35 b5 bd
       0.03250411 -0.038725555 0.041555725 -0.08848069
0000d0 67 4b 1a bd d9 08 aa bd a0 dc 1b bd 71 03 8a bc
       -0.037669566 -0.08302469 -0.0380522 -0.016847344
0000e0 6b 53 01 bd 42 43 69 3d fc 97 92 bc a8 b4 d8 3c
       -0.031573694 0.056948908 -0.017894737 0.026453331
0000f0 b2 b4 ab bd 00 c0 5c 3d 91 e8 43 bd bd 5c a2 3d
       -0.08384074 0.053894043 -0.047829214 0.07927845
000100 10 98 b6 bb 1e a6 7d 3d 3d 48 95 3d 89 68 d1 bc
       -0.0055723265 0.061926 0.07289169 -0.025562542
000110 2b c8 87 bd c6 8d 74 3d e9 bd b3 3d d2 a1 22 3d
       -0.06629976 0.05970552 0.08776457 0.039705105
000120 36 e1 88 bd f7 cd 52 3d d9 21 fd bc b0 40 41 bd
       -0.066835806 0.051465955 -0.030899929 -0.04718083
000130 29 b3 80 3d 48 65 95 3b 41 64 35 3d 2c 19 9d bd
       0.06284172 0.004559193 0.044285063 -0.07670817
000140 80 5f a8 3c 6c 95 49 3d a1 9e 94 3d 48 37 e8 3c
       0.02055335 0.049214765 0.072568186 0.028346673
000150 3d 9f 87 bd 07 40 50 bd 88 dc de bc b9 12 24 3d
       -0.06622169 -0.05084231 -0.027204767 0.040056918
000160 f6 a7 19 bd 49 9d 82 3d da ae ec bc 3f 86 2d bd
       -0.037513696 0.06377656 -0.02889197 -0.042364355
000170 5e 8b 22 3f f2 b2 0c 3d 03 fa 48 bd e5 eb 6d bc
       0.6349391 0.034350343 -0.049066555 -0.014521574
000180 b9 f8 c0 bc 23 cf 14 3d 7f f6 f2 bb 57 48 91 bd
       -0.0235561 0.036330353 -0.0074146385 -0.07093876
000190 dd e3 14 be 8c ab 45 bd 4f e5 77 bd d0 ba 75 bd
       -0.14540048 -0.048259303 -0.06052142 -0.05999261
0001a0 f1 80 a5 bd 8d bc 80 3d 28 91 02 3c 43 79 a9 3d
       -0.08081234 0.06285963 0.007969178 0.08275082
0001b0 8c 31 b3 bc 8a 8e 6d bc bc 08 fc 3c 22 5c 71 3d
       -0.021874212 -0.014499316 0.030765884 0.058925755
0001c0 3b 26 80 bd c4 e7 91 3c c9 40 a1 3d b8 12 4b bc
       -0.06257292 0.01781071 0.07873685 -0.0123946
0001d0 c8 02 81 bd 9e fb 26 3d 72 7e 0f 3d d4 b2 84 3d
       -0.062993586 0.040767305 0.035032697 0.06479421
0001e0 b0 26 a8 3b 70 d0 b5 3b 57 07 2b 3d af ee ad bd
       0.005131565 0.0055485293 0.041755047 -0.08492791
0001f0 97 b3 9e bd a1 5b 80 3d e4 07 87 bd e7 32 65 bd
       -0.07749098 0.06267477 -0.06593302 -0.055956747
000200 02 e4 3b 3d f9 2b 77 3d ba 4b a7 3d 71 b0 27 3b
       0.045871742 0.06034467 0.081687406 0.0025587345
000210 0e b3 72 bd 94 84 e7 3c 70 5d 6e bd 43 6a ab 3d
       -0.05925279 0.02826146 -0.058194578 0.08369877
000220 4e ea 00 bd 70 84 8c 3c 39 59 f3 bb 26 eb b9 bd
       -0.03147345 0.017152995 -0.0074264077 -0.09078054
000230 26 2d 87 bd 8d 43 12 3d 1b c3 42 bd 60 25 8c 3d
       -0.06600408 0.035708953 -0.04754935 0.06843066
000240 60 d1 b0 3c fd 8a 32 bd c6 9d 22 3d 98 c3 f1 3c
       0.021584213 -0.04358958 0.039701246 0.029512212
000250 97 7a 36 3b 9e 60 b0 bd d5 d3 5a bc b0 58 d8 3b
       0.0027844065 -0.08612178 -0.013356169 0.0066023692
000260 83 8e b4 bd 14 99 d5 bc 0b 17 bc 3c 2f b9 3d 3c
       -0.088162445 -0.02607397 0.022960206 0.011579796
000270 cd c5 b9 bc 14 c5 ba bd 83 d5 ca bc b7 31 63 bd
       -0.022677327 -0.09119621 -0.024760013 -0.055467334
000280 b6 99 52 3d 5d b2 3b bd 75 6d e9 3c fa ad 50 3d
       0.05141612 -0.045824397 0.028494576 0.050947167
000290 b2 ac 82 3d 76 30 11 3c 30 8d b7 bc ac b6 ff bb
       0.06380595 0.008861652 -0.02240619 -0.0078037586
0002a0 e1 e4 4c bd a8 2f 24 bc 1f e9 3f 3c 4a 11 a5 3d
       -0.050022963 -0.010021128 0.011713295 0.08059938
0002b0 7e 6b 3a 3d 06 2b 2b 3d c9 39 83 3d 9a 9a 17 3d
       0.04551267 0.041789077 0.06407506 0.037012674
0002c0 b0 f4 3d 3d 01 69 25 bd 4a 7b 7e 3d b7 7a 63 3d
       0.04637593 -0.040383343 0.062129296 0.055536952
0002d0 cf 0a 3d bd 5c c9 7a bd 1b 5a 91 3d b8 0f 6a 3d
       -0.046152886 -0.061227188 0.070972644 0.057143897
0002e0 d1 8c 52 bc 10 b0 af bd 80 08 f4 ba f7 e8 3f bc
       -0.012850956 -0.08578503 -0.0018618256 -0.011713258
0002f0 23 17 18 ba c1 e7 67 3d 33 fc 30 bd b3 46 99 3d
       -0.00058017875 0.056617502 -0.043209266 0.07484188
000300 4b 9e a4 bd f4 b2 9c bd 80 7d 79 ba 8f 23 67 bd
       -0.080380045 -0.0765132 -0.0009517297 -0.056430396
000310 0d b8 83 bd 17 d9 91 3d da b2 f5 bc 84 37 86 3c
       -0.06431589 0.07121485 -0.02999251 0.016383894
000320 f3 8e 18 bd 8d ba 3b 3c 3d 74 47 bd 0c 8f aa bd
       -0.037245702 0.011458051 -0.048694838 -0.08328065
000330 6a be f8 bc 9c df e6 3c f8 19 91 3d 74 35 15 bd
       -0.030364234 0.028182797 0.07085031 -0.03642793
000340 44 a1 49 3b fb fb 72 3c 18 57 51 3c 6d 31 b4 3d
       0.0030766288 0.014830585 0.012777112 0.0879849
000350 98 99 23 3b f6 d9 0b bd aa 70 13 bd 2a f6 23 bb
       0.0024963375 -0.03414341 -0.035996117 -0.0025018551
000360 b8 37 08 bd 8f 17 5b 3d 95 2b a6 3d 90 c0 de 3c
       -0.033256263 0.053489264 0.08113781 0.02719143
000370 7d 7b 13 bd 98 ea a9 bc 3e e2 98 bd 28 45 c5 bb
       -0.03600644 -0.020741746 -0.07465027 -0.006020207
000380 bc 21 95 3d 8d 2a 53 bc 1e 36 ab 3c 04 0a ee bc
       0.07281825 -0.012888563 0.020899829 -0.02905751
000390 fe 21 c5 3c 6d 9e d2 bc a0 c2 b3 3c a8 10 b1 3c
       0.02406406 -0.025710309 0.02194339 0.021614388
0003a0 a0 64 a5 3c 2e 80 60 bd 2b 4a 58 bc 60 0d 36 3b
       0.020189583 -0.05480974 -0.013201277 0.0027778968
0003b0 19 dc 9d bd 7d ef aa bc 8c 57 a5 bc 5d ca 38 3c
       -0.07707996 -0.02086615 -0.020183347 0.011278716
0003c0 83 24 3d bd 33 18 1a 3d 71 68 b1 bd eb d4 1d bc
       -0.0461774 0.037620734 -0.08662499 -0.009633283
0003d0 a7 82 86 bd dc 88 c2 3c 10 e5 8d bc ea ac 15 3d
       -0.06567889 0.0237469 -0.01732114 0.036541857
0003e0 fa 37 63 3d 6f fc d2 bc 33 95 c1 bd 01 7d ec 3c
       0.055473305 -0.025755135 -0.094522856 0.0288682
0003f0 47 3b 5a bc e3 9c 01 bd 9c dd 14 3d 8f 7c 78 3d
       -0.013319797 -0.03164376 0.036344156 0.060665663

fc3.bias f4 [64]
000000 56 3d 11 3c 1c 48 16 bc 87 ce 6f bd d4 52 04 3b
       0.008864721 -0.009172466 -0.05854657 0.002019097
000010 34 ef f6 bc 7c 16 82 bd d6 b4 0b 3d 1a 01 09 3d
       -0.030143358 -0.06351945 0.034108005 0.033448316
000020 ed c0 8b 3c d7 cf c6 bd 27 23 42 bd 3c db 95 3d
       0.017059768 -0.09707611 -0.047396805 0.07317206
000030 8f aa f6 bc c5 a7 bf bc f5 67 ae bd 66 aa 88 bd
       -0.030110626 -0.023395428 -0.08515922 -0.06673126
000040 ad ef f9 3c fa f4 aa 3c 06 f8 eb 3d c0 2f 1e 3c
       0.030509794 0.020868767 0.11521916 0.009654939
000050 4b 88 43 3d 16 5e 3c 3d 01 8e 1a bc 78 72 79 3c
       0.0477374 0.045988165 -0.00943327 0.015225045
000060 b1 cf b0 3c 86 06 ab bc e4 a0 cc 3d 70 3d 3b 3c
       0.02158341 -0.020877134 0.09991625 0.011428222
000070 6a 02 16 be 2c c1 82 bc 4e db 89 bd a1 b1 87 3d
       -0.14649358 -0.015961252 -0.06731282 0.06625677
000080 e7 ce 17 bd c0 b2 71 3d 1d d7 bc bd 56 5e 20 bd
       -0.03706255 0.05900836 -0.09220717 -0.039152466
000090 e0 d5 6a 3c 27 6e 83 bc 91 7c d9 3d c8 47 cd bd
       0.014333218 -0.016043736 0.10619462 -0.10023457
0000a0 c8 8b 3c bd 9a be 59 bc d4 f6 93 bd 0c 11 8b bd
       -0.046031743 -0.013290072 -0.07224813 -0.06790361
0000b0 52 31 ea bd ca 6c 7d 3d 54 e2 25 bd c9 03 34 bd
       -0.11435188 0.061871327 -0.040499046 -0.043948922
0000c0 cd d3 19 3b 4c db 33 bc 8b 92 e0 bd c0 4d a1 bc
       0.002347219 -0.010977577 -0.10965451 -0.019690394
0000d0 3b a6 ee 3d f4 d9 b2 bd db cd fd bd 63 c2 06 be
       0.116528 -0.087329775 -0.123927794 -0.1316009
0000e0 18 20 02 3e 4c 26 ce bc d6 a8 88 bd eb 2a 61 be
       0.12707555 -0.025164746 -0.06672828 -0.21989028
0000f0 13 f4 f2 bd f8 26 b9 3d a6 85 07 3e c6 40 04 3d
       -0.1186296 0.09040636 0.13234577 0.032288335

fc4.weight f4 [2, 64]
000000 05 ef 90 bd df 61 25 bc 3a 4a 2b bd fa b5 4e be
       -0.07076839 -0.010094135 -0.041818835 -0.20186606
000010 fc fc b9 bd f0 76 8b bc af 5d f0 3d 7e f2 c9 bd
       -0.09081456 -0.017024487 0.11736619 -0.09860705
000020 5a 8d 75 bd 90 3f cc ba 76 18 35 3d 59 c1 b4 bd
       -0.059949256 -0.0015582908 0.04421278 -0.08825941
000030 04 f3 b3 bd f9 44 a4 3b 58 80 9b bc 12 17 1d bd
       -0.08786586 0.005013105 -0.018982098 -0.03835208
000040 3a c9 1a bd 20 96 1c 3f c7 00 bb 3d 4a b6 fd 3d
       -0.03778956 0.6116657 0.09131008 0.123882845
000050 c2 3d 49 3e 85 9b bf 3d ee c0 43 3e c0 7c e0 bc
       0.19652465 0.09355835 0.19116566 -0.027403235
000060 d8 3c 72 3d 57 f9 18 be 17 ee 06 3e 04 d2 a0 3d
       0.059140056 -0.14938866 0.13176762 0.07852557
000070 4c b1 0e be f3 d4 a9 be 07 7f 81 bd 1c b6 03 3d
       -0.13934821 -0.3317028 -0.06323057 0.032156095
000080 24 72 8d 3d e3 0f 59 3d 57 e1 a2 bd c9 85 b4 3d
       0.06906536 0.052993666 -0.079531364 0.0881458
000090 aa 2c 64 3e 3a 9b 75 bd e2 1c 24 bc a8 31 6a bd
       0.22282663 -0.05996249 -0.010016652 -0.057176262
0000a0 90 56 43 bd 6c 55 97 bd 34 96 b5 bd 73 44 c5 3d
       -0.047689974 -0.0738934 -0.088665396 0.09632196
0000b0 9b b8 dd bd 90 40 37 bd 23 2e d5 bc 73 81 f8 bd
       -0.10826226 -0.044739306 -0.026022976 -0.121340655
0000c0 6c da 05 3d e4 18 ee bd d9 4b 2e bd 9c 1f 8e 3d
       0.032679006 -0.11625841 -0.042552803 0.06939623
0000d0 25 cb b5 3d 69 63 49 bd 69 c4 3e bd 76 e5 17 bd
       0.08876637 -0.04916707 -0.04657403 -0.037084065
0000e0 bc 33 81 be 9e 9b db bd 4e e8 94 3d 14 45 b1 3e
       -0.25234783 -0.10723041 0.07270871 0.34623015
0000f0 62 aa ee ba 70 8a ea bc 30 3d 80 3d b8 f6 6c 3d
       -0.0018208737 -0.028630465 0.062616706 0.057852477
000100 ff 2e 8e 3d 40 68 e9 bc 65 b1 fa bd a4 1a 3f bc
       0.069425575 -0.028492093 -0.122408666 -0.011664066
000110 37 09 b8 3d 70 69 1a bc b6 5e 4a bd f7 13 e7 3d
       0.089861326 -0.009424552 -0.04940673 0.11283105
000120 f9 4c 61 bd 44 23 be 3d 41 2e 44 3c 77 45 88 3d
       -0.055005047 0.0928407 0.011973918 0.06653874
000130 a2 70 89 bd 67 13 f7 bd 0c 71 c9 3d 2a 5b 61 3d
       -0.06710936 -0.120642476 0.09836015 0.05501858
000140 a0 fe 46 3d 06 d2 a3 3c 55 07 22 bd 08 4e aa 3d
       0.048582673 0.019997608 -0.039557774 0.083156645
000150 d6 c5 71 3b fd ef 90 3d d9 62 f4 3d 2e 83 d8 bd
       0.00368916 0.07077024 0.11932916 -0.105718955
000160 28 8b 0b 3d 0a 76 ff 3d 70 22 45 3d e2 4e d8 bd
       0.034068257 0.12473686 0.048128545 -0.10561921
000170 7f 89 f8 3d ba 2b b5 bc 5d f4 ae 3d 2e de 8c 3d
       0.121356 -0.022115577 0.08542702 0.06878315
000180 31 16 af 3d fa 3d dc bc 8c 47 59 3c 82 5a a6 3d
       0.085491545 -0.026885021 0.013261687 0.08122732
000190 d0 b4 0a 3d c7 9d ed bd ce 8d 9a bd 7a 96 a2 bb
       0.033863842 -0.11602359 -0.07546578 -0.004961786
0001a0 48 90 61 bd be f0 e1 bd 80 95 65 3d e9 63 e2 3d
       -0.055069238 -0.11032246 0.056050777 0.110542126
0001b0 dd 0d 1c 3d ac be 08 bd e3 99 a9 bd 07 58 0b bc
       0.03809916 -0.033384964 -0.08281305 -0.008504874
0001c0 fe b6 c7 3d 8b 17 94 3d 30 c6 db 3d 95 94 d2 3d
       0.097517 0.07231053 0.10731161 0.10282246
0001d0 94 e2 f1 bd f1 c2 b7 3d f5 ed b7 3c 59 93 83 3c
       -0.118107945 0.08972729 0.022452334 0.016061472
0001e0 b7 40 34 3d b6 44 b8 3d 3a 26 9c bd d4 f2 98 bd
       0.04400703 0.089974806 -0.07624479 -0.07468191
0001f0 33 e4 44 3d a6 dd 8c bd 7e a3 d8 bd df 1b cd bd
       0.04806919 -0.068782136 -0.10578059 -0.100150816

fc4.bias f4 [2]
000000 ee 9e 47 3e dd 7b fa bd
       0.1949422 -0.12230656
