model1_last.pth (torch, 72183 bytes, 8 tensors)

fc1.weight f4 [64, 9]
1.0816058 0.06822442 -0.0065560024 -0.030821485 0.18638188 -0.060634043 -1.4406929 -0.009009311
-0.8950277 1.465499 0.85158175 0.7013279 -0.37629366 0.23400627 -0.2843484 -0.4280447
-0.13933916 -0.09244419 0.08765194 0.29514202 -0.09874305 -0.17748396 -0.057909817 -0.09137571
0.080486864 -0.16309798 -0.22879037 0.15891314 -0.12290713 -0.026068807 -0.2961974 -0.26982194
0.012436867 -0.17276852 0.12003407 -0.10426211 -1.3036609 0.38027465 0.6963532 0.57676476
-0.23315506 0.21692842 -0.03151686 -1.1291584 0.38380253 -0.0208241 -0.37887624 0.25249198
0.14717136 -0.13221124 0.12209669 -0.527326 -0.63175 0.23960611 -1.5307261 -0.566075
-0.45931152 0.3411758 0.11508972 0.3315268 0.43327558 -0.001663835 0.27821323 0.2436128
0.17803755 -0.2916536 -0.18842809 -0.13902447 -0.20591637 0.01158762 -0.3063651 -0.0655171
-0.15367901 0.28169826 0.24084213 0.1888943 -0.14913349 -0.057091385 0.15501735 -0.20508313
-0.26589903 0.4994738 -0.5758867 -0.45164075 0.27948654 -0.10570059 0.09926774 0.63783306
1.1230981 -0.8104954 0.7557868 0.1486383 0.522142 -0.14971124 0.26736912 0.039565552
-0.9879995 -0.31957588 -0.67596936 0.687042 -0.1169858 -0.3554343 -0.21296477 0.28733498
-0.09009864 -0.56293714 -0.90998864 -0.40697828 -0.28664604 -0.014106909 -0.16531557 0.13289602
0.25021195 0.26435897 0.7511248 0.5651109 1.5913105 -0.29786623 -0.2420669 0.03697276
-0.20168865 -0.089250416 -0.30705082 0.11985052 -0.10395932 -0.051396877 -0.64071274 0.16818638
-0.26574478 -0.094423935 -0.18722846 0.20250472 -0.71349627 -0.2846295 0.617198 -0.6502039
-0.21794802 -1.3275932 0.006440983 0.20021501 0.3113418 2.1575823 0.34381086 -0.9470581
-0.98144704 -1.0424688 -0.40743864 0.30083835 0.18000008 0.14527945 0.85065436 -0.23829928
-0.52608347 0.22954366 -0.19284627 0.19142184 -0.19824263 -0.29578298 -0.12200639 -0.13123572
-0.0076159537 0.3270028 -0.8126712 -0.080882825 -0.61242014 0.32531288 0.14724685 -0.113541506
-0.9790201 0.7359975 0.989902 0.6999151 0.22772413 -0.25364473 -0.1582928 0.22523075
0.067975014 0.41300076 -0.5189785 -0.6893926 1.5751451 0.6610318 0.23899461 0.18889998
-0.022989366 0.1400892 -1.4799663 0.33056632 1.2117126 0.03056042 0.0983909 0.12481026
0.3607002 0.12875298 -0.06487062 -0.88155377 0.6584807 2.3414898 1.1662065 -0.51534134
-0.07724875 -0.2692708 0.031026306 0.28533655 1.0168455 -1.1732217 -1.6888559 -0.1855216
0.38604704 0.052911833 -0.19154598 0.29252493 0.14159627 -0.9910656 0.6622509 2.0014894
-0.085813865 1.2209305 -0.81787217 0.11785676 -0.1813132 0.09055695 0.34301203 0.1916918
-0.18234955 -0.13846731 0.32911876 -0.16470449 0.26917925 -0.025541455 -0.10337806 -0.16938683
0.30204806 0.16402689 1.0302596 0.4513287 0.28403044 0.05369626 -0.16787764 0.24827224
0.72015405 0.7545674 0.51648325 1.033479 0.64887375 0.8736947 -0.34628382 0.2284756
-0.20385541 1.1612352 -0.34935474 -1.3861626 -0.26268813 0.74626994 -0.23846543 -0.005615372
00000000: 0f72 8a3f 3fb9 8b3d bcd3 d6bb 577d fcbc
00000010: e4da 3e3e 675b 78bd a068 b8bf ca9b 13bc
00000020: 8920 65bf 7995 bb3f 4301 5a3f 3a8a 333f
00000030: 90a9 c0be 579f 6f3e 1d96 91be ad28 dbbe
00000040: edae 0ebe 6153 bdbd dc82 b33d db1c 973e
00000050: cc39 cabd 5bbe 35be d832 6dbd 3023 bbbd
00000060: 4cd6 a43d 2803 27be 0648 6abe 20ba 223e
00000070: bcb6 fbbd 408e d5bc 30a7 97be 1a26 8abe
00000080: 00c4 4b3c 3bea 30be 6cd4 f53d 6087 d5bd
00000090: 5cde a6bf 5cb3 c23e 3444 323f dba6 133f
000000a0: 33c0 6ebe 7c22 5e3e d317 01bd 4388 90bf
000000b0: c481 c43e 4e97 aabc 11fc c1be a146 813e
000000c0: 17b4 163e 6262 07be d40d fa3d d6fe 06bf
000000d0: 5eba 21bf 4e5b 753e d5ee c3bf 4bea 10bf
000000e0: e12a ebbe 98ae ae3e 29b4 eb3d e1bd a93e
000000f0: 4cd6 dd3e 0a15 daba f771 8e3e a275 793e
00000100: 7a4f 363e 9f53 95be 4bf3 40be 6e5c 0ebe
00000110: bedb 52be 00da 3d3c e3db 9cbe d42d 86bd
00000120: 085e 1dbe c13a 903e 529f 763e 826d 413e
00000130: 73b6 18be a8d8 69bd debc 1e3e 5001 52be
00000140: eb23 88be 08bb ff3e 506d 13bf 753d e7be
00000150: dc18 8f3e 8d79 d8bd e34c cb3d 0749 233f
00000160: aec1 8f3f a07c 4fbf 3e7b 413f a334 183e
00000170: 19ab 053f e74d 19be 9be4 883e 7d0f 223d
00000180: 89ed 7cbf 739f a3be 540c 2dbf fce1 2f3f
00000190: 4096 efbd 7cfb b5be 7013 5abe 921d 933e
000001a0: a385 b8bd a61c 10bf 04f5 68bf 755f d0be
000001b0: 45c3 92be aa20 67bc 7c48 29be e515 083e
000001c0: c81b 803e 0f5a 873e b749 403f 1cab 103f
000001d0: 10b0 cb3f ec81 98be 63e0 77be c070 173d
000001e0: 7887 4ebe ecc8 b6bd c435 9dbe 3074 f53d
000001f0: a0e8 d4bd 8885 52bd c005 24bf 0d39 2c3e
00000200: b30f 88be 5661 c1bd d1b8 3fbe 665d 4f3e
00000210: b1a7 36bf f5ba 91be b000 1e3f c373 26bf
00000220: c42d 5fbe 93ee a9bf e20e d33b 2a05 4d3e
00000230: 3168 9f3e d415 0a40 fa07 b03e 6672 72bf
00000240: 1d40 7bbf 9e6f 85bf cc9b d0be 7c07 9a3e
00000250: f151 383e 23c4 143e 7cc4 593f ba04 74be
00000260: 68ad 06bf 7e0d 6b3e 7e79 45be 1604 443e
00000270: 1e00 4bbe de70 97be 7cde f9bd a862 06be
00000280: 408f f9bb e96c a73e 380b 50bf e5a5 a5bd
00000290: 91c7 1cbf 698f a63e e1c7 163e 7388 e8bd
000002a0: 10a1 7abf 556a 3c3f 386a 7d3f a32d 333f
000002b0: 8430 693e b9dd 81be 8217 22be e4a2 663e
000002c0: 7c36 8b3d d674 d33e c6db 04bf 097c 30bf
000002d0: 5b9e c93f 6139 293f 01bb 743e ff6e 413e
000002e0: 3254 bcbc 8b73 0f3e 896f bdbf fd3f a93e
000002f0: 6619 9b3f d959 fa3c 2b81 c93d 869c ff3d
00000300: b2ad b83e d2d7 033e e3da 84bd 82ad 61bf
00000310: 3192 283f f8da 1540 4146 953f 69ed 03bf
00000320: 9834 9ebd dddd 89be e12a fe3c a217 923e
00000330: fe27 823f 212c 96bf 6e2c d8bf 60f9 3dbe
00000340: f5a7 c53e 14ba 583d a124 44be d4c5 953e
00000350: 9dfe 103e 7ab6 7dbf 4689 293f 6718 0040
00000360: 2ebf afbd 7347 9c3f 1260 51bf e35e f13d
00000370: 2baa 39be ec75 b93d 469f af3e db4a 443e
00000380: d7b9 3abe 60ca 0dbe 4182 a83e 4ba8 28be
00000390: ddd1 893e 503c d1bc e0b7 d3bd be73 2dbe
000003a0: 0ba6 9a3e aaf6 273e 8cdf 833f 8e14 e73e
000003b0: 706c 913e 9cf0 5b3d 1ee8 2bbe 143b 7e3e
000003c0: 045c 383f 542b 413f 3f38 043f 0a49 843f
000003d0: 971c 263f 75aa 5f3f 1d4c b1be 82f5 693e
000003e0: 79bf 50be 5ba3 943f a0de b2be c76d b1bf
000003f0: 0f7f 86be 8c0b 3f3f 4830 74be 2801 b8bb

fc1.bias f4 [64]
0.106574886 -0.10743281 -0.29234976 -0.022860974 0.2791822 -0.10679123 0.24787438 -0.22154677
0.035222024 0.27993464 0.021073975 0.19108894 -0.046567097 -0.31179625 -0.06007028 0.15733041
0.05721677 0.05737421 -0.119363844 -0.022093277 -0.12593704 0.32444343 -0.15168856 0.374412
-0.1568043 -0.20745084 0.038758744 -0.16106024 0.26562712 0.13868064 -0.50000465 0.2314264
-0.39534202 0.05407457 -0.25824702 -0.022115773 0.22349468 0.10681257 -0.21125218 -0.09056086
-0.107114606 0.50119334 0.021075802 0.25465134 -0.45110503 0.26435128 -0.09301424 -0.13610482
-0.31499428 -0.08998096 -0.12823768 -0.3095259 -0.017995447 0.10683664 0.11335156 -0.7757352
0.039866567 -0.26223055 0.028760122 -0.058376957 0.29134396 -0.13789742 0.08856924 -0.22454192
00000000: ef43 da3d bc05 dcbd deae 95be f046 bbbc
00000010: f8f0 8e3e 5cb5 dabd c8d2 7d3e 28dd 62be
00000020: f844 103d 9853 8f3e 54a3 ac3c d2ac 433e
00000030: 24bd 3ebd c2a3 9fbe 410c 76bd 391b 213e
00000040: 225c 6a3d 3801 6b3d 0875 f4bd f6fc b4bc
00000050: a4f5 00be 731d a63e 3f54 1bbe eeb2 bf3e
00000060: 4e91 20be fe6d 54be 7dc1 1e3d faec 24be
00000070: 4700 883e 4c02 0e3e 4e00 00bf 0bfb 6c3e
00000080: 456a cabe 4c7d 5d3d f438 84be 232c b5bc
00000090: cadb 643e 8cc0 da3d 7e52 58be f977 b9bd
000000a0: e75e dbbd 354e 003f 29a7 ac3c a961 823e
000000b0: 3df7 e6be 0d59 873e 407e bebd 105f 0bbe
000000c0: ee46 a1be f047 b8bd bd50 03be 2e7a 9ebe
000000d0: 306b 93bc 2bcd da3d dd24 e83d 9596 46bf
000000e0: 204b 233d 1543 86be 599a eb3c ad1c 6fbd
000000f0: 092b 953e fb34 0dbe ca63 b53d 51ee 65be

fc2.weight f4 [128, 64]
0.011889943 -0.24587224 0.050176308 0.09634723 0.13792038 -0.056366984 0.048917115 -0.03918904
0.076143235 -0.08108129 -0.016271185 -0.035739724 0.008683232 0.08437693 -0.100147806 -0.06677046
-0.122070074 0.049531057 -0.2078736 0.04228819 0.037008047 -0.03675845 0.053388946 0.06938617
-0.106832325 -0.11121799 0.12099115 -0.23864332 0.08418262 -0.019552618 0.12081649 -0.04624243
-0.017691057 -0.027010899 0.07332685 0.1109451 0.0878329 -0.10167022 -0.089344 0.056022685
0.06027648 0.07658605 -0.08584879 -0.09859204 -0.017653253 -0.13388489 -0.05510245 -0.068459325
-0.07028844 0.10580063 0.12053359 -0.10967564 0.028921932 0.0069546322 0.10698405 0.07575474
-0.09830223 0.092999876 -0.12422873 -0.05850391 -0.014731184 0.06609787 -0.029802486 0.011212505
-0.18229249 -0.014574766 -0.1146373 0.07096176 0.3664962 0.043996777 0.036825918 -0.08471084
0.045626506 0.012643203 -0.046520572 -0.21782367 0.09194892 -0.04458767 0.07505166 -0.07181477
-0.059832517 0.03580737 -0.0068341056 -0.046082813 0.13264528 0.22782262 -0.08045993 0.052229706
0.10268042 0.06842667 -0.031250346 -1.4341434 -0.0962779 0.05908166 0.00657351 0.10429858
-0.13228813 -0.03571531 0.09206206 -0.032838654 -0.107458636 -0.011028881 0.020464052 0.12057783
-0.13054845 -0.08504075 0.08607373 0.01722245 -0.19960089 -0.016599417 0.06812695 0.16781536
-0.056716338 -0.023789257 -0.059946366 0.116072334 0.051263362 -0.11865894 0.0047647073 0.07214368
0.11258887 0.10849224 0.0757587 0.047886774 0.047829404 0.025746927 -0.004720464 0.1427292
-0.09612688 0.022913324 0.022949696 0.05035691 -0.10303522 -0.09418457 0.11734291 0.020500422
-0.09327774 -0.080333665 -0.0702191 0.054469496 -0.068688616 -0.10490017 0.055395145 -0.050676387
-0.051536437 0.022910878 -0.06558266 -0.019988872 0.04435479 -0.04370806 -0.13176918 0.028239554
-0.02226457 0.042570263 -0.006252699 0.0650632 0.07615266 -0.1270239 -0.0067973845 0.063632615
-0.0068761325 -0.03185402 -0.04425444 0.05281167 0.056642562 0.09879375 0.081691585 -0.11159141
0.11994945 -0.013786333 0.083928324 0.03856361 -0.080941 0.029997606 0.005825364 0.06453636
0.025819194 0.068830416 0.11832129 0.10109525 -0.11017583 0.05739318 -0.008814677 0.03447719
0.023350284 0.108104676 -0.007860983 -0.098803684 -0.092788115 0.08039206 0.06549063 -0.058232725
0.049794935 0.051896065 -0.0947033 0.10003349 -0.12073651 0.06331764 -0.027534539 0.022578329
-0.11777732 -0.003960982 -0.13051486 -0.113775715 0.049861766 0.11217655 0.07734347 -0.05327957
0.07842665 -0.040739954 -0.06796858 0.012400009 -0.021738771 0.007887046 -0.05046182 0.056392737
0.028386068 -0.055629015 0.09489379 -0.051277667 0.10952189 0.023755312 0.08571075 0.07678519
0.07025715 -0.016207637 -0.040257968 -0.03537351 -0.013484627 -0.079890765 -0.11166885 -0.06571081
-0.08862406 -0.068949915 0.070742294 0.06934118 0.036157183 -0.03680238 -0.0224493 0.07087166
0.11372111 -0.11316568 -0.048695587 0.114737816 -0.06737411 -0.030507613 0.02551134 -0.11510023
-0.08516659 0.10182095 -0.05049307 -0.057128683 -0.072959065 -0.04275514 -0.07752567 -0.08687799
00000000: 09ce 423c efc5 7bbe ac85 4d3d b251 c53d
00000010: 003b 0d3e 11e1 66bd 505d 483d b084 20bd
00000020: fcf0 9b3d f30d a6bd 264b 85bc d163 12bd
00000030: 1d44 0e3c d0cd ac3d 4b1a cdbd f3be 88bd
00000040: e0ff f9bd 14e1 4a3d d1dc 54be 6236 2d3d
00000050: c095 173d 0790 16bd 5eae 5a3d 561a 8e3d
00000060: e8ca dabd 42c6 e3bd 35ca f73d ea5e 74be
00000070: f067 ac3d d02c a0bc a36e f73d b468 3dbd
00000080: d6ec 90bc f645 ddbc 632c 963d 2f37 e33d
00000090: bce1 b33d 7a38 d0bd fdf9 b6bd 0b78 653d
000000a0: 78e4 763d 26d9 9c3d 7ed1 afbd a0ea c9bd
000000b0: 8e9d 90bc 1f19 09be 1bb3 61bd 6734 8cbd
000000c0: 63f3 8fbd 00ae d83d 51da f63d 9f9d e0bd
000000d0: b0ed ec3c afe3 e33b 741a db3d 4d25 9b3d
000000e0: ae52 c9bd b876 be3d a26b febd cca1 6fbd
000000f0: 105b 71bc 525e 873d 5824 f4bc a8b4 373c
00000100: e2aa 3abe 00cb 6ebc f6c6 eabd 6654 913d
00000110: 64a5 bb3e f735 343d c6d6 163d e07c adbd
00000120: dce2 3a3d 7025 4f3c 5b8c 3ebd 2b0d 5fbe
00000130: b74f bc3d 90a1 36bd afb4 993d 9f13 93bd
00000140: f112 75bd c0aa 123d a2f0 dfbb 55c1 3cbd
00000150: 2ad4 073e 554a 693e 2dc8 a4bd d1ee 553d
00000160: 1d4a d23d 4823 8c3d 5d00 00bd 0392 b7bf
00000170: 592d c5bd 9cff 713d 9966 d73b 7e9a d53d
00000180: 8a76 07be 384a 12bd 098b bc3d d381 06bd
00000190: 4613 dcbd 7bb2 34bc 3aa4 a73c 82f1 f63d
000001a0: 7eae 05be d829 aebd 6c47 b03d 1816 8d3c
000001b0: 2d64 4cbe 80fb 87bc 2486 8b3d cad7 2b3e
000001c0: 644f 68bd b0e1 c2bc 528a 75bd 55b7 ed3d
000001d0: 88f9 513d 7503 f3bd 4321 9c3b 11c0 933d
000001e0: fe94 e63d 2e31 de3d 6127 9b3d ec24 443d
000001f0: c4e8 433d 38eb d23c 1fae 9abb 9a27 123e
00000200: 2bde c4bd b9b4 bb3c 0001 bc3c 0c43 4e3d
00000210: 2104 d3bd d7e3 c0bd 7b51 f03d 80f0 a73c
00000220: 6608 bfbd fa85 a4bd 08cf 8fbd 681b 5f3d
00000230: 9eac 8cbd e6d5 d6bd 05e6 623d 0b92 4fbd
00000240: df17 53bd 98af bb3c 3450 86bd b4bf a3bc
00000250: 5ead 353d 3907 33bd 80ee 06be a356 e73c
00000260: 3064 b6bc 285e 2e3d 71e3 ccbb db3f 853d
00000270: edf5 9b3d 8e12 02be 98bc debb d151 823d
00000280: 2e51 e1bb 5c79 02bd 2544 35bd 0d51 583d
00000290: 0802 683d 6154 ca3d eb4d a73d 0a8a e4bd
000002a0: 0fa8 f53d 12e0 61bc 9de2 ab3d e0f4 1d3d
000002b0: 65c4 a5bd 8abd f53c b2e2 be3b a42b 843d
000002c0: c682 d33c f6f6 8c3d 6f52 f23d 070b cf3d
000002d0: dea3 e1bd 1c15 6b3d 6f6b 10bc f437 0d3d
000002e0: 1849 bf3c fc65 dd3d 5acb 00bc 9659 cabd
000002f0: b207 bebd 98a4 a43d f41f 863d 7085 6ebd
00000300: c6f5 4b3d f890 543d cef3 c1bd 5cde cc3d
00000310: b444 f7bd aeac 813d 1d90 e1bc 30f6 b83c
00000320: 3c35 f1bd 20cb 81bb b0a5 05be 3e03 e9bd
00000330: da3b 4c3d d2bc e53d 4166 9e3d ae3b 5abd
00000340: 279e a03d f0de 26bd 1c33 8bbd 6829 4b3c
00000350: 8215 b2bc ab38 013c 0eb1 4ebd 12fc 663d
00000360: e689 e83c 40db 63bd ad57 c23d 8808 52bd
00000370: 034d e03d 809a c23c 1e89 af3d 8e41 9d3d
00000380: fbe2 8f3d e1c5 84bc 8ae5 24bd d0e3 10bd
00000390: a0ee 5cbc c59d a3bd a3b2 e4bd 6493 86bd
000003a0: 8880 b5bd 9d35 8dbd 56e1 903d c002 8e3d
000003b0: 8e19 143d 18be 16bd 98e7 b7bc 2925 913d
000003c0: 9de6 e83d 68c3 e7bd 0675 47bd a9fb ea3d
000003d0: 70fb 89bd 1aeb f9bc 28fd d03c abb9 ebbd
000003e0: d26b aebd 8187 d03d d2d1 4ebd c4ff 69bd
000003f0: 906b 95bd 0420 2fbd c7c5 9ebd 16ed b1bd

fc2.bias f4 [128]
-0.0018279622 0.56431466 0.25409514 0.08655029 -0.105034895 -0.12992832 -0.086981684 0.2296463
0.08478762 -0.058842268 0.015410684 0.06672787 0.084085025 0.052334607 0.04871045 -0.06728534
0.025601596 0.027915167 -0.08617157 0.09793745 -0.12705272 0.059302613 0.18592837 0.042879
-0.07575824 -0.05540343 -0.087976925 -0.047774088 -0.17280138 -0.052374773 -0.25016984 -0.100899756
-0.16236603 -0.46514383 0.0889046 0.05690124 -0.085411705 0.078272626 0.08036316 -0.14342731
-0.08258352 -0.1757256 0.37966824 -0.5396896 0.094849356 0.044608355 -0.04746148 -0.058778778
0.10607697 -0.07796493 -0.0716438 -0.08742077 0.059353583 -0.0014787852 0.11587544 0.08959095
0.046737716 -0.13026242 -0.07238114 -0.08215283 -0.36488062 -0.07068594 -0.02385125 0.01955804
0.114426896 -0.08589463 -0.0492938 -0.06728098 -0.0022575264 -0.05819893 -0.051953435 -0.035502136
-0.12335785 -0.116648436 -0.119670756 -0.075911015 -0.11914817 -0.02379617 0.10336071 -0.07038791
-0.08690362 -0.005218208 0.09712893 -0.1420535 0.015444444 -0.16544129 -0.07909131 -0.1610999
0.11073189 -0.10829787 -0.117268294 -0.04104368 -0.04474373 0.041553512 0.0097453 0.0038829446
0.08684283 0.21264422 -0.01492952 -0.118909955 0.037724774 0.054883767 0.08440396 -0.117230296
-0.034255497 -0.014285768 0.022818979 -0.11674605 0.06923471 -0.02149453 -0.083677925 -0.057809666
0.011936203 0.09580257 0.09647201 0.0793465 -0.033159453 0.010855515 0.14771584 0.056186523
-0.038153585 -0.05789817 -0.07165102 0.03603809 0.11306981 0.06594586 0.06540284 -0.012498692
00000000: 3c98 efba ed76 103f c218 823e 4741 b13d
00000010: 891c d7bd ee0b 05be 7423 b2bd 6628 6b3e
00000020: 22a5 ad3d 9704 71bd 187d 7c3c 9fa8 883d
00000030: c534 ac3d d05c 563d 9c84 473d e5cc 89bd
00000040: 70ba d13c 59ae e43c b87a b0bd 6e93 c83d
00000050: 1c1a 02be 4ce7 723d 0264 3e3e e4a1 2f3d
00000060: 2327 9bbd b5ee 62bd 3f2d b4bd c3ae 43bd
00000070: d8f2 30be ee86 56bd 4316 80be 88a4 cebd
00000080: 4843 26be 5527 eebe 9d13 b63d 4611 693d
00000090: 55ec aebd 664d a03d 7195 a43d 9cde 12be
000000a0: 8c21 a9bd 69f1 33be e063 c23e 1929 0abf
000000b0: 6140 c23d 40b7 363d f866 42bd 04c2 70bd
000000c0: e23e d93d 14ac 9fbd fcb9 92bd a909 b3bd
000000d0: be1c 733d ccd3 c1ba 1a50 ed3d 767b b73d
000000e0: 0c70 3f3d 8363 05be 903c 94bd be3f a8bd
000000f0: a2d1 babe cac3 90bd b263 c3bc 2f38 a03c
00000100: a658 ea3d 86e9 afbd 4ce8 49bd 9cca 89bd
00000110: 02f3 13bb 0062 6ebd 20cd 54bd b06a 11bd
00000120: 0aa3 fcbd 60e5 eebd f115 f5bd 3c77 9bbd
00000130: f503 f4bd 2ff0 c2bc c8ae d33d 8927 90bd
00000140: 86fa b1bd 80fd aabb 88eb c63d 7976 11be
00000150: b10a 7d3c 7169 29be a0fa a1bd 5ff7 24be
00000160: 67c7 e23d 46cb ddbd 5c2a f0bd 6b1d 28bd
00000170: 3445 37bd 0434 2a3d c0aa 1f3c 0079 7e3b
00000180: a7da b13d 68bf 593e f29a 74bc 1087 f3bd
00000190: 4b85 1a3d cdcd 603d fcdb ac3d 7016 f0bd
000001a0: 7e4f 0cbd db0e 6abc deee ba3c 8e18 efbd
000001b0: edca 8d3d 4c15 b0bc 555f abbd d4c9 6cbd
000001c0: 1090 433c 2334 c43d 1e93 c53d 6b80 a23d
000001d0: 35d2 07bd 54db 313c d242 173e d723 663d
000001e0: ef46 1cbd a226 6dbd c5bd 92bd ad9c 133d
000001f0: 2591 e73d a00e 873d edf1 853d 50c7 4cbc

fc3.weight f4 [64, 128]
0.032965444 -0.038241323 0.07737834 0.07444633 -0.06239103 0.018874506 0.040430956 -0.088207245
-0.106812395 0.06933432 0.07261715 0.040198255 -0.0039598336 0.00625962 0.080085866 0.031414703
-0.009472713 0.039143555 -0.04105836 -0.023385823 -0.26552546 -0.0034145564 0.057755392 0.08525624
-0.06492918 0.044619676 0.08166901 -0.028252222 0.14139844 -0.0084334845 0.021262534 0.053156875
0.055153795 -0.41680604 0.01365516 -0.055060524 0.061528772 -0.051700257 0.038390063 -0.041803546
0.07837959 -0.043672264 0.07169302 -0.21352597 -0.105134405 0.029780038 -0.0785456 0.08426296
-0.06347735 -0.08703045 0.066699184 0.102754295 0.030604396 -0.115541324 0.045659926 0.07980292
0.00041769445 -0.05166554 0.016566725 -0.0015277267 0.018508447 0.046231367 -0.033182096 -0.063142985
-0.025455846 -0.03983062 0.06870783 -0.16401085 -0.061778966 0.03463862 -0.032636918 0.087235995
-0.063871264 -0.05519463 0.08458335 0.009447224 -0.08039627 -0.09410612 0.052668013 -0.023657704
-0.06446625 -0.06462413 -0.07865329 -0.035345607 0.008879606 -0.06752751 0.07194548 0.0499795
-0.019830886 0.037413813 -0.080275305 0.09246468 0.07910106 0.027084243 0.06698047 0.0659079
0.07586402 0.06457736 -0.006322609 -0.004973203 -0.039778 -0.002166187 0.0749612 0.009405829
-0.016225064 -0.08162295 -0.030351158 0.04728515 0.063288726 0.1323523 0.06266731 -0.08183306
0.07562163 0.04682891 0.05568243 0.041377462 0.01495557 0.001468634 0.04903535 -0.048440505
0.050132897 -0.005564088 -0.03125535 -0.030123819 0.07608945 -0.17346902 -0.07995831 -0.08094327
-0.049343143 0.021730391 0.019278402 -0.034535907 -0.06108571 -0.07556568 -0.004040152 -0.003013148
0.085001804 -0.09539389 -0.015412445 -0.037330136 0.03435348 -0.06424364 0.038062803 -0.043493208
-0.041738033 0.052090324 0.048603468 0.07062418 0.03734564 0.032219663 -0.039823666 -0.07227686
-0.06590435 -0.013122408 0.07733619 -0.097986944 -0.08602148 -0.038356338 0.0037267583 -0.08259747
-0.022977185 -0.020583581 -0.036886863 0.06433005 0.08755744 -0.042497445 -0.04731394 0.010652281
-0.00446962 0.05640227 -0.0781554 0.021139184 0.020802787 -0.0023975223 -0.035250537 -0.07232787
-0.047654003 -0.08137999 -0.03890645 -0.017628103 -0.114519335 0.013967075 0.02252989 -0.008128598
0.047329657 0.044270612 0.02798553 -0.017824598 0.06349193 0.06164547 -0.040577564 0.018169962
-0.042601053 0.041467898 -0.00041977316 -0.040991016 0.04824578 0.033346467 -0.054539464 0.028262578
-0.069188595 -0.031122327 -0.115349546 -0.015416041 -0.061489634 -0.03506503 0.021551348 -0.05283117
0.031776868 0.06352263 -0.10676239 0.031821415 0.026384749 -0.030815305 0.014971249 -0.10261328
-0.07038715 -0.07163037 0.03729517 0.013921797 -0.06465756 0.058859833 -0.06309921 -0.02978817
0.049737204 -0.058150955 -0.0870241 -0.07504048 -0.087862484 0.056225162 -0.05174367 -0.03463416
-0.005881317 -0.013239709 -0.050046146 -0.058377422 -0.00329661 0.03856026 -0.07297734 0.038263477
-0.06378453 -0.008791844 -0.021504544 -0.056749634 -0.042529162 0.0524335 -0.01988148 0.06159925
-0.0038330015 0.003482677 0.055946715 -0.06386258 -0.10720784 0.01677448 0.022615004 -0.050954927
00000000: c606 073d efa2 1cbd 8978 9e3d 5177 983d
00000010: bd8d 7fbd b59e 9a3c ee9a 253d 00a6 b4bd
00000020: 75c0 dabd 27ff 8d3d 4db8 943d eda6 243d
00000030: 7ec1 81bb 801d cd3b 0f04 a43d b4ac 003d
00000040: 7033 1bbc fe54 203d d02c 28bd a093 bfbc
00000050: f4f2 87be c0c6 5fbb eb90 6c3d d39a ae3d
00000060: 97f9 84bd 1fc3 363d 1542 a73d 3471 e7bc
00000070: c1ca 103e 992c 0abc c42e ae3c 06bb 593d
00000080: f2e8 613d 9a67 d5be e4b9 5f3c 2587 61bd
00000090: 9805 7c3d a6c3 53bd e63e 1d3d 323a 2bbd
000000a0: 7a85 a03d b0e1 32bd cad3 923d 8da6 5abe
000000b0: b550 d7bd 44f5 f33c 84dc a0bd 0f92 ac3d
000000c0: 6a00 82bd 053d b2bd 9599 883d d870 d23d
000000d0: 12b6 fa3c eea0 ecbd e705 3b3d b76f a33d
000000e0: 00fe da39 3f9f 53bd f1b6 873c 003e c8ba
000000f0: 079f 973c 1a5d 3d3d f3e9 07bd 1c51 81bd
00000100: c788 d0bc 6f25 23bd b1b6 8c3d 76f2 27be
00000110: f10b 7dbd 3ae1 0d3d 4aae 05bd c9a8 b23d
00000120: f0ce 82bd c413 62bd 093a ad3d 88c8 1a3c
00000130: cda6 a4bd b6ba c0bd 6aba 573d cdcd c1bc
00000140: e206 84bd a859 84bd fa14 a1bd 8ec6 10bd
00000150: c47b 113c dd4b 8abd 2758 933d 4eb7 4c3d
00000160: 6274 a2bc 3a3f 193d 6167 a4bd 1f5e bd3d
00000170: bdff a13d c6df dd3c 0f2d 893d b9fa 863d
00000180: 985e 9b3d 2341 843d e32d cfbb 40f6 a2bb
00000190: 42ee 22bd 96f6 0dbb 4285 993d e81a 1a3c
000001a0: 6dea 84bc ef29 a7bd fea2 f8bc 13ae 413d
000001b0: 859d 813d 5d87 073e b857 803d 1798 a7bd
000001c0: 83df 9a3d accf 3f3d 4213 643d 6a7b 293d
000001d0: 3508 753c 2e7f c03a 4bd9 483d 8d69 46bd
000001e0: 2758 4d3d f452 b6bb 9c05 00bd 3ac6 f6bc
000001f0: c9d4 9b3d dda1 31be 2fc1 a3bd 96c5 a5bd
00000200: 091c 4abd ef03 b23c bded 9d3c 8675 0dbd
00000210: 0235 7abd 2ec2 9abd 4063 84bb 3c78 45bb
00000220: 6d15 ae3d df5d c3bd 7b84 7cbc 7ce7 18bd
00000230: 3cb6 0c3d 2b92 83bd bee7 1b3d ef25 32bd
00000240: 80f5 2abd aa5c 553d 6e14 473d 69a3 903d
00000250: bef7 183d c4f8 033d 241e 23bd e405 94bd
00000260: dcf8 86bd 5eff 56bc 7062 9e3d 61ad c8bd
00000270: 082c b0bd 891b 1dbd a13c 743b dd28 a9bd
00000280: a63a bcbc e69e a8bc ae16 17bd 79bf 833d
00000290: 5151 b33d cd11 2ebd 43cc 41bd e886 2e3c
000002a0: e475 92bb 1106 673d f00f a0bd 152c ad3c
000002b0: 9b6a aa3c c01f 1dbb de62 10bd a220 94bd
000002c0: d830 43bd 8daa a6bd 5f5c 1fbd d068 90bc
000002d0: 1d89 eabd 29d6 643c 9b90 b83c d02d 05bc
000002e0: bedc 413d 1a55 353d e941 e53c e404 92bc
000002f0: 0f08 823d f67f 7c3d a934 26bd 2cd9 943c
00000300: 717e 2ebd 3eda 293d 0015 dcb9 32e6 27bd
00000310: 5e9d 453d 4e96 083d c664 5fbd ec86 e73c
00000320: c0b2 8dbd 40f4 febc 623c ecbd 9093 7cbc
00000330: 8edc 7bbd 59a0 0fbd 748c b03c 7f65 58bd
00000340: 7628 023d 2718 823d 3da6 dabd 2c57 023d
00000350: d424 d83c 6170 fcbc f849 753c e926 d2bd
00000360: 2327 90bd f2b2 92bd d2c2 183d 4018 643c
00000370: 2f6b 84bd 0217 713d 293a 81bd 5206 f4bc
00000380: 3db9 4b3d b22f 6ebd b139 b2bd d3ae 99bd
00000390: 3ff1 b3bd 5b4c 663d 2cf1 53bd 8ddc 0dbd
000003a0: 10b8 c0bb 5deb 58bc 30fd 4cbd 2a1d 6fbd
000003b0: f00b 58bb 5df1 1d3d 2575 95bd 2aba 1c3d
000003c0: 77a1 82bd ab0b 10bc 4c2a b0bc 4e72 68bd
000003d0: 0f33 2ebd 82c4 563d 7cde a2bc 7f4f 7c3d
000003e0: 1833 7bbb a03d 643b 6228 653d 62ca 82bd
000003f0: c98f dbbd a26a 893c 1a43 b93c 1db6 50bd

fc3.bias f4 [64]
0.10497625 -0.0021936211 -0.07931019 0.015482131 0.015642427 -0.10725347 -0.29963535 -0.042993814
0.07277884 0.02104201 0.011432412 -0.047138307 0.055052377 -0.032089967 0.033980954 0.08076461
-0.024758026 -0.068632774 0.007646721 0.03159021 -0.09218594 0.20464389 0.14613496 -0.035749618
-0.04708065 -0.21287228 0.104487635 -0.0043156594 -0.07100513 -0.12978968 -0.04064226 -0.024490966
0.06284626 0.3257432 -0.12901992 -0.13139379 -0.0046025272 0.1122709 0.025577288 0.06927068
0.0459243 0.0723223 -0.06504798 -0.09025563 -0.053791847 0.08805514 -0.08768268 0.10009974
-0.03187927 0.052779164 -0.060873177 0.02963901 -0.07575275 -0.006194645 0.12470129 0.07313507
0.07612315 0.20583266 0.1402295 0.2608258 0.0055944426 -0.020108812 0.29519156 -0.057962988
00000000: cafd d63d dbc2 0fbb 626d a2bd c4a8 7d3c
00000010: 8c24 803c b5a7 dbbd ce69 99be 481a 30bd
00000020: 130d 953d 4b60 ac3c 034f 3b3c 1914 41bd
00000030: 9a7e 613d c570 03bd 9d2f 0b3d ea67 a53d
00000040: 58d1 cabc 578f 8cbd 5891 fa3b bc64 013d
00000050: fbcb bcbd 2b8e 513e 67a4 153e 316e 12bd
00000060: a4d7 40bd 31fb 59be 9dfd d53d 606a 8dbb
00000070: 236b 91bd 96e7 04be 8078 26bd 47a1 c8bc
00000080: 8ab5 803d d0c7 a63e cc1d 04be 188c 06be
00000090: ccd0 96bb 49ee e53d 7687 d13c c9dd 8d3d
000000a0: 1e1b 3c3d b71d 943d e037 85bd f2d7 b8bd
000000b0: d754 5cbd 4156 b43d fa92 b3bd 1801 cd3d
000000c0: d693 02bd f72e 583d 2756 79bd 82cd f23c
000000d0: 4224 9bbd 73fc cabb 6463 ff3d d7c7 953d
000000e0: 74e6 9b3d ccc5 523e 5298 0f3e f68a 853e
000000f0: 9651 b73b 3cbb a4bc 5923 973e 996a 6dbd

fc4.weight f4 [2, 64]
0.011778311 -0.056068037 -0.08806509 0.09242156 0.12239604 0.023079703 0.028199283 -0.010688628
0.03651032 0.0035126444 -0.116634235 0.11522314 0.014189228 -0.11871569 -0.049679987 0.023455638
0.0880297 -0.1001081 -0.018268289 -0.03298691 0.06298605 0.010204493 -0.07053721 -0.12062255
0.07670674 0.0056481753 0.13073274 0.028557435 -0.08830839 -0.03589123 -0.018655201 0.06343323
-0.037700918 -0.07472652 0.06010116 -0.13764021 -0.08172194 0.11857591 -0.08053642 0.09101677
-0.10314658 0.08072074 0.03820776 0.11534072 -0.07333136 -0.3857338 0.06362873 0.055817995
-0.062826544 -0.12895302 0.10826826 -0.057316978 0.07743457 -0.10160245 -0.009246828 -0.09469795
0.019666247 0.49830133 0.21039969 -0.23078702 -0.077332415 0.045877825 -0.06585993 0.010518321
-0.07217209 9.0247144e-05 -0.01250832 0.03238396 -0.044893235 0.03861343 0.04858741 -0.03563601
-0.037445724 0.04062975 0.045952193 0.012672586 0.10156335 0.11664386 -0.0137026915 -0.10099413
0.0112157315 -0.06401854 0.035047036 -0.121619016 0.103841476 -0.086543605 -0.016643122 0.077400506
-0.009884179 0.02094194 -0.031625137 0.08988246 -0.011246647 0.03932289 0.0020381243 -0.036421943
-0.08548552 -0.13070425 0.10234104 0.036228918 0.08063602 -0.07447796 -0.05903577 -0.10233378
-0.047722798 -0.10858795 0.08199977 -0.05158129 0.28125063 0.033859756 0.09534255 -0.14571002
0.052263673 -0.025129031 -0.017385215 0.017725581 0.027014216 0.013526998 -0.0550626 0.08211053
-0.06758228 0.03310948 -0.12447889 0.2807673 -0.11008279 0.020602029 -0.09619794 -0.0060610315
00000000: d1f9 403c 99a7 65bd 785b b4bd 8447 bd3d
00000010: c6aa fa3d a511 bd3c 2f02 e73c 5b1f 2fbc
00000020: d88b 153d 6534 663b eedd eebd 1cfa eb3d
00000030: f079 683c 3621 f3bd 3e7d 4bbd 0a26 c03c
00000040: ea48 b43d 7a05 cdbd 61a7 95bc 481d 07bd
00000050: d5fe 803d bf30 273c d075 90bd f508 f7bd
00000060: 6c18 9d3d 5414 b93b cede 053e 48f1 e93c
00000070: 07db b4bd af02 13bd cbd2 98bc 48e9 813d
00000080: 476c 1abd 380a 99bd a22c 763d 8ef1 0cbe
00000090: d55d a7bd edd7 f23d 47f0 a4bd 0067 ba3d
000000a0: 843e d3bd ea50 a53d bd7f 1c3d c137 ec3d
000000b0: c12e 96bd e77e c5be c84f 823d 69a1 643d
000000c0: 34ab 80bd 430c 04be c0bb dd3d 35c5 6abd
000000d0: 0496 9e3d f214 d0bd 0280 17bc 00f1 c1bd
000000e0: 1c1b a13c 5a21 ff3e 0473 573e 6f53 6cbe
000000f0: 7560 9ebd 63ea 3b3d 92e1 86bd 0955 2c3c
00000100: f6ce 93bd 1143 bd38 b2ef 4cbc 0ba5 043d
00000110: f8e1 37bd 1e29 1e3d 9803 473d 11f7 11bd
00000120: b060 19bd 616b 263d 5e38 3c3d aea0 4f3c
00000130: 7200 d03d fae2 ee3d 4181 60bc 03d6 cebd
00000140: 30c2 373c 271c 83bd 7b8d 0f3d 6413 f9bd
00000150: d7aa d43d c63d b1bd 2857 88bc 2884 9e3d
00000160: 40f1 21bc 6e8e ab3c 5c89 01bd 4c14 b83d
00000170: db43 38bc 0a11 213d 0d92 053b 2d2f 15bd
00000180: 0813 afbd 56d7 05be 2e98 d13d c664 143d
00000190: 7f24 a53d e787 98bd 7ecf 71bd 5f94 d1bd
000001a0: fb78 43bd 5c63 debd 7fef a73d e746 53bd
000001b0: 1500 903e 87b0 0a3d f442 c33d 0235 15be
000001c0: 6f12 563d 66db cdbc 706b 8ebc 3d35 913c
000001d0: eb4c dd3c 58a0 5d3c 5289 61bd 9129 a83d
000001e0: 9468 8abd ce9d 073d caee febd bbc0 8f3e
000001f0: 1673 e1bd 96c5 a83c 6d03 c5bd 9e9b c6bb

fc4.bias f4 [2]
-0.06423314 -0.1492723
00000000: aa8c 83bd d6da 18be
