model_best.pth (torch, 72612 bytes, 8 tensors)

fc1.weight f4 [64, 9]
00000000: b63f a8bd d6cc 9dbd 4b90 3b3d 5695 c1bd
00000010: bebd 95be be14 6ebe 5245 85be 4e48 a73e
00000020: 9efa 34be 7d7f 763f 914c b13e 1404 55bf
00000030: 8ae0 f23d db4a a0be c666 ab3e 1dcf ee3e
00000040: 6565 fb3e 60a0 a1be 9107 933f b24c dcbe
00000050: 3fe6 0a3e 0036 86be 9692 f1bc c2ba 873e
00000060: 131c cb3e 4ee3 b33c 0fb8 e7bd 40ec 8dbd
00000070: e954 483e c91a 0f3f 4e9d 93be 8969 7fbe
00000080: abce a83d 5677 a33d 4687 1b3f 6f13 523c
00000090: 3734 8dbe 0019 9fbd 1017 a33d 70b1 48be
000000a0: 002b 2cbe 9004 e1bd c066 68bd b07d 53be
000000b0: c683 a5be c6e4 69bf d482 6b3d 9fb2 9a3f
000000c0: ea53 3bbf 9770 523e b0b8 34be 06f9 82bf
000000d0: 1e31 51be 5e98 8bbf 1583 873f 7e94 bc3d
000000e0: 9906 2fbf 66d1 cbbe 2c0a 333d a795 a53d
000000f0: 8d5b a73e 1182 273f 6be2 5e3e 63ef 81bf
00000100: daf2 2fbe 8d7b ebbd 6e72 313e 4717 4b3e
00000110: 0240 953e 03ad dcbc 4f46 acbd 27cd f9be
00000120: 63bd 333f 92d6 abbb 68d1 9fbe c516 a4be
00000130: 1c6c 8b3e 6a97 7fbd 4b4a 11bf 64a0 4b3e
00000140: 7c34 0c40 70a5 fabd 767d 7fbd ab72 6a3c
00000150: 00ca c03d 36fb 95bd bb8c 53be d300 76be
00000160: 464d 8a3e 0b0d f7bd 78fa e0bf decc eabe
00000170: 8aff f23d 2ce8 debe a41c b63d ee8b 5dbd
00000180: 5df6 25bf 0ef4 0abf 2bde 8b3e 545a 363e
00000190: 8dde cc3e 8bf7 4f3f 0829 e63e 2d61 923e
000001a0: 8099 0abe 1799 313e 0be9 23bf b963 8c3f
000001b0: 9c4c 243e a38f 04be d4e9 3d3f ee17 003f
000001c0: 9639 923d e6a2 15bd 0b79 1a3f a548 ac3e
000001d0: a333 30bf 0645 d03d 6693 7c3e 9eea 48be
000001e0: c73f 8b3e b128 9dbd ea5b 2bbc 205f 0a3f
000001f0: 8d9f 043d cc4d 45bf f8f9 9cbf 1323 8bbc
00000200: 0d4b f93d c81a afbc a6d1 0dbe 77d3 523e
00000210: 7375 18be 16fa efbe 1b25 2340 abf8 6b3c
00000220: 396a 833e cc71 e13e 374c 9a3c c48b 97be
00000230: e448 923e 2b81 e03e 7448 a03e 4a58 203f
00000240: 8293 a6be abf3 91be 5886 303e 60ff 243e
00000250: 3fa0 82be 4094 23be 30c8 3cbe cb19 a43e
00000260: a088 763d ce4f 8b3e a0f4 fbbd 00d6 a5be
00000270: 2015 71be e611 c2bd 00a4 03be d092 a3be
00000280: 163d 3f3d 2601 07be df71 5dbf 27dd ff3c
00000290: 688b 11bf 9fc1 273e e0c5 90be 7b8e a43e
000002a0: f050 fcbd e746 2fbd 16e7 0fbe 4e89 30bc
000002b0: 9714 a13e 0d9e 46bf 931b 5d3f f1ff 473e
000002c0: b6f4 36be 8983 37bd 55c9 d33d 19f2 0b40
000002d0: a45e 5abf 3b6b d7be ade9 533f f830 92be
000002e0: 0eb6 423e 8bbb 683e 8422 093e 6002 d63e
000002f0: ae43 dfbf a482 f2bf 2d3b dbbe 9f43 583f
00000300: 8d07 0ebf 7fd5 e13d 378f 52be 94d2 3fbe
00000310: d44f 24bf ac38 21c0 1cad c53e bcbe c13e
00000320: 337a e9bd 831b c03e 23c2 3ebe 733a 4d3e
00000330: 5dd1 623f 5fa5 94be 0ec8 fa3f e8b8 8ebf
00000340: 9f7b 20bf eb30 433f d647 a1bd ea69 44bd
00000350: 7e31 003e 61e5 ed3e 5e35 43bf e9ba 96be
00000360: 1c6e 6c3f 857b 20be ba2e 32bf de22 dc3d
00000370: d913 6ebe b3ee 9b3e 5e55 2cbf 3516 e8bd
00000380: 60fe 39c0 9e2c 6b3f 0fff 85be c176 8a3f
00000390: f2fc a53e e42f 1abc f172 b03d 9dca 063f
000003a0: a12a 9f3e 2260 1ebf 2c1b 9e3f 20f5 39be
000003b0: 116f 00bf ed23 abbe e695 6a3e 334e 84bd
000003c0: f695 b73e bb5f 513e 3c56 15bc dcce 90bf
000003d0: b0ae 62be fe3a 6d3f 7396 9f3e 7d41 823c
000003e0: bee9 693e 2af5 6d3e c4fd 063d 36e5 613f
000003f0: 8016 2b3f c286 00bf be4b b4be 54ec 3abe
-0.08215277 -0.07705085 0.045791905 -0.09452312 -0.29246324 -0.232501 -0.2602945 0.32672352
-0.17673728 0.9628828 0.34628728 -0.8320935 0.11859234 -0.3130711 0.33476847 0.4664239
0.49100795 -0.3156767 1.1486684 -0.43027264 0.13564394 -0.26213074 -0.029488843 0.26509672
0.39669856 0.021958973 -0.11314403 -0.06929827 0.1956364 0.55900246 -0.2883095 -0.24942602
0.08242544 0.07981746 0.60753286 0.012822016 -0.275789 -0.0776844 0.07963383 -0.19598937
-0.16813278 -0.10987198 -0.056738615 -0.20653415 -0.32327098 -0.91364706 0.057497814 1.2085761
-0.7317492 0.20550762 -0.17648578 -1.0232246 -0.20428893 -1.0905874 1.0586878 0.0920801
-0.6836944 -0.39808196 0.043710873 0.080851845 0.32687035 0.6543284 0.21766059 -1.015118
-0.17182484 -0.11498175 0.17328808 0.19833098 0.29150397 -0.026937967 -0.08411848 -0.4878933
0.70210856 -0.0052440846 -0.31214452 -0.32048622 0.27230918 -0.06240026 -0.5675399 0.19885403
2.1907034 -0.12238586 -0.06237551 0.014309566 0.094135284 -0.07323305 -0.20659153 -0.24023752
0.2701208 -0.120630346 -1.7576437 -0.45859426 0.118651465 -0.43536508 0.088921815 -0.054088525
-0.64829046 -0.5427865 0.27317938 0.17807895 0.40013543 0.81237096 0.4495318 0.28589764
-0.13535118 0.17343555 -0.6402747 1.0967933 0.16044849 -0.12945418 0.7418492 0.50036514
0.0713989 -0.036532305 0.60340947 0.33649173 -0.6882879 0.10169415 0.24665603 -0.1962075
0.27197096 -0.07673777 -0.010458926 0.540514 0.032378722 -0.77071834 -1.2263784 -0.016984498
0.12172518 -0.021375075 -0.13849506 0.2058848 -0.14888553 -0.46870488 2.5491397 0.014402549
0.2566698 0.44032133 0.01883517 -0.2959882 0.28571236 0.43848547 0.31305277 0.6263472
-0.32534415 -0.28506216 0.17238748 0.16113043 -0.25512883 -0.15974522 -0.1843574 0.32050928
0.06018889 0.27209324 -0.12302518 -0.32389832 -0.23543215 -0.0947607 -0.1285553 -0.31947947
0.046689115 -0.13184032 -0.8650188 0.031233383 -0.5685334 0.16382454 -0.28275967 0.32139954
-0.12320125 -0.042792227 -0.14052996 -0.0107749235 0.3146102 -0.77584916 0.863702 0.19531228
-0.17866787 -0.044803176 0.103411354 2.1866515 -0.8530066 -0.42073998 0.82778436 -0.28552985
0.19014761 0.22727792 0.13392073 0.41798687 -1.7442529 -1.8946118 -0.42818585 0.8447818
-0.5548027 0.11027049 -0.20562445 -0.18732673 -0.6418431 -2.519084 0.38608634 0.3784083
-0.11400261 0.3752099 -0.18628745 0.20041828 0.88600713 -0.29032418 1.9592302 -1.1150179
-0.6268863 0.7624652 -0.0787503 -0.04795257 0.1251888 0.46464065 -0.76253307 -0.29439476
0.92355514 -0.15672119 -0.6960255 0.10748838 -0.23249759 0.3045555 -0.6731776 -0.11332361
-2.9061508 0.91864955 -0.26171157 1.0817491 0.32419544 -0.009410832 0.08615673 0.52652913
0.3108721 -0.6186544 1.2352042 -0.18159914 -0.50169474 -0.33425847 0.22908744 -0.06460228
0.358566 0.20446675 -0.009114798 -1.1313128 -0.2213695 0.9266814 0.3116947 0.015900368
0.22843072 0.23238054 0.032956854 0.88240373 0.6683121 -0.50205624 -0.35214037 -0.18254215

fc1.bias f4 [64]
00000000: 40cc ef3c 4b69 83be 8a51 bcbe 13df 963c
00000010: 0395 2fbe a950 25bf 14f6 cb3d 7a7f 9f3c
00000020: ccd2 93be dbcf 023e 38ab e4be 9052 9a3e
00000030: 54ca 463e 33b2 893d 4519 1dbe fe10 2ebc
00000040: 9b21 673e 0043 163c 21ad 8c3e def8 173f
00000050: e933 41bc ce04 14bf ef2c a13e f8ae a43e
00000060: e69b 0bbe 29c2 a23d 4155 ae3c 102e 973e
00000070: 14d9 4c3c e061 623e 203d 05be 06f8 02bd
00000080: f43b 223e 8e9e 053e 964c ffbb aa14 79bd
00000090: ccb7 42be 6b24 01bf 5dd0 4ebe 0302 a03e
000000a0: 5984 febd 1c0b 6ebe 31d2 4f3e 583e 783d
000000b0: ab0a f639 453f d5bd 6aa9 64be d932 f6be
000000c0: e996 0bbe ce00 c3be 4cf6 2dbe 4679 ed3e
000000d0: 44f5 dc3e 047e 05bf 8d3b d43b 4475 3a3f
000000e0: 3304 85be 657f 57be 81ed f43d 50e7 f83e
000000f0: 3742 9e3d 29a0 c93d 23a8 813e 6bad 7cbe
0.029272199 -0.2566627 -0.3678096 0.018416917 -0.17146687 -0.645762 0.09959045 0.019469965
-0.28871763 0.12774603 -0.4466188 0.30141115 0.1941312 0.06723442 -0.15341671 -0.010624168
0.22571413 0.0091712475 0.27475837 0.59364116 -0.0117921615 -0.5781983 0.31479594 0.3216474
-0.1363369 0.07947189 0.021280887 0.2952733 0.012502927 0.22107649 -0.13011599 -0.031974815
0.15843183 0.13048765 -0.007791112 -0.060810722 -0.19015425 -0.50446194 -0.20196672 0.31251535
-0.12427587 -0.23246425 0.20295025 0.06060633 0.00046928725 -0.10412458 -0.22330251 -0.4808567
-0.13631786 -0.3808655 -0.16988486 0.46381587 0.43155873 -0.5214541 0.0064768256 0.72835183
-0.25979766 -0.21044691 0.11959363 0.48613977 0.07727473 0.09845001 0.2532359 -0.24675529

fc2.weight f4 [128, 64]
00000000: a083 773c 746d b0bc 65f5 06be 7dbb cbbc
00000010: 2cc4 b5bd 7ca0 4cbd 2225 67bd 84a0 5bbd
00000020: ffb8 aabd f228 d0bd 8935 28bd 25da 423d
00000030: d77d 0dbd 6108 f63b c07a debb 5021 2dbd
00000040: a6c7 b6bd 6c99 7f3d 9eed a3bd 9d04 8a3d
00000050: 5a0c 7dbc f395 8dbe dc9c 14be e9b9 cb3c
00000060: d820 99bd 2780 70bc bff0 b3bd 9ca1 af3d
00000070: 3534 2c3c 5297 92bd c482 b3bd ed37 a53d
00000080: 094f 083e b0aa ad3c e839 8c3d bbb3 80bd
00000090: 3378 0d3e 4a3c 403d 7498 9b3d 1a49 af3c
000000a0: fadc e9bd deff a73d e8f8 19be a827 323e
000000b0: b02a babc c261 d3bd 6ba7 cd3d 91e0 c83d
000000c0: 0e3d 6a3d 2053 a9bc 8be7 85bd 40a6 62bd
000000d0: ab15 ccbc 89e9 8c3d 8afc cd3c f757 ad3c
000000e0: 0e70 abbd 8fbe 043d f5e1 58be e591 34bd
000000f0: 0a9a 40bd 877c d8bc 5e96 07bd 9c08 073e
00000100: e87a f0bc e065 07bd cd20 b73d 5cfb d53d
00000110: 6895 eb3d 885b 8c3c bf06 653d 886b cfbd
00000120: 5315 50bd 2c3f d2bd 50be f9bc 4638 d93d
00000130: 7ab5 623d b040 163d b010 db3c c035 dbbd
00000140: 6844 84bc 4e6d 9abd 0494 cebd 9163 203d
00000150: eb7e 00be 60ef fabd a002 7d3c a287 983d
00000160: a443 b73d 5192 ee3a 3528 c4bd 165a a6bd
00000170: 9949 f2bd 407d 83bc 465b c63d 3334 923c
00000180: 054e b2bd 21c7 38bd 4cd1 4fbd 1f23 8dbc
00000190: c2ad adbd 8a63 25bd 9660 f1bd 40d9 963b
000001a0: a82a 963c 3149 ad3d 8574 f63c d694 b13d
000001b0: eaec e13d 55a4 c33d a466 a53d 58ec 1c3d
000001c0: ffea 5b3d 225a 723d 5eea bd3d 4f1f c53d
000001d0: 00dc 4bbb 6617 b0bd 60f6 403d 283c 6ebd
000001e0: 1299 8abd 0065 9d3c 865b c73c 876b abbd
000001f0: e0e9 59bd 2015 f0bd 746f 0ebe d5a0 15bd
00000200: f4ea 5e3d c794 213e 1959 02be 3539 13bd
00000210: c070 df3c 8ac1 893d 2485 47be b594 8b3c
00000220: 21e5 d63d a07b 5dbc 6723 023e 9fcf c13d
00000230: 1aff e8bb fc1b 193d 1d23 22bc cae6 39bd
00000240: 740f de3d 8467 643d 3a4b 70bf d593 16bd
00000250: f104 f03c 0b45 04bd b10a 8fbd fdc3 4c3e
00000260: cab2 ff3d d606 e7bc c7fe 9fbd b442 b8bd
00000270: 8286 2a3e 5094 d13d 8e6d aebd 270c 203d
00000280: 67dc 763c 56fd fa3d dbfe 8c3d 3048 c4bd
00000290: 6006 56be 3b59 c2bd 9737 0abd e55f 933d
000002a0: 34f3 373d 44fd f6bd f833 453e c15d 00be
000002b0: 100f d5bc 3b07 a4bd e569 06bc a732 1bbe
000002c0: 42ff a43d dd26 4e3d 2496 e2bc f4d0 b63d
000002d0: 647c e13d 4608 84bd 3182 7d3d 01f3 52bf
000002e0: 2097 c4bc 1845 fabe 2f74 203e 6dab ed3d
000002f0: 32ab a83d 6ea4 4ebc 7857 df3d 5c11 2ebe
00000300: 98ff c73d 617f b4bc 75f4 ef3d f744 17bd
00000310: d6dd ae3d eecc dc3d c6ad 0bbb cbbe 04be
00000320: 544f 463d ac3c 2e3d 206c 9a3d 1051 3c3d
00000330: f4ba 79bd 8ad3 ae3d 52ab 3cbd 49ed f7bc
00000340: 84e6 d6bd b086 95bd e51e 95bb cc73 e0bd
00000350: afd2 263d e05d 863b dec0 32bc ff8c b0bd
00000360: ee62 063c 5a40 d13b b6b4 9ebd a7dd f8bd
00000370: d6aa eebd a03c 803d a47f 04bd 7819 953b
00000380: 4ae9 9fbd fc97 2a3d 2589 ec3c 7af6 d9bd
00000390: 1284 a2bd 9c3d cdbd 3850 8bbd 444e a2bd
000003a0: 283a ab3c d284 e73d 1a1a db3d 36a8 c5bd
000003b0: a65a c3bd ca33 92bd b13b 5c3d 60ed dc3b
000003c0: 9edf d0bd a614 9b3d 220d 183d aaab e43d
000003d0: f39e 16bc d8fc a6bc 5ac5 1f3d 4bbd ed3c
000003e0: 9851 8d3c d9e9 9cbd 41d0 be3d 3521 af3c
000003f0: 6506 783d 98cf f13d 0e40 d33c 099b 4dbd
0.015107065 -0.021536566 -0.13179548 -0.024869675 -0.088753074 -0.049957737 -0.056431897 -0.053619877
-0.083360665 -0.1016406 -0.04106668 0.04757132 -0.03454384 0.007508323 -0.0067895353 -0.042268097
-0.08924799 0.062402174 -0.08004306 0.06739161 -0.015444839 -0.27653465 -0.14512962 0.024868922
-0.074769676 -0.014678991 -0.08786153 0.085757464 0.010510494 -0.07157768 -0.08765176 0.080673076
0.133114 0.021199554 0.06846982 -0.06284281 0.13815384 0.046932496 0.075974375 0.021397162
-0.11419101 0.082031 -0.15036356 0.1739794 -0.022725433 -0.1032138 0.10041698 0.09808458
0.057187133 -0.02066952 -0.06538304 -0.05533433 -0.024912676 0.06880481 0.025144834 0.021160109
-0.08370982 0.032408293 -0.21179946 -0.04408445 -0.047021903 -0.026426567 -0.033102386 0.13186878
-0.029355481 -0.03305614 0.08941803 0.104483336 0.11503106 0.01713349 0.055914637 -0.10127932
-0.050801586 -0.10265955 -0.030486256 0.106064364 0.05534885 0.036682785 0.026741356 -0.107036114
-0.0161459 -0.075403795 -0.100868255 0.039157454 -0.12548415 -0.122526884 0.01544252 0.07447745
0.08948448 0.0018201565 -0.095779814 -0.08122651 -0.11830444 -0.016050935 0.09685378 0.017847156
-0.08706287 -0.04511178 -0.05073671 -0.017228661 -0.08480407 -0.04037813 -0.117860004 0.004603535
0.018330887 0.08461226 0.030084858 0.08670966 0.11031516 0.09552828 0.08076218 0.038311332
0.053690907 0.05916799 0.092732176 0.09625112 -0.0031106472 -0.08598213 0.04710996 -0.05816284
-0.06767477 0.0192132 0.024335634 -0.083701186 -0.053201556 -0.11722779 -0.13909703 -0.036530335
0.054423288 0.1577941 -0.127293 -0.03594323 0.027275443 0.06726368 -0.19484383 0.017038682
0.104929216 -0.013518244 0.12708817 0.09463429 -0.0071104886 0.037380204 -0.009896067 -0.045386113
0.10842791 0.055762783 -0.93864787 -0.036762077 0.029299231 -0.032292407 -0.06984461 0.19996639
0.12485273 -0.028201502 -0.07812267 -0.089970976 0.16652873 0.102333665 -0.0851699 0.03907409
0.015067196 0.12255351 0.06884547 -0.09584081 -0.2090087 -0.094896756 -0.03374442 0.07196025
0.04490967 -0.12060025 0.19258106 -0.12535764 -0.026008159 -0.080091916 -0.008203958 -0.15156041
0.08056499 0.05033003 -0.027659483 0.089265734 0.11010054 -0.064468905 0.06189174 -0.82402045
-0.023997843 -0.4888084 0.1566932 0.116049625 0.08235778 -0.012612445 0.10905355 -0.1699881
0.097655475 -0.022033395 0.11716548 -0.036931004 0.085384056 0.10781275 -0.0021313294 -0.12963407
0.048415497 0.04253833 0.075401545 0.045975745 -0.060969308 0.085364416 -0.04606182 -0.030264514
-0.10493186 -0.0730108 -0.004550802 -0.109595865 0.040728267 0.0041005462 -0.010910241 -0.08620643
0.008202298 0.006385845 -0.077493116 -0.12151652 -0.11653678 0.06261563 -0.03234829 0.0045501553
-0.07808168 0.04164885 0.02887399 -0.10642715 -0.07935347 -0.10021517 -0.0680241 -0.07925084
0.020901754 0.1130463 0.10698338 -0.09651224 -0.09538774 -0.07138784 0.053767864 0.0067421645
-0.101989016 0.07572298 0.0371219 0.11165555 -0.00919317 -0.020384237 0.03900657 0.029020926
0.017250821 -0.076617904 0.09317065 0.021378139 0.060552973 0.118071735 0.02578738 -0.05019668

fc2.bias f4 [128]
00000000: d08a 4fbe 1e12 e9bd fcf4 353e 2336 abbd
00000010: 6c55 0e3f 066b 113d 8cbc 43bd 578c 4b3d
00000020: dff0 0cbe f25f 713e b179 15be c2fe 653d
00000030: fa68 abbd fed1 97bd b154 453e f7f6 98be
00000040: 5864 95be f2dd 043e 0fa2 5b3e 28b1 413e
00000050: 0959 a5bd a498 b9bb e0a3 20bd 8138 6ebd
00000060: 7020 403d 2379 3cbe f337 65be 5be9 33be
00000070: 125d fa3d db2e fd3d 1715 183e a8a3 ec3a
00000080: 7041 da3d 6f71 08be e2ef 27bb d93a b53c
00000090: f8fd f93c 5f1d c6bc 8300 953e 5f21 393e
000000a0: e66a 75bd f960 5c3e 05e4 09be e1cd bb3e
000000b0: bbf0 f5be b817 a2bc 3331 f5bc 01a8 023e
000000c0: dc04 03bd 5a52 203e a71f f13d dc34 98bd
000000d0: d384 623d 08ec 083e 3962 41be 1872 adbe
000000e0: 9498 a13d b496 8cbd 0508 bcbd c678 d5bd
000000f0: 0af9 7abc 7888 b13d 35eb 97be 77d6 203f
00000100: f2d9 913d 483e 9e3d aae6 00be c604 913e
00000110: a769 cd3e 3d8c acbc c727 ecbe d8fd b23b
00000120: 0842 0bbd 1aa9 ad3d e92a fb3c 4f1f f2be
00000130: e8f8 bb3d 0151 15bd 300f 55be 1e96 bcbd
00000140: 7ecd 453e 7567 bdbe 9426 193e 660d 6ebe
00000150: fada f53d 8a92 5e3e aa1c b9bd ccdf d43d
00000160: fa31 bebd 5a16 16be 4ef7 773e fcab 243e
00000170: 9a90 a8bd c5d2 cc3d 5d50 f43d 4348 11be
00000180: 53df afbe 2117 dbbc d057 a83e 4ea8 5d3d
00000190: 140a db3d 0b21 c5be ebf5 163e 115d a23e
000001a0: b87a 333e 0279 0c3e 04fd 39bd d398 13bd
000001b0: d4c2 b03d 351a cd3c 44d6 813e b440 3d3e
000001c0: 370d 09bb bb21 f2bd e44c df3d 4fc1 b7bd
000001d0: f805 f4bd 08a4 70be 0029 f3ba ac92 1ebd
000001e0: 2342 77be b516 33bd c398 dfbc 5081 18be
000001f0: 000d adbd 68bb 67bd 4715 c03a 1c69 d6bd
-0.20267797 -0.11380409 0.17769235 -0.08359935 0.55599093 0.035502456 -0.047787234 0.049694385
-0.1376376 0.23571756 -0.14597203 0.05615116 -0.08369632 -0.074131 0.19270588 -0.2987592
-0.2917812 0.1297529 0.21448539 0.18915236 -0.08073623 -0.005663948 -0.039218783 -0.058159355
0.046905935 -0.18405585 -0.22384624 -0.17569487 0.12224783 0.123624526 0.14851795 0.0018054144
0.106570125 -0.13324521 -0.002562516 0.022122787 0.03051661 -0.024183927 0.29101953 0.18079136
-0.0599164 0.21521367 -0.13465889 0.3668051 -0.48035225 -0.0197867 -0.029930687 0.12759401
-0.031987056 0.15656415 0.11773615 -0.07431957 0.055302452 0.13371289 -0.18885125 -0.3387611
0.0789043 -0.06864682 -0.09181217 -0.10423426 -0.015318165 0.086686075 -0.29671636 0.6282725
0.07121648 0.07726723 -0.12587991 0.28323954 0.4011967 -0.021062965 -0.46124098 0.0054623894
-0.03399852 0.08479519 0.03066011 -0.47289512 0.091783345 -0.036454204 -0.20806575 -0.0920832
0.1931667 -0.36992994 0.14956123 -0.23247299 0.12004657 0.21735588 -0.0903867 0.10394248
-0.09286876 -0.14656964 0.24215433 0.16081232 -0.082307056 0.100011386 0.119293906 -0.14187722
-0.3435007 -0.026744427 0.32879496 0.054115586 0.106952816 -0.38501772 0.14742248 0.3171163
0.17527282 0.13718036 -0.04540731 -0.036034416 0.086309105 0.02503691 0.25358784 0.18481714
-0.0020912418 -0.1182284 0.109033376 -0.089724176 -0.11915201 -0.23500073 -0.0018551648 -0.038714096
-0.24146323 -0.043722827 -0.027294522 -0.14893079 -0.08449745 -0.05657521 0.0014654779 -0.10469267

fc3.weight f4 [64, 128]
00000000: 2140 243d 7f52 84bd 0154 45bd 6a79 50bb
00000010: fdce 74bd 08a8 63bd 25d0 2abd 7eb3 9fbd
00000020: 4602 a03c 819d 94bd 4db2 ac3c 84e1 b3bc
00000030: 5222 3fbd e4a4 93bd 6021 c33c fe42 e0bd
00000040: 1cc9 a8bd 1463 23bd 41c5 533d 801b 403d
00000050: ce2e 833d 04b4 343d 2a82 c3bc cae7 b73c
00000060: 8b90 443d 3747 ddbd 0028 d9bb 5aaa fabc
00000070: ebb7 8abd 975d 9f3c 7be5 843c 808d 7ebd
00000080: 1d75 e7bd c739 cebd 0b9a 4d3d 4fb2 e03d
00000090: f03f e1bb 5bbe e53c 6da8 9d39 65f4 38bd
000000a0: 6fa2 8ebd 2ba5 853c dd9d 7c3c 869b adbd
000000b0: 76ad c6bd 9273 b23d b655 903c d8e1 0f3d
000000c0: 1d93 58bd 1dc8 74bd b3c7 abbc 7404 3bbd
000000d0: 7522 513d ab48 26bc de81 05bd 5dd5 38bd
000000e0: 3e79 cb3c 3fb2 a83c fb26 013d 9ca6 23bb
000000f0: 83ae a6bd 1eb9 a4bd 8337 95bd e842 c5bd
00000100: fd9e 93bc 2061 14bd ddb4 9cbc 234d dabd
00000110: c78a edbd 0362 9f3d db23 f43c baf5 d8bd
00000120: cab9 bbbd b21b 62bd cfd5 033d 681d 28bd
00000130: 9622 ebbd 88ee 9d3d 4cdb 3dbd d7dc 7d3d
00000140: 1b4d 02bd 5f1d d6bd c801 55bd 0cb7 f8bb
00000150: e97a 8cbd 810d 7c3d 7f9a 47bc 25ba db3c
00000160: 79fc a63c 1840 933d 6072 243d 23c6 b5bc
00000170: 8afe 82ba a44b a2bc 314b dabd e1cd de3c
00000180: b67a 1c3d 6e95 1ebc 2aae 53bc 98cc 31bd
00000190: 9b22 823c 0c79 aabc 64f5 ecbd efaa bbbd
000001a0: c42f 1fbb a7e7 32bc 5217 27bd d5c4 823d
000001b0: 70af 6d3d 9b5f 193d 5d37 863c 673f 4f3d
000001c0: 17af 353c 4aa5 753d 0971 27bd c6fe 3abb
000001d0: 079b 38bd 10e8 db3c afbc 2dbd 1ac2 b4bd
000001e0: 5725 95ba 13c1 00bc 5144 7e3c 0163 56bd
000001f0: 01b5 87bd adef 3dbd a097 6cbd 734c 103d
00000200: 2f2c d93c aac5 923d aaca 5abd dc57 3bbd
00000210: d58c 07be c9ff e1bc d471 49bd 1d2d 79bc
00000220: da67 7e3d 9d76 73bd fe45 5b3c ce66 c7bd
00000230: 54e3 303e 163b 99bd 9cac 78bc 60c8 14bd
00000240: c378 7c3d 4518 3ebd 00fc 1b3d fbb1 fc3c
00000250: 624c 763d 1a7a 923c 8a9a 09bd a786 8dbb
00000260: 433d 6f3d 1e72 a0bd 9539 4dbc 3d04 24bd
00000270: 44dc 8bbd 8287 993d 4023 9dbd 0691 99bd
00000280: d723 28bd b6b4 b23d 7017 ab3d 169a 563c
00000290: 670b 523c 791f a83d 26f5 35be 6ef5 aebc
000002a0: b0cb 953d f6cb d9bd 48d3 61bd 5610 fe3d
000002b0: 6924 c23c 3f67 423d 8a12 523d 62dc 483d
000002c0: 89f9 cbbc f2a5 a83d 5582 99be 53eb 99bc
000002d0: a7e0 b1bd 3b7f 58be 5235 47bd 6ce4 8fbd
000002e0: 7752 9fbd 5455 9cbd 2a53 70bb 5e84 e73c
000002f0: f72a 2d3c 4475 853d 6ebc 9e3d c93c ba3c
00000300: 2eab d93b 3d39 d53d 4685 d73c 9fab a83d
00000310: ab6f f4ba 2e2a 8b3d 9494 0f3d e935 1fbc
00000320: 3511 52bd 450d 76bb 5eeb 893d f5e7 3bbe
00000330: ef7e f13b 1ff5 543d 6455 bc3d b3f4 8a3d
00000340: b32e fc3b 0b6a 04be 1078 6f3d 277a ca3d
00000350: 1c8e 243c 3bcb 733d 0ee4 7a3d fe93 98bd
00000360: 5b75 a2bd b56f 683d 4d15 5fbd 4342 60bd
00000370: 78bb 953d e19b 213d fdd1 b63d ebca 973d
00000380: 3c25 693d d102 b03d 8e3c a53d 7a91 a33d
00000390: de2b c83d af30 993d 4a75 823d 9d4c 823c
000003a0: 7933 1c3d c066 793e 66e5 09bd d24e 76bd
000003b0: 3ef4 1e3d 0e00 963c d17c c6bd 6c34 0e3e
000003c0: e48a 813d ce1d 573d fc55 903d af82 e83b
000003d0: 4138 203d 36be f13d c59c 993c 35b3 8f3d
000003e0: 29ae e5bb fc38 62bd c2a7 06bb ee65 e3bc
000003f0: 57d5 4f3d 0cf6 20bd 01eb 84bc 8881 483d
0.04010022 -0.064610474 -0.048175815 -0.003181065 -0.059767712 -0.05558017 -0.04170241 -0.07797907
0.019532334 -0.07256604 0.021081114 -0.02195812 -0.04666359 -0.07209185 0.023819625 -0.10950278
-0.082414836 -0.03988941 0.051701788 0.046901226 0.06405412 0.04411699 -0.023865778 0.022449393
0.04798941 -0.10804599 -0.006627083 -0.030598808 -0.06773361 0.019453807 0.016222706 -0.062146664
-0.113016345 -0.10069614 0.050195735 0.1097151 -0.006874077 0.02804487 0.0003007086 -0.045154948
-0.069645755 0.01631411 0.015418497 -0.08476929 -0.09701054 0.087134495 0.017618995 0.03512749
-0.052874673 -0.059761155 -0.020969247 -0.045658544 0.05105825 -0.010149161 -0.032594554 -0.045125354
0.024838086 0.020592807 0.031531315 -0.0024971133 -0.08138754 -0.08043121 -0.07285979 -0.09631902
-0.018020147 -0.036225438 -0.019129211 -0.10659244 -0.11598735 0.07782366 0.029802253 -0.105937436
-0.09166296 -0.055202194 0.032186326 -0.04104367 -0.11481206 0.07711512 -0.046351716 0.061978187
-0.031811815 -0.10454821 -0.05200365 -0.0075901803 -0.06859381 0.061536316 -0.012182831 0.026822159
0.02038406 0.07189959 0.04014814 -0.022189206 -0.0009994071 -0.019811459 -0.10658873 0.02719778
0.038202964 -0.0096791815 -0.012919942 -0.043408006 0.015885642 -0.020809673 -0.11570242 -0.09163462
-0.0024289945 -0.010919488 -0.040793724 0.06385199 0.05802864 0.037444692 0.016383821 0.050597575
0.011089108 0.059972085 -0.040879283 -0.0028533204 -0.04506972 0.026844054 -0.04241627 -0.088260844
-0.0011378926 -0.0078585325 0.015519218 -0.05234051 -0.06626321 -0.04637115 -0.05776179 0.035229158
0.026510326 0.07166608 -0.05341593 -0.045738086 -0.13237317 -0.027587788 -0.04918082 -0.01520851
0.06211076 -0.05943929 0.013383387 -0.09736405 0.17274219 -0.07481973 -0.015177872 -0.036323905
0.061638605 -0.046409864 0.038082123 0.030846586 0.060131438 0.017880488 -0.033594646 -0.0043190303
0.058408033 -0.07834266 -0.012525936 -0.040043104 -0.06829122 0.07496549 -0.07672739 -0.07498364
-0.041049805 0.08725874 0.0835408 0.01309826 0.012820101 0.08209128 -0.17769298 -0.021357264
0.07314241 -0.106346056 -0.055133134 0.124054596 0.023699002 0.047461744 0.05128721 0.0490383
-0.024899261 0.082347766 -0.29982248 -0.01878897 -0.08685427 -0.21142285 -0.048634835 -0.0702599
-0.07779401 -0.076334625 -0.0036670663 0.02826136 0.010569326 0.06516507 0.07750784 0.022734063
0.0066427207 0.10411308 0.026308667 0.08235859 -0.0018649002 0.067951545 0.035053805 -0.009717443
-0.05128594 -0.003754453 0.06734346 -0.18350203 0.007369868 0.05199158 0.091959745 0.06784954
0.0076959967 -0.12931077 0.05846411 0.0988658 0.010043647 0.059519988 0.061252646 -0.07450102
-0.0793254 0.056747157 -0.054463673 -0.054750692 0.073111475 0.0394553 0.08926771 0.074117504
0.056920275 0.08594287 0.080681905 0.07986732 0.09773992 0.07479989 0.06370027 0.015905673
0.038135026 0.24355602 -0.033666037 -0.060133763 0.038807146 0.018310573 -0.096917756 0.13887185
0.063253194 0.05251866 0.0704765 0.007095657 0.039116148 0.11803858 0.018751511 0.07016603
-0.007009287 -0.055230126 -0.0020546769 -0.027758565 0.050740566 -0.03929715 -0.01622534 0.048951656

fc3.bias f4 [64]
00000000: fc11 553c 677e a2bd 0296 96bd 3375 023e
00000010: e511 92bc 4e06 433d 2fb7 063d e3df 07bd
00000020: 5bdf b43d be11 413c b0eb 293e 3c67 93bd
00000030: 03ef 8bbd dd97 01bd 0242 a2bd ebf0 633e
00000040: 606d c9bc 25d0 633d 2ea5 97be e605 8bbd
00000050: 2e83 8a3d 2a59 a13d 4a2c 65be b705 5c3d
00000060: e6f7 ee3c aa6c be3b 2178 3a3c b84d acbc
00000070: 275b 29bd b805 e23d 2c93 bd3c 1d9d 7f3e
00000080: 142d c73c 7213 553c 1522 80bd 238a 913c
00000090: 3621 18bc 14e5 ed3d ebb1 773c c64e 0ebd
000000a0: 392b 43bd 2395 ff3c a0e3 dabc 360c 80bc
000000b0: 4f43 a9bd b6d8 02be 9459 b2bd ae26 a03a
000000c0: 63b4 bcbc 8c0e 86bc d7c3 b3bd 39ce 573d
000000d0: 5384 79bd 53c4 c2bd 4bf9 7cbe a26d 23bd
000000e0: 5aa9 c33c 3e71 643c 6656 26bc 9909 3ebd
000000f0: 4ddb 553c 3e3b 3c3d f7a9 a43e 34c7 2b3d
0.013004776 -0.079342656 -0.073528305 0.1274002 -0.017830798 0.047613434 0.03288954 -0.0331725
0.08831664 0.011784015 0.16593814 -0.07197425 -0.06832697 -0.03163897 -0.07922746 0.22259872
-0.024588287 0.055618424 -0.2961821 -0.067882344 0.06763302 0.07878335 -0.22380176 0.053716388
0.029170942 0.0058112936 0.01138118 -0.021033153 -0.041346695 0.11036247 0.023141466 0.24962278
0.024313487 0.013005124 -0.06256501 0.017766064 -0.009285262 0.11615959 0.015118103 -0.034743093
-0.047648642 0.031199044 -0.026719868 -0.015630823 -0.08264791 -0.12777981 -0.08708492 0.0012218559
-0.023035234 -0.016364358 -0.08777588 0.052686904 -0.06091721 -0.09510102 -0.24704473 -0.039899476
0.023884464 0.013943015 -0.010152435 -0.04639587 0.013052774 0.045954935 0.32160923 0.04193802

fc4.weight f4 [2, 64]
00000000: affd 643d bb83 883d 460d b1bd 16f9 9cbd
00000010: 86c3 703c f39e 0bbd d42c a23d b811 d7bc
00000020: 13a2 793c 5569 a3bd 8c73 23be 944a 083d
00000030: 1e39 a53d ecec 33bd 19d0 013d ee1a 9ebe
00000040: f9e6 84bd fc2a d53e 2ed7 e43e 344c f73d
00000050: 6fb9 a03d ed42 c9bd ef71 43be 1336 2f3c
00000060: c713 153d d24b 33bd 7a5a e73d d634 1f3d
00000070: ecd8 0c3e c346 efbd 0b5f 6d3e b03e 0ebf
00000080: a167 b0bd daea 42bd 37b9 37bd 0cf9 c03d
00000090: 23a5 2b3d efd9 a63d 30c5 9f3d 1667 133e
000000a0: 28c9 a6bd b744 a83d 159d 23bd 1052 833d
000000b0: e4ac e03c 9149 10be 17d3 bcbe cb14 563d
000000c0: b055 eb3d a8c6 afbc 402a 5fbd ce5d c1bd
000000d0: 607d 17bc 5f22 5dbe 0a31 063f a534 3dbd
000000e0: abb1 46bd 3038 983d b753 c9bd 91d0 fcbd
000000f0: 4723 2dbd 0f94 343d 73eb 35be 0235 813c
00000100: 956f 88bd 9db3 ecbd 06b9 393d fe31 ba3c
00000110: 4b87 273c 99a0 c3bc c595 03bc c854 d5bd
00000120: 9280 823e 68de e43d 91e2 953e ab58 ddbc
00000130: 6af9 42bc 0bca 1cbd 632b f1bd e33f 423f
00000140: 7d95 f93c 58ec fc3b c593 603e 225b 9fbd
00000150: c373 d13d 8e21 6d3d e4c4 96be 7a8b ae3d
00000160: 9cad edbd 678a c5bc 28db 1a3d 94d9 67bd
00000170: a6ba a63d ff09 ee3d bc2c d13e 2ac9 d63d
00000180: d370 ebbd 86cc 14bc 67b6 a9bc cad1 8ebd
00000190: 8203 b2bd cf42 e23e 69a6 5abb 0494 af3d
000001a0: a8b6 ad3d bacb 9a3d 5c51 a9bc 8286 e23d
000001b0: 52f9 b63d b24a 22be d2c0 00bc 955d ee3d
000001c0: 8010 e6bd d1d8 4fbe 9a0e a0bc 2e96 9ebd
000001d0: ddfb c73d 8f15 8e3d a4ed 903e f65b c43d
000001e0: 6cb9 c0bd 2f2b 17bf d86e 8abe 5f43 4ebd
000001f0: b693 b1be 2460 9dbe 1682 373e e72e dc3d
0.055905994 0.066657506 -0.0864511 -0.07664697 0.014695054 -0.034087133 0.079187065 -0.026253566
0.015236395 -0.07979075 -0.15962046 0.03327425 0.08067535 -0.04392712 0.031692598 -0.3087992
-0.06489367 0.41634357 0.4469542 0.120750815 0.07847869 -0.09827218 -0.19086431 0.010694045
0.036395814 -0.04377348 0.11296554 0.038868748 0.13754624 -0.116834186 0.23180787 -0.55564404
-0.08613516 -0.047587253 -0.04485437 0.09422502 0.041905534 0.08147036 0.078012824 0.14394793
-0.08143836 0.08216231 -0.039944727 0.064121366 0.02742619 -0.14090563 -0.368798 0.052265923
0.11490953 -0.021457031 -0.054483652 -0.0944172 -0.0092462 -0.21595143 0.5241858 -0.046192784
-0.04850928 0.07432592 -0.098304205 -0.123444684 -0.04226997 0.044086512 -0.17765598 0.015772346
-0.066619076 -0.11557696 0.045342468 0.022728916 0.010225127 -0.02388029 -0.008031313 -0.10416561
0.25488716 0.11175233 0.2927442 -0.02701982 -0.011900285 -0.03827862 -0.117758535 0.75878733
0.03046679 0.007718604 0.2193137 -0.07781054 0.10227158 0.05789333 -0.2944709 0.08522697
-0.11605379 -0.024113847 0.03780666 -0.056603983 0.08141069 0.11623 0.40854442 0.10487588
-0.11496129 -0.009081965 -0.020716859 -0.06973608 -0.08692075 0.44191596 -0.0033363348 0.085731536
0.084821045 0.07558389 -0.020668678 0.110608116 0.08934273 -0.15848807 -0.007858472 0.11638943
-0.11233616 -0.20297553 -0.019538213 -0.07743488 0.09764836 0.06937706 0.28306305 0.09587853
-0.094103664 -0.5905027 -0.27037692 -0.05035722 -0.34683007 -0.30737412 0.17920718 0.107511334

fc4.bias f4 [2]
00000000: 67f8 ec3d 2599 003e
0.115708165 0.1255842
