model_last.pth (torch, 72173 bytes, 8 tensors)

fc1.weight f4 [64, 9]
-0.5946714 -0.80702627 -0.33865103 -0.034011167 -0.044799417 0.31530538 0.16146813 -0.48759124
0.06925604 -0.12703416 -0.015040278 0.18659392 -0.1478992 -0.26416263 -0.20818906 -0.1750714
-0.2578497 0.22700325 -0.10742213 -0.25743717 0.385063 0.18841697 -0.3113405 0.26792714
0.42658496 -0.16517751 0.31098914 -0.2990163 -0.19233729 -0.39834496 0.3335306 0.18093699
-0.020306375 0.5003629 0.091587834 0.8814016 1.275168 1.1948831 1.0567133 -0.3194606
-0.06277548 0.22655134 -0.26326847 -0.80857134 2.0536497 -0.27667648 0.47710437 0.25842127
-0.23294862 -0.20770532 0.08810991 -0.15246746 0.08306826 0.22386196 -0.9237743 0.3911979
-0.26402497 0.15090957 0.099889666 -0.28192505 1.2388287 -0.29677135 0.23133819 0.50711334
0.40485117 0.27750194 -0.4255316 -0.032985598 0.2598957 -0.8115274 -0.5949959 -0.3175288
-0.03840056 0.31294665 0.034683317 0.12223473 -0.23812692 -0.11335051 -0.30673718 -0.16310239
0.025990456 -0.13264737 -0.32339412 -0.2530968 -0.29071197 -0.28070563 -0.20248592 -0.1964924
0.012334347 0.23749152 0.17458454 0.2430403 0.11142287 -0.10686955 -0.30043742 -0.12124249
0.033824712 -0.17356503 -0.18235736 -0.2283881 -0.47359553 0.122876175 0.29991493 0.14503749
0.32607803 -1.055513 -0.9067611 1.0279151 -0.051305503 -0.10327296 -0.016123176 0.21016815
-0.104855984 -0.092270225 -0.15358774 0.21955398 -0.16861665 -0.2548452 -0.20370746 0.22978213
0.08281779 -0.040577322 -0.15801036 -0.3225113 -0.15055935 0.093135744 0.94252425 -0.27258557
-0.29904246 -0.55763286 0.006389023 0.33013698 0.9184351 0.06460829 -1.7493219 0.32183164
-0.07123582 -0.14538682 0.27502367 -0.23278324 0.024884766 -0.25208095 -0.1399333 -0.1047561
0.84431946 -0.18504067 0.093778744 0.014960442 0.23535335 0.27429506 -0.38716766 0.34151232
-0.37069452 0.4013491 -0.41724908 0.34136638 -0.2707914 0.273084 -0.21350688 0.56373036
-1.1709887 -1.3872136 -0.26102456 0.22164461 0.19597223 -0.08215228 -0.009822458 -0.06452596
-0.023439437 -0.24631724 0.07546067 -0.5638662 0.15366535 0.18535331 0.0028498764 0.072581716
-0.2021865 0.6491716 -0.0077783256 0.47145343 0.71090627 -0.112045415 0.041061915 0.1185242
-0.1764472 0.208836 -0.6493651 0.37731853 -0.03488321 -0.9044321 0.39735758 0.1454103
0.11943023 0.20599021 0.29061255 -0.67414373 0.38458294 1.2486602 -0.25915295 0.24898925
-0.22073936 -0.31724942 -0.15314588 -0.23618814 -0.29034576 0.078877 0.04327619 0.8337179
0.9624213 0.6550817 -0.08894906 -0.017696524 0.15247686 -0.54327047 -0.4965753 0.036770534
-0.13081849 0.19139448 -0.31152937 0.3044912 -0.0028800964 -0.32053638 -0.082286924 -0.32814187
-0.024436474 -0.1999625 0.30508354 0.014531493 0.005732894 -0.11560297 -0.29442167 -0.3263728
0.15353212 -0.25083527 0.6899759 -0.06863704 -0.08103985 0.061902743 0.27060518 -0.3190536
-1.1057338 -0.0011460828 -0.67897123 0.16528447 -0.029724807 -0.15104932 0.25227734 -0.22601824
0.12271656 0.23372994 0.21331048 -0.31951407 -0.13359472 -0.28922912 0.04126966 -0.29726908
00000000: 633c 18bf 4699 4ebf ab63 adbe 4b4f 0bbd
00000010: 987f 37bd b56f a13e e757 253e 8fa5 f9be
00000020: 1cd6 8d3d 3e15 02be 806b 76bc 7a12 3f3e
00000030: e372 17be 5340 87be 832f 55be eb45 33be
00000040: e004 84be 8a73 683e 2200 dcbd cece 83be
00000050: fa26 c53e 61f0 403e 0668 9fbe bf2d 893e
00000060: 5869 da3e 4b24 29be f839 9f3e aa18 99be
00000070: 11f4 44be dff3 cbbe 86c4 aa3e 8c47 393e
00000080: 8e59 a6bc c817 003f 6792 bb3d 89a3 613f
00000090: b438 a33f eef1 983f 6242 873f 5790 a3be
000000a0: 6e90 80bd 13fd 673e 20cb 86be 88fe 4ebf
000000b0: ff6e 0340 8aa8 8dbe 0647 f43e cb4f 843e
000000c0: 158a 6ebe b4b0 54be f872 b43d 6e20 1cbe
000000d0: b11f aa3d 123c 653e 797c 6cbf 174b c83e
000000e0: 482e 87be 0a88 1a3e f492 cc3d 7b58 90be
000000f0: f091 9e3f 6af2 97be ebe3 6c3e 2ed2 013f
00000100: a748 cf3e bc14 8e3e 47df d9be e81b 07bd
00000110: 0d11 853e 42c0 4fbf a751 18bf 2393 a2be
00000120: e849 1dbd 8b3a a03e 1810 0e3d 3456 fa3d
00000130: 8bd7 73be 5024 e8bd a80c 9dbe 5004 27be
00000140: f0e9 d43c b6d4 07be ea93 a5be e795 81be
00000150: 33d8 94be a6b8 8fbe 7858 4fbe 4e35 49be
00000160: 0016 4a3c fa30 733e 4ac6 323e 8edf 783e
00000170: ac31 e43d 6cde dabd efd2 99be fc4d f8bd
00000180: c88b 0a3d 08bb 31be e3bb 3abe 92de 69be
00000190: 1d7b f2be 81a6 fb3d 738e 993e b584 143e
000001a0: b3f3 a63e 0d1b 87bf 7f21 68bf b992 833f
000001b0: b825 52bd c680 d3bd c014 84bc 5236 573e
000001c0: bcbe d6bd 2cf8 bcbd 1b46 1dbe c2d2 603e
000001d0: d8a9 2cbe 127b 82be b098 50be 024c 6b3e
000001e0: 609c a93d 6834 26bd 78cd 21be 3320 a5be
000001f0: 3b2c 1abe f4bd be3d 4549 713f 5690 8bbe
00000200: 181c 99be 07c1 0ebf 025b d13b b707 a93e
00000210: 901e 6b3f 5a51 843d c8e9 dfbf 1ec7 a43e
00000220: 16e4 91bd 48e0 14be e7cf 8c3e bb5e 6ebe
00000230: 23db cb3c c110 81be ad4a 0fbe 5e8a d6bd
00000240: 5225 583f 4d7b 3dbe 120f c03d a41c 753c
00000250: 7800 713e 6770 8c3e d73a c6be b4da ae3e
00000260: accb bdbe a17d cd3e aca1 d5be 93c7 ae3e
00000270: 2ca5 8abe abd1 8b3e 8ca1 5abe a250 103f
00000280: f5e2 95bf 3790 b1bf 03a5 85be cef6 623e
00000290: f2ac 483e 743f a8bd 60ee 20bc 3026 84bd
000002a0: 1004 c0bc 963a 7cbe 208b 9a3d 8959 10bf
000002b0: 735a 1d3e 42cd 3d3e fec4 3a3b b9a5 943d
000002c0: fa09 4fbe 1c30 263f 53e1 febb 5862 f13e
000002d0: f4fd 353f 1178 e5bd 8a30 283d d1bc f23d
000002e0: 93ae 34be 1bd9 553e cb3c 26bf e52f c13e
000002f0: b2e1 0ebd dd88 67bf 7472 cb3e 70e6 143e
00000300: d697 f43d 19ef 523e 2bcb 943e af94 2cbf
00000310: 0ee8 c43e 19d4 9f3f b2af 84be 0af7 7e3e
00000320: 8009 62be 846e a2be 46d2 1cbe 4edb 71be
00000330: 33a8 94be 448a a13d 6042 313d 896e 553f
00000340: 3e61 763f 6fb3 273f ed2a b6bd 4df8 90bc
00000350: e522 1c3e c613 0bbf 1e3f febe b39c 163d
00000360: 48f5 05be eafc 433e c780 9fbe 45e6 9b3e
00000370: 00c0 3cbb 581d a4be 0c86 a8bd 3602 a8be
00000380: 002f c8bc f8c2 4cbe e933 9c3e 8015 6e3c
00000390: 00db bb3b 40c1 ecbd 70be 96be 561a a7be
000003a0: 8637 1d3e 7b6d 80be 43a2 303f 9491 8cbd
000003b0: 39f8 a5bd bb8d 7d3d c38c 8a3e fe5a a3be
000003c0: af88 8dbf 2838 96ba 0fd1 2dbf 5540 293e
000003d0: 7081 f3bc acac 1abe 7f2a 813e 5371 67be
000003e0: d252 fb3d e756 6f3e 106e 5a3e 5997 a3be
000003f0: 0ecd 08be d715 94be 600a 293d a733 98be

fc1.bias f4 [64]
-0.015613765 -0.05136493 0.14787549 -0.21947907 0.09176287 -0.3091507 -0.26158386 -0.12642288
-0.22739685 -0.31543416 -0.1606776 -0.15272716 0.10440555 -0.046536475 -0.35027945 0.3065331
-0.15012722 0.0410923 -0.13657641 0.17342992 -0.2577919 0.37205318 -0.12900662 -0.30009753
-0.17460422 0.16679898 0.137288 0.2690807 0.2925649 -0.20169196 -0.22346735 -0.101614
-0.2945554 -0.18345188 -0.1479174 -0.43783888 0.06669243 -0.026932752 -0.20583826 -0.22430459
0.12977979 -0.14928325 -0.14605735 0.14409438 -0.17191958 -0.03582275 -0.49687564 0.19354746
0.28937957 -0.2411128 -0.13859719 -0.31741875 -0.31898814 0.08237482 0.030567646 -0.11964079
0.23480281 0.17522153 0.09256661 -0.120212354 0.23534252 -0.30178756 -0.31956086 0.182814
00000000: e1d0 7fbc 0864 52bd ac6c 173e 1fbf 60be
00000010: 2cee bb3d 0049 9ebe 52ee 85be 0075 01be
00000020: b8da 68be 9680 a1be ab88 24be 8264 1cbe
00000030: 94d2 d53d 089d 3ebd d457 b3be e8f1 9c3e
00000040: f3ba 19be 6650 283d b0da 0bbe 9d97 313e
00000050: 4dfd 83be c17d be3e 501a 04be 62a6 99be
00000060: 73cb 32be 5acd 2a3e 3a95 0c3e f2c4 893e
00000070: 11cb 953e 5688 4ebe a0d4 64be 001b d0bd
00000080: f7cf 96be cfda 3bbe a977 17be 6b2c e0be
00000090: 0a96 883d 13a2 dcbc 44c7 52be 1ab0 65be
000000a0: fee4 043e b5dd 18be 0f90 15be 7a8d 133e
000000b0: b00b 30be e0ba 12bd 7c66 febe 4e31 463e
000000c0: 8f29 943e 46e6 76be 6cec 0dbe b684 a2be
000000d0: 6a52 a3be 21b4 a83d 0069 fa3c 3b06 f5bd
000000e0: 2670 703e 466d 333e 9093 bd3d e531 f6bd
000000f0: a1fd 703e e683 9abe 7b9d a3be 9833 3b3e

fc2.weight f4 [128, 64]
0.061586954 -0.04394771 -0.11572854 0.093950674 -0.0040121316 0.095016375 0.060648285 -0.053175103
0.009566024 -0.02478993 0.007883951 -0.054270968 0.055061832 -0.10438411 -0.1257938 -0.10191317
0.011359806 0.01418608 -0.112827405 -0.07030034 -0.08030716 0.12593976 0.067345574 -0.06624903
-0.019867674 -0.06210126 -0.00857472 -0.15098491 0.05859928 -0.06182246 -0.050223053 -0.10675514
-0.015156034 -0.039260622 -0.09989418 0.09924829 -0.054303173 -0.053227503 0.07842456 0.123137034
-0.031313255 0.050297238 0.073897265 0.10254191 -0.032863095 -0.12291673 -0.101995885 0.024558475
-0.7444538 0.09277737 0.00073173526 -0.08457835 0.0777632 0.07992207 -0.123815134 -0.0275417
0.0020435154 -0.0034724325 0.040459767 -0.11915567 -0.030290628 -0.10385868 -0.053156585 0.01002351
-0.008672802 0.07070388 0.08232585 -0.026750254 0.0036978268 0.025961217 -0.10260232 -0.059721142
-0.003808111 0.014104396 0.0043682605 0.078336634 -0.06146264 0.12498319 -0.10556831 0.08694301
0.08875885 -0.111985974 -0.033406585 -0.0047619445 -0.04255408 -0.06702197 -0.061993137 0.050146203
-0.11075932 0.021195188 0.11563246 -0.1454718 -0.028488055 0.077803604 0.008883581 -0.096221685
0.028957512 -0.09133484 0.050035167 0.085151 0.05696994 0.049272522 -0.089169964 0.0009023003
0.04790008 -0.046593875 -0.026246436 -0.13865477 -0.020373603 -0.0012405813 -0.0022539229 -0.08775535
-0.15099825 -0.08158779 -0.03744469 -0.031414926 0.078918815 0.11120027 0.09651415 0.024250243
0.09837885 -0.016566694 -0.025707982 0.10540167 0.036790594 0.0920772 0.06606582 -0.05200599
-0.034007058 0.04531315 0.08860152 -0.060192965 0.07083387 -0.040345546 -0.06659251 -0.039848864
0.032051668 -0.06532392 0.0817689 0.122777574 -0.119206995 0.051883876 -0.1116002 -0.039804254
0.11683353 -0.039717086 0.00039340556 -0.04062196 0.097895265 0.0077053555 0.04146707 -0.044765923
-0.076375395 0.04471749 -0.12042088 -0.1166478 0.0763571 -0.0062297387 0.061622456 -0.033052355
-0.051385947 -0.03124158 0.023117598 -0.055071954 0.028007625 0.062940314 -0.08108775 0.06970522
0.10938127 0.09027465 -0.01951097 0.003937948 0.020222504 0.0703495 -0.049447488 0.09103756
0.017889967 -0.0685008 0.016912688 0.08617538 -0.08889915 0.09515546 -0.017786711 -0.025292289
0.08127017 0.021920294 -0.067720585 0.07059694 -0.06264404 -0.002692492 -0.124788165 0.01023273
0.117087714 0.06395717 0.037777532 0.07803184 0.056338485 0.0027528584 0.09738807 -0.12661673
-0.017837614 0.028072461 0.057041377 0.07249682 -0.123517066 -0.048911706 -0.0013043556 0.1331671
0.041747183 -0.10552211 -0.046493277 0.11156818 0.017438412 -0.122825906 0.049392164 0.08260931
-0.11695637 -0.07488002 -0.09915189 -0.077185005 -0.06830442 -0.019378504 -0.110071614 -0.06612873
-0.029211057 0.050271045 0.109123535 0.06652025 0.096347824 -0.02480366 -0.026435407 0.10855324
-0.032231346 -0.01624665 0.050798442 -0.11336268 -0.15108466 0.009285778 0.08095031 0.05733974
-0.09075228 -0.030035987 -0.061338983 -0.117001995 -0.10663536 0.00024317908 0.106605574 0.059553865
-0.08577567 -0.10347223 -0.07474738 -0.009072357 -0.0038563842 0.037293807 0.0961981 -0.016445836
00000000: 9a42 7c3d 8402 34bd 1603 edbd 3669 c03d
00000010: 3378 83bb f297 c23d 566a 783d 23ce 59bd
00000020: d0ba 1c3c 4014 cbbc b02b 013c 3c4b 5ebd
00000030: 8488 613d 56c7 d5bd 17d0 00be dab7 d0bd
00000040: 7b1e 3a3c bb6c 683c 0e12 e7bd a0f9 8fbd
00000050: 1578 a4bd 5af6 003e 7aec 893d 92ad 87bd
00000060: 88c1 a2bc e45d 7ebd fb7c 0cbc ca9b 1abe
00000070: cc05 703d 8c39 7dbd b0b6 4dbd 70a2 dabd
00000080: 0451 78bc bfcf 20bd 5295 ccbd b042 cb3d
00000090: 016d 5ebd 1505 5abd 0e9d a03d 452f fc3d
000000a0: 5442 00bd 7a04 4e3d 7357 973d 7e01 d23d
000000b0: 749b 06bd c4bb fbbd 38e3 d0bd db2e c93c
000000c0: 8694 3ebf 1002 be3d ecd1 3f3a 6a37 adbd
000000d0: 5042 9f3d 2fae a33d ca92 fdbd 229f e1bc
000000e0: 80ec 053b c091 63bb 24b9 253d e307 f4bd
000000f0: 0d24 f8bc dcb3 d4bd b8ba 59bd a639 243c
00000100: 5e18 0ebc 32cd 903d 759a a83d 5923 dbbc
00000110: 3d57 723b 9eac d43c 2a21 d2bd 289e 74bd
00000120: 8091 79bb 2016 673c a023 8f3b f56e a03d
00000130: 40c0 7bbd 30f7 ff3d 3334 d8bd 2d0f b23d
00000140: 33c7 b53d e758 e5bd 58d5 08bd 160a 9cbb
00000150: 304d 2ebd d142 89bd 84ec 7dbd 1b66 4d3d
00000160: c8d5 e2bd 88a1 ad3c b6d0 ec3d 8ff6 14be
00000170: c85f e9bc 7f57 9f3d 708c 113c e00f c5bd
00000180: 4e38 ed3c c30d bbbd adf1 4c3d a663 ae3d
00000190: 5059 693d fcd1 493d be9e b6bd 5988 6c3a
000001a0: e032 443d 38d9 3ebd c402 d7bc 84fb 0dbe
000001b0: 8be6 a6bc 009b a2ba 8db6 13bb 14b9 b3bd
000001c0: 499f 1abe 8017 a7bd 9a5f 19bd f0ac 00bd
000001d0: 30a0 a13d f8bc e33d 36a9 c53d 72a8 c63c
000001e0: da7a c93d e0b6 87bc 8c99 d2bc d5dc d73d
000001f0: bcb1 163d f992 bc3d 844d 873d 3c04 55bd
00000200: fc4a 0bbd 489a 393d b774 b53d e68c 76bd
00000210: 5911 913d 5f41 25bd a761 88bd 9038 23bd
00000220: 9c48 033d 8cc8 85bd 7476 a73d cf72 fb3d
00000230: cc22 f4bd 3084 543d a58e e4bd c909 23bd
00000240: 6b46 ef3d 62ae 22bd 0042 ce39 3663 26bd
00000250: 507d c83d 357d fc3b 60d9 293d 795c 37bd
00000260: b46a 9cbd b029 373d 399f f6bd 0be5 eebd
00000270: 1c61 9c3d d622 ccbb d467 7c3d e861 07bd
00000280: 127a 52bd 58ee ffbc 1e61 bd3c 2193 61bd
00000290: 3f70 e53c dae6 803d 5611 a6bd 9cc1 8e3d
000002a0: 4a03 e03d eae1 b83d 78d5 9fbc e709 813b
000002b0: aaa9 a53c 6613 903d 7389 4abd e671 ba3d
000002c0: fb8d 923c 264a 8cbd 7a8c 8a3c b87c b03d
000002d0: c210 b6bd dee0 c23d 70b5 91bc c631 cfbc
000002e0: fa70 a63d 3092 b33c 17b1 8abd 2195 903d
000002f0: 854b 80bd 8574 30bb f090 ffbd 2ea7 273c
00000300: afcb ef3d fafb 823d 9dbc 1a3d 28cf 9f3d
00000310: 2fc3 663d 4d69 343b 6573 c73d d1a7 01be
00000320: 3020 92bc 38f8 e53c 38a4 693d 3679 943d
00000330: 84f6 fcbd a457 48bd e9f6 aaba f55c 083e
00000340: 18ff 2a3d fa1b d8bd bc6f 3ebd dc7d e43d
00000350: 00db 8e3c 268c fbbd 704f 4a3d 122f a93d
00000360: d286 efbd b25a 99bd 2510 cbbd 2c13 9ebd
00000370: 30e3 8bbd abbf 9ebc 3a6d e1bd 806e 87bd
00000380: 074c efbc 03e9 4d3d 297c df3d c53b 883d
00000390: 0252 c53d 0c31 cbbc 118f d8bc 2951 de3d
000003a0: 0405 04bd b217 85bc 0712 503d b12a e8bd
000003b0: f0b5 1abe 6023 183c 47c9 a53d 13dd 6a3d
000003c0: 55dc b9bd 080e f6bc 963e 7bbd be9e efbd
000003d0: a463 dabd e3fd 7e39 0654 da3d c1ee 733d
000003e0: 28ab afbd 40e9 d3bd 2815 99bd 39a4 14bc
000003f0: 64bb 7cbb 64c1 183d 8203 c53d 6bb9 86bc

fc2.bias f4 [128]
0.004115967 0.09861997 0.12642616 0.08351136 0.095900744 -0.07155379 0.03967739 0.15893288
-0.21934777 0.17652543 -0.043096147 0.11040049 -0.01846256 -0.06595066 0.13230383 0.027674539
-0.08151595 -0.03178993 0.006216142 0.08448093 -0.051063307 -0.024850288 -0.08526879 -0.124530874
0.17242011 0.052282605 -0.05117426 -0.08642962 0.12175707 -0.11806953 -0.04432294 0.117724
0.078870766 -0.046314 -0.043810114 0.08830324 0.012387074 0.09557071 -0.17230745 -0.09415592
-0.10639134 0.020258136 0.040269867 0.024571965 -0.16434361 0.17797954 -0.04446096 0.023889007
0.020514138 0.15261845 0.09400375 0.004183614 -0.05142291 0.050239883 0.034600254 0.06683495
0.04613665 0.052046627 -0.12212847 0.09700129 -0.034263417 -0.1423846 0.09475549 0.10849664
-0.06303355 -0.066641204 0.03495273 0.029192224 -0.09431173 -0.044540916 0.029323444 0.04899198
0.017739201 -0.0777978 0.006074507 0.03920573 0.08507265 0.07314791 -0.18415928 -0.048044242
-0.14834082 -0.038912922 0.113736756 -0.19004485 -0.044251464 -0.1504143 0.06673379 0.04441176
-0.08573164 0.019951938 -0.06265913 0.097941294 0.06033553 0.16595417 -0.10953765 0.054089386
0.13173227 -0.09400572 -0.12105304 -0.009784743 0.100006685 0.005569148 -0.1890946 -0.20334874
-0.10876694 0.07874351 0.1301954 0.10038583 0.03156832 0.038862005 0.00671044 0.110461414
-0.09553427 -0.13743384 0.09223202 -0.0039564422 0.010328682 -0.027682956 0.14803988 -0.07769959
-0.10625827 -0.12766317 0.0032183528 0.017165117 -0.049652472 0.075773224 0.10256791 -0.08072521
00000000: 3cdf 863b 44f9 c93d dc75 013e 0108 ab3d
00000010: 9c67 c43d cb8a 92bd c284 223d 4dbf 223e
00000020: b49c 60be 15c3 343e 9685 30bd a719 e23d
00000030: cb3e 97bc 2411 87bd a87a 073e b7b5 e23c
00000040: d6f1 a6bd 2836 02bd c7b0 cb3b 5604 ad3d
00000050: c227 51bd d592 cbbc 67a1 aebd 0b0a ffbd
00000060: e68e 303e 4926 563d 1a9c 51bd 0302 b1bd
00000070: c55b f93d 70ce f1bd f98b 35bd 4819 f13d
00000080: ff86 a13d c0b3 3dbd 3c72 33bd 54d8 b43d
00000090: 27f3 4a3c 94ba c33d 5d71 30be d2d4 c0bd
000000a0: b4e3 d9bd 64f4 a53c 04f2 243d 254b c93c
000000b0: b149 28be 4540 363e b21c 36bd e1b2 c33c
000000c0: 440d a83c 0348 1c3e 0a85 c03d b316 893b
000000d0: d4a0 52bd 56c8 4d3d ffb8 0d3d c3e0 883d
000000e0: c9f9 3c3d d82e 553d 7e1e fabd 9da8 c63d
000000f0: cc57 0cbd 45cd 11be 2b0f c23d 7d33 de3d
00000100: bc17 81bd 2f7b 88bd 982a 0f3d 8824 ef3c
00000110: 8226 c1bd 8970 36bd b837 f03c d0ab 483d
00000120: cd51 913c 7454 9fbd a80c c73b 3096 203d
00000130: 923a ae3d 92ce 953d 4094 3cbe 0aca 44bd
00000140: a8e6 17be 2863 1fbd d1ee e83d 1e9b 42be
00000150: 0641 35bd 3506 1abe baab 883d 1be9 353d
00000160: 1294 afbd 3f72 a33c 6e53 80bd 7295 c83d
00000170: 6422 773d e4ef 293e 4755 e0bd d58c 5d3d
00000180: d3e4 063e 1286 c0bd a8ea f7bd 3050 20bc
00000190: 4ed0 cc3d 667d b63b 04a2 41be a73a 50be
000001a0: 34c1 debd 4744 a13d f151 053e 1697 cd3d
000001b0: c84d 013d c42d 1f3d 40e3 db3b 9839 e23d
000001c0: 79a7 c3bd 75bb 0cbe 24e4 bc3d 0ba5 81bb
000001d0: a239 293c 5ec7 e2bc c497 173e f620 9fbd
000001e0: f09d d9bd 22ba 02be 00eb 523b dc9d 8c3c
000001f0: 6460 4bbd fe2e 9b3d 200f d23d 4253 a5bd

fc3.weight f4 [64, 128]
-0.030091027 -0.016292207 -0.0818159 -0.022683587 0.013433717 -0.07973642 0.08732081 -0.09054428
-0.037517734 -0.07440094 -0.013079694 -0.07689043 0.009818122 0.0052267513 0.066146195 0.04770569
-0.048525088 -0.07110488 -0.005290028 0.03229052 -0.018692534 -0.086053245 -0.07146083 0.042187147
-0.04278756 0.05277703 -0.017605651 0.047265213 -0.075262204 0.02469257 0.034726523 -0.018948104
0.074939944 0.04697547 0.027290978 -0.03740829 0.078874454 0.006129943 -0.065795206 -0.054968216
-0.090434946 0.06353306 -0.059513982 0.05688653 0.05770325 -0.0085616745 -0.019750595 0.03763441
0.057481226 -0.0070617697 0.012840025 0.0031303614 -0.012326717 0.028148443 -0.011693642 0.013219401
-0.08225647 0.02180855 -0.033578806 0.07844254 0.06662359 -0.060397945 0.021453327 -0.019383086
0.076436035 -0.086078316 -0.01404959 0.012410596 0.027468815 0.027416721 0.033759896 -0.025511242
0.07071111 -0.050646164 -0.018878693 0.08248354 -0.04992456 0.019038819 -0.047455225 -0.08605978
-0.0019453168 0.03732412 -0.09145224 0.058398366 0.06274476 -0.057608105 -0.08365579 0.07751617
-0.040248416 0.018625917 -0.050485622 -0.059853915 -0.05586686 0.016254628 0.014707238 0.06331754
-0.06548481 0.017004587 0.0110004395 0.07887673 -0.091739066 -0.004381972 0.025346275 -0.067327134
0.02322308 -0.07830185 0.047195196 -0.07387797 0.011179827 0.08000258 -0.009197071 -0.012428595
0.030552443 0.042026337 -0.059427455 0.051612847 -0.027299905 -0.058057174 0.044664305 0.07664909
0.014825784 -0.06498947 0.077280305 0.040589865 -0.06606724 -0.020258628 -0.012988448 -0.022787303
0.038287185 0.050868493 -0.012476046 -0.07877169 0.072694466 0.07969777 0.038608808 -0.06438561
-0.047545772 -0.02975128 0.06411006 -0.056360546 -0.00034236585 0.025897305 -0.11330379 -0.008899238
0.06782048 -0.079231314 0.054140292 0.05563442 0.061221216 0.03909043 -0.08442123 0.0007803825
0.0160413 -0.028846892 0.080667816 0.06797919 -0.0019248914 -0.0656683 -0.06612912 0.08980143
0.02331961 0.0071413293 -0.07722325 -0.031970523 -0.04547483 0.048453905 0.040685486 -0.011457719
-0.040446684 0.08229446 -0.042623196 -0.00094202213 -0.053235568 0.0007091488 -0.022175904 0.0051123165
-0.011372238 0.00024818757 0.01031563 0.021318803 0.08389432 -0.07242035 0.026590133 0.031815093
0.051326998 -0.025908466 0.019609138 0.052266438 0.0803486 -0.005775313 -0.058927123 0.039299883
-0.07489134 0.0849008 0.05210591 0.086326055 -0.002951029 -0.014183693 0.011154058 -0.06642266
-0.035218526 0.02035025 -0.101992875 0.015944809 0.00054894784 0.08043213 -0.09237229 0.04246072
-0.037713487 -0.008284328 0.019249871 0.0671538 0.10963699 -0.008172861 0.0454132 -0.07412994
0.07722298 -0.057088148 -0.0077646556 0.034730714 -0.014068775 -0.0530117 -0.022253158 -0.050272595
-0.020602452 0.033198804 0.090477146 0.038442932 -0.0049619023 0.005094826 -0.061325964 0.103559256
-0.086216174 0.08287251 -0.1000616 0.026558712 -0.0688706 0.07764322 0.05804769 0.048789587
0.07439126 -0.05165419 0.082126565 -0.080392644 0.049974807 -0.0433293 -0.05206671 0.08507585
0.0472197 -0.021442806 0.041329466 0.04307617 0.06692333 -0.043512512 -0.012616081 0.086112045
00000000: 7581 f6bc 3c77 85bc 188f a7bd eed2 b9bc
00000010: 1819 5c3c d94c a3bd 41d5 b23d 486f b9bd
00000020: 32ac 19bd 855f 98bd 364c 56bc bb78 9dbd
00000030: 30dc 203c 2b45 ab3b a877 873d 0b67 433d
00000040: 3ec2 46bd 6f9f 91bd f957 adbb 1043 043d
00000050: 1621 99bc af3c b0bd 0e5a 92bd 6ecc 2c3d
00000060: 0242 2fbd ba2c 583d ba39 90bc 2b99 413d
00000070: 1223 9abd 1348 ca3c 663d 0e3d 0e39 9bbc
00000080: 1d7a 993d 5a69 403d 5491 df3c 6f39 19bd
00000090: ee88 a13d b0dd c83b a3bf 86bd 5a26 61bd
000000a0: f535 b9bd 9f1d 823d efc4 73bd da01 693d
000000b0: 3e5a 6c3d 4446 0cbc 00cc a1bc 8a26 1a3d
000000c0: 6f71 6b3d 6b66 e7bb f85e 523c c026 4d3b
000000d0: 00f6 49bc 9097 e63c b096 3fbc 3096 583c
000000e0: 1576 a8bd d8a7 b23c ee89 09bd 7ba6 a03d
000000f0: f371 883d d663 77bd e3be af3c 47c9 9ebc
00000100: 7f8a 9c3d d449 b0bd 4030 66bc d055 4b3c
00000110: 4806 e13c 0899 e03c d147 0a3d f4fc d0bc
00000120: fdd0 903d 5a72 4fbd 7da7 9abc 21ed a83d
00000130: b27d 4cbd 4cf7 9b3c 6960 42bd 1c40 b0bd
00000140: 00fa feba 2de1 183d 504b bbbd 2033 6f3d
00000150: 5380 803d 7af6 6bbd ba53 abbd ccc0 9e3d
00000160: 86db 24bd 6195 983c 03ca 4ebd 6129 75bd
00000170: a6d4 64bd 6d28 853c a1f6 703c a0ac 813d
00000180: e61c 86bd 344d 8b3c 303b 343c 1f8a a13d
00000190: b1e1 bbbd a596 8fbb fea2 cf3c cfe2 89bd
000001a0: 543e be3c b85c a0bd c04f 413d 554d 97bd
000001b0: 982b 373c 65d8 a33d 50af 16bc 4ea1 4bbc
000001c0: 1e49 fa3c cf23 2c3d 346a 73bd fe67 533d
000001d0: 0da4 dfbc 5ccd 6dbd ebf1 363d 33fa 9c3d
000001e0: d8e7 723c 3319 85bd 2345 9e3d 8f41 263d
000001f0: 434e 87bd 6cf5 a5bc 80cd 54bc 70ac babc
00000200: 06d3 1c3d 7b5b 503d 5468 4cbc 0d53 a1bd
00000210: d6e0 943d 9638 a33d 4524 1e3d 9adc 83bd
00000220: 5bbf 42bd f5b8 f3bc 234c 833d 51da 66bd
00000230: 917f b3b9 9626 d43c d10b e8bd 1cce 11bc
00000240: 77e5 8a3d 0744 a2bd 36c2 5d3d ebe0 633d
00000250: 19c3 7a3d 491d 203d 0ae5 acbd 9592 4c3a
00000260: 0b69 833c 5150 ecbc 2b35 a53d ac38 8b3d
00000270: a34c fcba 1a7d 86bd b46e 87bd d0e9 b73d
00000280: c408 bf3c d001 ea3b 3927 9ebd 86f3 02bd
00000290: d143 3abd 9a77 463d d3a5 263d 28b9 3bbc
000002a0: 6cab 25bd ff89 a83d a995 2ebd 09f2 76ba
000002b0: 8a0d 5abd 2ce6 393a 3eaa b5bc 3885 a73b
000002c0: a052 3abc 2c1f 8239 e302 293c c5a4 ae3c
000002d0: c9d0 ab3d 1f51 94bd 8dd3 d93c 8b50 023d
000002e0: 423c 523d fe3d d4bc 58a3 a03c 5515 563d
000002f0: cf8d a43d d63e bdbb 915d 71bd eaf8 203d
00000300: a260 99bd 78e0 ad3d 026d 553d b7cb b03d
00000310: 0d66 41bb b862 68bc 83bf 363c 9b08 88bd
00000320: 4d41 10bd 91b5 a63c a4e1 d0bd b09e 823c
00000330: 44e7 0f3a 9ab9 a43d af2d bdbd 4beb 2d3d
00000340: 7579 1abd fdba 07bc e8b1 9d3c ee87 893d
00000350: 5c89 e03d 77e7 05bc 3103 3a3d 70d1 97bd
00000360: 1527 9e3d 43d5 69bd a76e febb cb41 0e3d
00000370: b880 66bc cc22 59bd 414c b6bc a3ea 4dbd
00000380: 79c6 a8bc 78fb 073d 154c b93d 5676 1d3d
00000390: 7497 a2bb 80f2 a63b ef30 7bbd e016 d43d
000003a0: 1b92 b0bd 10b9 a93d 19ed ccbd a891 d93c
000003b0: 070c 8dbd 6903 9f3d 6ac3 6d3d 97d7 473d
000003c0: 725a 983d 5893 53bd f931 a83d e6a4 a4bd
000003d0: 62b2 4c3d 107a 31bd e743 55bd 3f3c ae3d
000003e0: 7269 413d d3a8 afbc 1649 293d a370 303d
000003f0: 190f 893d 2d3a 32bd aeb3 4ebc 835b b03d

fc3.bias f4 [64]
-0.050497748 -0.04781151 -0.07701805 0.030503325 -0.09119096 -0.10424777 -0.056180533 -0.008864956
0.0036020149 0.087762125 -0.037519615 0.0075155958 0.06670206 -0.0051824525 -0.07269447 0.02151721
0.07230474 -0.06286981 0.04556995 0.10260003 -0.020926772 0.024498314 -0.011126019 0.02239012
0.03417768 0.0017769635 0.0040817335 -0.10779635 -0.07770807 -0.040412843 -0.1623468 0.055132944
0.06239616 0.028556492 -0.26793858 -0.032199163 -0.0024404963 0.008639231 0.083986625 0.17022917
0.0011093179 -0.14622748 -0.06121901 0.04099182 -0.10805931 0.09877593 -0.069593824 -0.012618313
0.0547485 0.048738886 0.06359149 0.07763996 0.07451659 0.00828888 -0.01717031 0.031191071
0.06346832 -0.06541858 0.089873515 -0.052589417 -0.06847003 -0.032015707 0.057503067 0.022871064
00000000: bad6 4ebd 00d6 43bd a4bb 9dbd 1ce2 f93c
00000010: 53c2 babd db7f d5bd 8f1d 66bd 523e 11bc
00000020: c80f 6c3b a1bc b33d 2bae 19bd 6345 f63b
00000030: 179b 883d 90d1 a9bb d7e0 94bd dc44 b03c
00000040: 8214 943d e3c1 80bd 8ea7 3a3d f71f d23d
00000050: 9f6e abbc b0b0 c83c e849 36bc 7c6b b73c
00000060: e5fd 0b3d 00e9 e83a 10c0 853b 55c4 dcbd
00000070: 6925 9fbd f087 25bd 3d3e 26be 15d3 613d
00000080: 1e93 7f3d 4eef e93c 3f2f 89be 45e3 03bd
00000090: bcf0 1fbb 908b 0d3c 2e01 ac3d 8e50 2e3e
000000a0: 8866 913a a8bc 15be c9c0 7abd 0ae7 273d
000000b0: 334e ddbd 094b ca3d 3587 8ebd 0abd 4ebc
000000c0: f73f 603d 6da2 473d 413c 823d b301 9f3d
000000d0: 279c 983d 15ce 073c c0a8 8cbc 6b84 ff3c
000000e0: aefb 813d 2dfa 85bd 9b0f b83d 0068 57bd
000000f0: 043a 8cbd e722 03bd 5688 6b3d 195c bb3c

fc4.weight f4 [2, 64]
-0.002393456 -0.08101209 0.13847609 0.08554118 -0.088850774 0.03143863 -0.11241549 0.034899127
-0.036749817 -0.043186065 -0.082892574 0.011534471 0.08031469 -0.010825396 0.006968557 -0.008546334
-0.05417823 -0.10745772 -0.029523652 0.14399953 0.034988604 -0.09851809 -0.057358652 -0.023622543
0.07219103 -0.12096754 0.10396458 0.22895165 0.1405675 -0.042197466 0.0068369494 -0.018384827
-0.1182463 0.02100177 -0.17363048 0.023082625 0.082928695 -0.10686307 -0.101036824 0.12980537
-0.017135147 -0.19577199 -0.019526988 -0.038234055 0.6500056 0.12787184 -0.08099372 0.0034364422
0.03916067 0.09436029 0.0031708125 0.010910898 -0.12819858 0.12925656 0.06104408 -0.0022791415
-0.007744009 0.025000302 -0.06680848 -0.084203534 -0.053278297 -0.10324006 0.009126797 -0.1200655
0.034736928 0.13474554 -0.02076323 -0.08031112 0.095355876 0.12526311 -0.006940043 -0.058865882
-0.119396485 -0.11644717 -0.07380404 -0.008787125 0.13077183 0.0139568895 0.121018246 0.11047217
-0.08805003 -0.06798643 -0.0040240325 -0.0757988 0.04593567 -0.038882196 0.086794734 0.02057615
-0.086054824 -0.11974423 -0.08773135 0.118097104 0.1408026 0.045294568 0.38681474 -0.09357546
-0.11732125 -0.08686981 -0.033841968 -0.061437067 -0.090233654 -0.06559561 -0.08619442 0.12041053
0.17121492 0.03722979 -0.039498363 -0.027989313 -0.0075343605 -0.05600358 -0.049423628 -0.04615495
-0.07220033 -0.058237985 0.04197234 -0.05273242 -0.061825834 -0.11782222 -0.015165227 0.09337685
-0.097891815 0.11955954 -0.03601252 0.15641947 0.09139888 0.10882926 0.049792334 0.08742404
00000000: 87db 1cbb abe9 a5bd adcc 0d3e 3730 af3d
00000010: 65f7 b5bd cbc5 003d 183a e6bd 63f2 0e3d
00000020: fa86 16bd dfe3 30bd 95c3 a9bd 14fb 3c3c
00000030: 077c a43d 005d 31bc 7e58 e43b ec05 0cbc
00000040: fee9 5dbd cb12 dcbd 96db f1bc 9d74 133e
00000050: 3650 0f3d dac3 c9bd e8f0 6abd 1084 c1bc
00000060: e4d8 933d d4bd f7bd 62eb d43d 4d72 6a3e
00000070: edf0 0f3e 40d7 2cbd 7d08 e03b c79b 96bc
00000080: 1e2b f2bd e70b ac3c 30cc 31be c617 bd3c
00000090: 85d6 a93d 06db dabd 65ec cebd b3eb 043e
000000a0: 025f 8cbc 7478 48be 10f7 9fbc 509b 1cbd
000000b0: c466 263f d6f0 023e 09e0 a5bd ef35 613b
000000c0: f066 203d f83f c13d 68cd 4f3b a0c3 323c
000000d0: 7d46 03be d55b 043e 5b09 7a3d a65d 15bb
000000e0: 75c1 fdbb 6fcd cc3c e2d2 88bd e772 acbd
000000f0: 583a 5abd 866f d3bd 9088 153c e7e4 f5bd
00000100: 4f48 0e3d bcfa 093e a617 aabc 287a a4bd
00000110: f149 c33d f944 003e 4d69 e3bb 5a1d 71bd
00000120: 2586 f4bd db7b eebd 9326 97bd e0f7 0fbc
00000130: 0de9 053e 70ab 643c 6ad8 f73d 3c3f e23d
00000140: 9353 b4bd 783c 8bbd 08dc 83bb 673c 9bbd
00000150: 0b27 3c3d f042 1fbd 70c1 b13d 508f a83c
00000160: 833d b0bd 763c f5bd 7eac b3bd e5dc f13d
00000170: 8f2e 103e cc86 393d 950c c63e 7ea4 bfbd
00000180: 2046 f0bd cde8 b1bd e09d 0abd 6fa5 7bbd
00000190: 6ccc b8bd fe56 86bd b386 b0bd cc99 f63d
000001a0: f752 2f3e 447e 183d 09c9 21bd d849 e5bc
000001b0: cce2 f6bb 0364 65bd 6e70 4abd f90c 3dbd
000001c0: c4dd 93bd f48a 6ebd 30eb 2b3d f3fd 57bd
000001d0: 163d 7dbd c74c f1bd 9377 78bc 5d3c bf3d
000001e0: 817b c8bd a2db f43d dd81 13bd 6d2c 203e
000001f0: 562f bb3d e0e1 de3d 0cf3 4b3d 600b b33d

fc4.bias f4 [2]
0.03780434 0.018404223
00000000: b9d8 1a3d 74c4 963c
