model_last.pth (torch, 72612 bytes, 8 tensors)

fc1.weight f4 [64, 9]
00000000: 858d 743e 1b8f 6b3e 7d0c 0bbf 9e79 e7bb
00000010: d6ab 1cbe a24c 863e d190 4d3f c769 fa3e
00000020: 9a6b d6be f3d0 11bf 1668 a13e 34c3 61bf
00000030: df25 e5be 8040 443e f199 4abe a466 ac3e
00000040: a42b e9bd 7acc 7fbd a318 61be 8b03 313d
00000050: 8045 493c 6b97 9a3e 4081 7bbd f00d 8cbd
00000060: d86f 5dbe f60e 85bd 1857 6cbe 8064 1bbe
00000070: 085d 9cbe 4bc8 f43d 371b 933e 7b2b c6bd
00000080: ab70 dabc 406a eabc 070e 953e 7ed5 32be
00000090: 1f55 983f 3a7c 27bf c55b 2a3e b131 e0be
000000a0: a8fd 99be 63d3 4c3e 528a b1be fd70 ac3e
000000b0: 9a65 ebbe 08f1 4fbe 00e4 dd3a dbdf 8a3d
000000c0: 8b1a 2cbe 3b5b 47be f6ca 9ebd 1b80 d03d
000000d0: efa6 9c3e f8a1 04be ca06 ef3f 4138 913c
000000e0: 67a8 bcbd fc05 093f d747 123e 71ed 533e
000000f0: 7f0c 943d bc97 8c3f 66f2 ac3f 9a50 52be
00000100: bdf8 1e3e 2c91 80be d4ab a23e e534 49be
00000110: e306 073e 868f eb3e 62bb 35be bf59 fe3e
00000120: 967c fdbd 6bc1 03be abee e5ba 160d 1e3d
00000130: e0ea 72be 4cd1 9cbe 2b73 bd3d 2efc 04be
00000140: a0c1 4e3e 147c 2e3e 8a38 973e 7ffe 6a3e
00000150: e0d5 5a3e 407c bebe 7f1b 153e 1b19 453e
00000160: afd9 8d3e 5d83 503e 04eb 84be 569c 9fbb
00000170: c24a aabe fb7b b5bd 73e0 7ebe cb3d a6be
00000180: e068 96be a6cb a23d 787a 163e 1b34 a93e
00000190: b324 e43d fa93 22bf 99ab e83e 256f 52be
000001a0: c07a 283e dbc0 c3be ed23 f03c fe48 f9be
000001b0: a07b f33f e4bf 94bd 9ac9 0fbf a87b 743d
000001c0: fc8f 2d3e 5a92 32be 59e5 14bf 839f 833f
000001d0: dc9a 69bf 7a87 693f 886e 373f 0a07 663f
000001e0: 1cc2 333f bc63 193e c9fc 91be 630b 4a3f
000001f0: 19c9 403f 9efc acbf d121 1240 ab00 373f
00000200: b58b 92be 9e9c 78bd 0c75 7c3e 0181 45be
00000210: 36ec fe3e 238f 383f 0da6 5740 5e37 603f
00000220: 04d8 bd3e d529 b13f 0a31 ee3d 2bfe 953d
00000230: 1307 b43d 6b2d 9f3f 0d2e c73d c2eb 8e3f
00000240: 8641 963e 00f5 74be 3aca 073f 49ba 563e
00000250: 03d9 95be 6b0a 1d3e cd19 7bbf b6ba b0be
00000260: 27e8 b3bf 7250 a03f 9684 823f f248 16bf
00000270: 4e33 e8be 6c70 5a3e f29f 8e3d 640e 9e3f
00000280: 71a9 f63e 0cf1 6c40 7a36 4dbf 99ee c93e
00000290: 330b 513f 5463 673e 2e13 21be 522a ee3d
000002a0: 4ad9 5ebe a296 94bf 877f dcbf e228 57be
000002b0: 525e 853e cd9d 20be a077 b0bd 3e7c 9dbe
000002c0: 9f82 8b3e 1ddd 4c3f ca81 ecbe 7841 0dbd
000002d0: 6636 80bc 295b 6abf 03fd d8be 868c 043e
000002e0: 522a 503e cce1 b4bd 80e9 a23e 7f47 12bf
000002f0: 2fc6 aa3f 9277 63be 55d0 3bbf 5df8 a5be
00000300: 6c77 51be 7319 1d3c f850 5b3e afe6 053d
00000310: 49a4 e93e b3d2 6fc0 aba2 2dba 4095 9b3c
00000320: 9bc8 9a3e f677 53be c409 a7be ab6d 63bc
00000330: 00f7 643e a60d 863d 0bc3 303d 2b82 373d
00000340: 6ba2 7d3d 2b15 a93c 668c 82be 93d0 66be
00000350: db91 c7bd 0b75 553d 5689 61bb 3e96 53be
00000360: 4fa2 783f 2bd2 5ebf abc9 693e 3730 3dbe
00000370: e8b6 103e 06df bd3c e5d5 5e3d 5727 56bc
00000380: 8c38 9ebe 7609 b33e e4d0 2b3d d5dd 303f
00000390: cca7 173f e9a2 8d3d f6ea 58bd 9a47 63be
000003a0: 856f 04bf a568 c3bf e2f3 573f 0a32 2bbf
000003b0: 30f9 2c3e 4c26 12be 6872 7a3e 7aa7 4a3e
000003c0: 5069 f73e b422 1bbf 30d2 40bf a5ac ce3e
000003d0: 6388 2dbf db4b 143f acf2 593e 6fbc 2b3e
000003e0: 395c 1f3e de57 fd3e ba4c df39 59dc ccbf
000003f0: e631 42be 461e 963d 4c08 a0be 460d 0abe
0.2388211 0.23003809 -0.5431593 -0.0070640584 -0.15299925 0.2623034 0.802991 0.48908827
-0.41878968 -0.56959456 0.31524724 -0.8818848 -0.44755456 0.1916523 -0.19785286 0.3367206
-0.11385277 -0.062450863 -0.21982054 0.04321627 0.0122846365 0.30193648 -0.06140256 -0.06838596
-0.21624696 -0.06496994 -0.23080099 -0.15175056 -0.30539727 0.11952265 0.287317 -0.09676262
-0.026665052 -0.028615117 0.29112265 -0.17464253 1.1900977 -0.6542393 0.1663657 -0.43787912
-0.30076337 0.20002513 -0.34675843 0.33679953 -0.45975953 -0.2030679 0.0016928911 0.06780978
-0.16807 -0.19468395 -0.077535555 0.10180684 0.3059611 -0.12952411 1.8673947 0.01772702
-0.09211808 0.53524756 0.14285217 0.20696045 0.07228946 1.0983806 1.3511474 -0.2053856
0.15524574 -0.25110757 0.3177172 -0.19649084 0.13186221 0.46007937 -0.17747262 0.49677846
-0.123772785 -0.12866752 -0.0017542442 0.0385867 -0.2372241 -0.3062843 0.09250482 -0.12986824
0.2019105 0.1703952 0.29535323 0.22948645 0.2137065 -0.3720417 0.1456127 0.19247858
0.27705142 0.20362611 -0.25960553 -0.0048709316 -0.3326016 -0.08861538 -0.24890308 -0.3246902
-0.29376888 0.07948999 0.14695156 0.33047566 0.11139812 -0.63507044 0.4544342 -0.20550211
0.16453075 -0.38233075 0.029314006 -0.486885 1.9022102 -0.07263163 -0.56166995 0.05968824
0.16949457 -0.17438641 -0.58162457 1.0283054 -0.9125192 0.91222346 0.7165303 0.8985449
0.7021806 0.14979452 -0.28513172 0.78923625 0.7530685 -1.3514593 2.283314 0.71485394
-0.28622213 -0.060696237 0.24654025 -0.19287492 0.4978959 0.7209341 3.36951 0.87584484
0.3707887 1.3840891 0.11630447 0.07323869 0.08790412 1.2435735 0.0972558 1.1165698
0.29346865 -0.23921585 0.5304295 0.209695 -0.2926713 0.15336005 -0.98086244 -0.3451745
-1.4055222 1.252455 1.0196712 -0.58705056 -0.45351642 0.21331948 0.06964101 1.2348142
0.4817615 3.7022123 -0.8016125 0.39439848 0.81657714 0.22596484 -0.15729973 0.11629166
-0.21762577 -1.160847 -1.7226418 -0.2101169 0.26048523 -0.15685196 -0.08616567 -0.30758852
0.27248093 0.8002489 -0.4619277 -0.034486264 -0.01565094 -0.9154535 -0.42380533 0.1294423
0.20328644 -0.0883213 0.3181877 -0.57140344 1.3341731 -0.22213581 -0.73364764 -0.3241605
-0.20455712 0.009588587 0.21417606 0.0326907 0.45633152 -3.747235 -0.00066236657 0.018992066
0.30231175 -0.2065123 -0.32624638 -0.013881127 0.22359848 0.06545572 0.043154757 0.044801872
0.061922472 0.020639976 -0.2549774 -0.22540502 -0.097446166 0.052113574 -0.0034414134 -0.20662782
0.97122663 -0.8703944 0.22830836 -0.18475424 0.14132273 0.023177635 0.054403204 -0.013070903
-0.30902517 0.34968156 0.04194726 0.6908849 0.5924041 0.06915838 -0.05295845 -0.22195283
-0.51732665 -1.526631 0.8435651 -0.6687323 0.16891932 -0.14272422 0.24457705 0.1979045
0.48322535 -0.6059983 -0.7532072 0.40366092 -0.67786235 0.57928246 0.21283978 0.167711
0.15562524 0.494811 0.0004259104 -1.6004745 -0.18964347 0.07329993 -0.3125633 -0.13481626

fc1.bias f4 [64]
00000000: c47e 1bbe 9e84 78be 6b58 b8bd 861f b7bd
00000010: 9134 bbbe f64b a83d b21a 2f3e 92c9 03be
00000020: 6066 2abe 4c9b 883e 46fe 693e 2e6b a63e
00000030: 4f85 cebb 0841 0c3f a44c d9bb 787e 30be
00000040: 0ce0 8f3d fa92 363d 248d d73d 69c8 9f3e
00000050: 612f ea3e a83f cf3d 9605 ab3d deec 05be
00000060: 7dd7 8b3d d665 373e f5c0 54be e924 a33e
00000070: 5bda 833e ee9c 57be 72fb d43e 8095 88be
00000080: efce 053e a06a c9be 2d6a 90bd 4e92 40bf
00000090: 37ea 963e 8d57 cebe 29e7 f1bc 6b6b 97be
000000a0: ab28 95bd 8ac6 87be 9d2d ebbe 0a73 203f
000000b0: e043 d9bd 4e58 98bc e8ca 4ebe d7e3 053d
000000c0: e41a ed3c bc25 a83e 5c90 8b3b fe70 403f
000000d0: ae8d 02bf 51ff f6bd d041 033e a7fe c53e
000000e0: f6e7 aabd 7056 c5be dc9c 843b c44c 583e
000000f0: 2f60 99be 9668 c03d acc7 83bd 7616 3abd
-0.15185076 -0.2426934 -0.090012394 -0.089415595 -0.36563542 0.082176134 0.17100027 -0.12869862
-0.16640615 0.26680982 0.22850904 0.32503647 -0.0063025127 0.5478673 -0.0066314507 -0.17235744
0.070251554 0.04457376 0.10524967 0.31207588 0.45739272 0.10119563 0.08350675 -0.13078639
0.068282105 0.17909941 -0.20776732 0.31864098 0.2575253 -0.21055958 0.41598088 -0.2667656
0.1306722 -0.3933916 -0.070515014 -0.75223243 0.29475567 -0.4030117 -0.029529171 -0.2957414
-0.072831474 -0.2651866 -0.45933238 0.62675536 -0.10608649 -0.018596794 -0.2019459 0.032687988
0.028943487 0.3284129 0.0042591523 0.7517241 -0.50997436 -0.120604165 0.12818074 0.38670847
-0.08345024 -0.3854251 0.0040470194 0.21123034 -0.29956195 0.09394948 -0.06434569 -0.045431577

fc2.weight f4 [128, 64]
00000000: 9283 c1bd 8518 dcbd 0c4f 19bd 90bf d6bc
00000010: 179c 973e 2e9e f8bd fc01 b3bd e633 67be
00000020: 205c fc3d c3ad d3bd 1e47 f1bd 805e d3bc
00000030: 85f4 8cbd e3a9 a2bc a0fa 04be d407 603c
00000040: 1474 333e 3d98 9b3d f8c1 fabc 6a94 1fb9
00000050: db25 e53d 0dc1 0d3e 783f 14bd 866a f4bd
00000060: 01a1 fabc 032d f93c db12 a5bd aa87 d7bc
00000070: 3095 623c b607 efbd ecc0 803d b2cf 3f3d
00000080: 5a79 29be f8b4 323d 5187 a2bd e4c2 b6bd
00000090: 1c5f 123d 2615 2f3d 4d2f 02bd d087 603c
000000a0: 28dd 8c3d 5410 613d 7cb0 df3d 49d7 1ebc
000000b0: 18c3 273d 2c91 103c a012 473d cb93 633d
000000c0: 4a74 673d d108 523d 5146 0bbe ad61 8ebd
000000d0: 26c7 46bc 156e a73d 960f dc3d 27ac 023e
000000e0: be89 bcbd c47d 0cbe 3f59 553d f516 d33d
000000f0: 02f1 a33d acb5 873d 1fd4 663d c85c 5abd
00000100: bc8f c7bd b0a1 8dbd e0d5 b93b 4cc3 abbd
00000110: 063b a53d 38f5 85bc 884d 843d f4f4 9bbc
00000120: 789e 1a3d 6ed2 f8bd 18d1 7b3d 4e23 93bd
00000130: e0ab 8fbd 20b1 8abc 287e 19bd 8083 563d
00000140: 6940 963d 778f a1bd 0d0b 45bd a2a7 c33d
00000150: 986a a73c a091 ac3d ee3d c8bd 0854 9e3d
00000160: 28e0 973b 2028 e93b b693 b03d e97f 89bd
00000170: 74be 6cbd e8fb 36bd 680a 4fbd c2e3 5e3c
00000180: eeeb bcbd 86e2 c13d 64d6 a7bd 44bb 85bd
00000190: 2047 7abd cce4 f5bd 8766 a93d 3094 fdbd
000001a0: 2c9a a4bd 387d d03d 8347 233d 642d 5a3d
000001b0: 7094 bcbc f0fd a1bd 1931 f13b 42e1 f3bd
000001c0: 1543 79bd 395d 5c3c 8508 10bd 864d 8a3d
000001d0: c46b df3d d0c8 bdbd c290 873d b1a2 d93c
000001e0: e8da 10bd 12ba b83c 03af 9f3d be24 f23d
000001f0: c85b fd3d 68fa 6b3d e8d3 d5bc 0032 283b
00000200: 8c29 17be 8d1d cc3c 3c4a be3d 045d 1cbd
00000210: b8a2 d8bc d2a0 8d3d 3922 c4bd 7a17 26bc
00000220: 5c38 773d f9c8 f3bd d07e b63d becb f3bd
00000230: b3d5 87bd 649c 4e3d 36c1 8ebd 09e0 023e
00000240: 8bf5 1b3e ac6b 1e3e 9ae8 953d 4885 06be
00000250: 6907 23be d39c 993d 48eb a63d 8056 cdbd
00000260: 02fa b23d 2af0 28bd 5178 aa3d b88a c33d
00000270: 7234 873d 54ef bb3d aa94 95bd abf4 8b3d
00000280: 24e3 a33d 3b69 9f3d 1dd6 2bbd a587 4cbd
00000290: 8e8e bbbd 367d 5cbd 46fe a23d b764 d63c
000002a0: b6e0 d5bd efdc 97bd cf38 c13a 6269 39ba
000002b0: b2a7 d2bd 13c9 873d 8fa7 92bd 1c82 bf3b
000002c0: 3ff6 af3d 5c31 ffbd a447 a5bd e493 21bd
000002d0: 2826 9fbd 033c 1a3d 987a bd3d f90a 753d
000002e0: 346a 29bd 6e07 793c e1d3 80bc 6fda e2bc
000002f0: cab9 b83d 5685 903d d27c b1bb c83e 31bd
00000300: 7812 b33c f6a8 e4bd fc46 cc3d d8bd 91bc
00000310: 34e3 b43d b8b5 e03c faa4 eebd 78e1 97bc
00000320: 14da e1bd e875 42bd 40a6 ed3c 4898 d13c
00000330: e612 a23d fe29 c2bd 9496 8cbd 126c adbd
00000340: 0cc0 fabd 7c1b c23d 2caf d3bd c0a0 e0bc
00000350: 4435 013d 48a8 2e3d 484a 8dbc 4c32 5b3d
00000360: acc6 bebd e06f df3d 0098 fcbc 8e71 e53d
00000370: e063 5f3c 44af 21bd 8c44 4ebd 762b a43d
00000380: c25e 9fbd 20f6 e93b 2c87 1a3d 1cd5 7c3d
00000390: b26f c5bd 70b4 cabc 90b8 613d 545a b93d
000003a0: f4c2 8c3d 0049 2f3b 32f1 fbbd be81 ddbd
000003b0: 6c89 da3d c8f7 37bd 9824 edbd 5407 903d
000003c0: 500d 62bc 1097 9c3d c0dd b2bc ec48 b4bd
000003d0: b69c c9bd 0071 e8bb 1001 663d 0c3e c9bd
000003e0: f42d 173d 8093 7fbb 98cd 06bd 48e4 b9bd
000003f0: 6aaa fbbd 2825 17bd 28a3 de3c ca45 d53d
-0.09448923 -0.10746864 -0.0374289 -0.026214391 0.29611275 -0.121395454 -0.08740613 -0.22578391
0.12322259 -0.10335877 -0.11781143 -0.025801897 -0.06882576 -0.019856399 -0.12986231 0.013673741
0.17524749 0.075973965 -0.03061007 -0.0001521871 0.11188861 0.13843174 -0.03619334 -0.1193438
-0.03059435 0.030416971 -0.08060237 -0.026309807 0.013829514 -0.116713926 0.06286797 0.046828933
-0.16550198 0.043629616 -0.07935966 -0.08923891 0.035735235 0.042744778 -0.03178339 0.013704255
0.0687812 0.054947212 0.109223336 -0.009694883 0.04095754 0.008823674 0.048601747 0.05556087
0.056507386 0.05127794 -0.13601042 -0.06952224 -0.012132442 0.08175293 0.1074516 0.12760983
-0.0920596 -0.13719851 0.052087065 0.10307113 0.08004953 0.06626448 0.05635464 -0.05331114
-0.09744212 -0.06915605 0.005671248 -0.08386859 0.080678985 -0.016352281 0.064601004 -0.019037701
0.037748784 -0.12149511 0.061478704 -0.07184468 -0.070152044 -0.016930163 -0.037473828 0.052371502
0.07336504 -0.07888692 -0.048106242 0.09553458 0.02043657 0.08426213 -0.09777437 0.077308714
0.004634876 0.007115379 0.086219236 -0.0671385 -0.057798818 -0.04467383 -0.050547034 0.013604106
-0.092246875 0.09467034 -0.08195189 -0.06529859 -0.061102986 -0.1200653 0.08271509 -0.1238178
-0.080372185 0.101801336 0.03986312 0.053265944 -0.02302 -0.07909763 0.007360589 -0.11908199
-0.06085499 0.01344996 -0.035164375 0.06753068 0.109092265 -0.092668176 0.06619407 0.026566835
-0.035365015 0.022549663 0.07797053 0.11823414 0.123710215 0.057611853 -0.026102021 0.0025664568
-0.14761943 0.024916435 0.09291503 -0.038174644 -0.026444778 0.0691544 -0.0957684 -0.010137433
0.060356483 -0.11903567 0.08910906 -0.11904095 -0.06632557 0.050442114 -0.06970446 0.12780775
0.15230386 0.15470761 0.07319756 -0.1313678 -0.15920796 0.07500615 0.08150345 -0.10026264
0.087390915 -0.041244663 0.0832373 0.09547943 0.066018 0.091765076 -0.07303746 0.06833776
0.08002308 0.07783743 -0.04195224 -0.04993405 -0.091580495 -0.053830348 0.07958655 0.026171071
-0.10443251 -0.074151866 0.0014741662 -0.0007072893 -0.102858916 0.06630149 -0.071608655 0.0058443677
0.085918896 -0.124605864 -0.08070305 -0.03944768 -0.077709496 0.037654888 0.092518985 0.059824917
-0.04136105 0.015199525 -0.015726032 -0.027692048 0.090198115 0.07056682 -0.005416491 -0.043272763
0.021859393 -0.11165039 0.09974477 -0.01779072 0.08832398 0.0274304 -0.116525605 -0.018540129
-0.11027923 -0.047475725 0.029009938 0.025585309 0.07913761 -0.094806656 -0.06864658 -0.084678784
-0.12243661 0.094778985 -0.10336146 -0.027420402 0.03154494 0.042640954 -0.017247334 0.053514764
-0.093152374 0.1091001 -0.030834198 0.112032995 0.013634652 -0.039473787 -0.05035834 0.08016102
-0.077817455 0.007139936 0.037726566 0.061726674 -0.09640445 -0.024744242 0.055107653 0.09050432
0.06873122 0.0026746392 -0.12301864 -0.10815762 0.106707424 -0.044914037 -0.11579245 0.07032648
-0.013797119 0.076460004 -0.021834254 -0.08802971 -0.09844343 -0.007093549 0.056153357 -0.098262876
0.03690906 -0.003899783 -0.032910913 -0.09076744 -0.12288363 -0.03690067 0.027177408 0.10413702

fc2.bias f4 [128]
00000000: f482 973e d311 b5bd 6499 d23d 3eb8 f7bd
00000010: 80c2 e4bb b63c 953d 0af6 e43d 8768 b13d
00000020: 95a7 b53d 62f3 04be ebc1 cbbd 7e1f 89bd
00000030: 19ea 10bd 8d28 dabc 2086 9f3c 3ff0 80be
00000040: 912d 2a3e 8eea bc3b cc49 ac3d db13 e0be
00000050: 153e 16bd 9a33 85be a29a 16bf da34 d5bd
00000060: 4c5b 34be d9c8 693e a503 b83e d534 8bbd
00000070: cf24 bd3d 5712 ec3d 88fc 703d 188a c13d
00000080: 53ce 3c3d 3d1a 40be 932a 8abe b085 a2be
00000090: 1078 eb3c 1691 7dbe 44cd e7bd 74b3 41bd
000000a0: 4596 cc3d 0c63 213d 50d0 3abd 1e28 9cbd
000000b0: ea56 493d ec30 00bd 12c3 3d3c b4fa b83d
000000c0: a125 a0bd 21c3 87be 66b0 2c3e d0ed 53bd
000000d0: 956a 8b3e fa21 1e3e f4b1 113e 59c1 e13d
000000e0: b595 e3bc 4847 81bd 407d 3ebc c4d3 f6bd
000000f0: 394c f63d 4460 c03d 609c ac3d 2684 3d3d
00000100: 4c04 8ebd 9577 df3d 6919 2bbe c062 19bb
00000110: 185f 6a3d d9ae fb3d f408 81be fec6 6f3e
00000120: fac9 9f3d a02d 56bc 6840 dabd bb14 873c
00000130: 62d5 96bd c991 423e c4d4 c53e fd5d cc3e
00000140: e847 33bc 538d 9c3d ab1e 903d 9c19 b1bd
00000150: f94c 69be 6ffa ab3c e39b 7bbd 71d1 2a3e
00000160: f9c1 adbc 8e4d 9cbd 926e 593e 6066 abbb
00000170: bb03 9abe eae9 e8bc b37e eb3d 73f4 c2bd
00000180: 7051 933d 01fe 383d b0a1 41bd 9177 bfbe
00000190: 6a1f d13d c055 34bc 5298 cebd 1e70 83bd
000001a0: c2cf 9b3e 9e20 1ebe 82aa c43e 7e90 8a3e
000001b0: d16c debd 000e deba d746 233e 6252 f93d
000001c0: 5bc7 8dbc 206a a93d 923a 7e3d e489 f4bd
000001d0: 39e4 2f3d b8cb 1c3e 5545 a5be bd93 5ebb
000001e0: ea09 5cbd 2e8c 4b3d e651 d9bd 48f0 b3bd
000001f0: 4ad6 f9bd 003b 843d a23d 073e 8827 853c
0.29592097 -0.0884129 0.10283163 -0.12095688 -0.006981194 0.0728697 0.11179741 0.08662515
0.08869854 -0.12983468 -0.09949096 -0.0669546 -0.035379503 -0.026630664 0.019473135 -0.25183293
0.16618945 0.005765266 0.08412513 -0.4376515 -0.0366803 -0.2601593 -0.588297 -0.10410471
-0.17612952 0.22830524 0.3594028 -0.06797186 0.09235536 0.115269355 0.058834583 0.094501674
0.046095204 -0.18760009 -0.26985607 -0.3174262 0.028743774 -0.24762377 -0.11318448 -0.04729028
0.09989599 0.0394011 -0.04560882 -0.07624839 0.049155153 -0.031296656 0.011582153 0.09032193
-0.07819677 -0.2651606 0.16864166 -0.051740468 0.27229753 0.15442649 0.1422804 0.11023206
-0.027781347 -0.06312424 -0.011626542 -0.1205211 0.12026257 0.09393361 0.08428264 0.046268605
-0.06934413 0.1091148 -0.16708912 -0.0023404807 0.057219595 0.12289209 -0.25202143 0.23415753
0.07802196 -0.013072401 -0.10656816 0.016489377 -0.07364918 0.19000925 0.3863889 0.39915457
-0.010942437 0.07644143 0.070370995 -0.08647463 -0.22783269 0.02099344 -0.061427962 0.16681458
-0.021210657 -0.0763198 0.21233585 -0.00523071 -0.3008097 -0.028431851 0.11498775 -0.09519281
0.07193267 0.045164112 -0.047273338 -0.3739591 0.1021107 -0.0110067725 -0.100876465 -0.06417869
0.30431944 -0.1544213 0.38411337 0.27063364 -0.10860599 -0.0016941428 0.15944992 0.121739164
-0.017306974 0.08272195 0.062067576 -0.11940363 0.04294226 0.15312088 -0.3227946 -0.003396257
-0.053720392 0.049694233 -0.10611324 -0.087860644 -0.121990755 0.06456566 0.13207105 0.016254202

fc3.weight f4 [64, 128]
00000000: a0b1 96bb ec44 41bc 08b8 473d ddb1 73bc
00000010: 434d c63c 33c0 6abd e3c3 903d 29d9 b0bd
00000020: 6493 67bd c7d3 7d3d 65cd 80bd 4c0d a8bd
00000030: 2af4 813c 1be3 68bc edb9 b9bc eda7 433d
00000040: 57da c7bc bdeb ab3a b8a2 463d 4128 7cbd
00000050: 0b7f a6bd d9b4 15bd 5c02 5e3a 8190 fabc
00000060: a243 903c 1ddf b1bd afcf 553d 9f1f 823c
00000070: dfd0 8f3d ea6b 4abd f070 0b3d 77ce 8ebd
00000080: a8fb b7bd 05c2 60bc 6844 28bd cb96 dbbd
00000090: 008f 423d 75c3 dfbd 67f2 aabd dc9a 9b3c
000000a0: 85cf 9ebd 63af dfbd 74f3 35bd ee7c 233d
000000b0: 60b8 b03d b2d2 743d e94e 82bc fc80 e5bd
000000c0: a1dd 2fbd 376c 4e3d 2043 253c e9e6 98bd
000000d0: 211e 6ebc 71dd 91bd 8167 823d de15 a9bc
000000e0: 6360 edbd 3c7d 90bd dbf6 44bc 5c6b 5fbd
000000f0: 89b8 5d3d d949 b33d 9c5a 4ebd 81a1 e0bc
00000100: e9fa b5bd 8231 c83b 43b1 6fbd dcf2 c3bb
00000110: 3ec7 8fbd 56e5 a63d 8fd7 3b3d 34bd 683d
00000120: d9bf d83c 6d36 173d 2a84 6b3c 3e2a 5c3b
00000130: b80f 853b 55a8 0cbc 5ba1 93bd 6c00 58bb
00000140: 6f16 8bbd deb1 42bd ce47 4c3d 5fa8 95bc
00000150: c8df b83c 4228 e13b da98 e5bd 9242 f3bd
00000160: 98cf ebbc 3bae b4bd 8e48 a8bd 7ae2 0e3d
00000170: e946 8ebd 1524 063d ae76 85bd 5875 ea3b
00000180: 5c62 05bc e5b5 323c 8111 1b3d 46be eabd
00000190: 1a5f d5bc 3526 41bc f5f5 89bd 618f 63bd
000001a0: 160d 98bd a484 1dbd f807 5ebd 4d50 95bd
000001b0: 503b ff3c 732c 0dbd c0dd c9bb 50b3 b23c
000001c0: 4980 ddbd 2bdb 36bd 79c9 2bbc 62c3 e3bc
000001d0: aacd 27bd 12e8 a7bc 6422 7bbd 9f9c 0dbd
000001e0: f76f 613d d749 9dbc af91 97bd 7bd8 29bc
000001f0: bc6c 0e3d 9009 cb3c cdce 85bd 2b7c 913d
00000200: e5bc 523e 5e4b 043b 53d7 5dbd 39e4 2c3d
00000210: 3fca 183d af4f 263e 1635 163c 648d 3bbe
00000220: 19f3 0bbd d03a b1bc 7494 ec3c d158 043e
00000230: 2b83 4b3e 2072 96bd 911b 8cbd 1614 2c3d
00000240: d812 96bd c107 55bd 1407 b9bd b010 66bc
00000250: a697 03bd 4009 a93c 6fdd 923c a65e f3bc
00000260: ba30 e6bd c96f 043e 01bb e7bd bf33 da3d
00000270: 3a9c 2ebf ce11 18be 3354 0b3d c7e1 9fbd
00000280: 56a0 6fbd 32f0 133e 463d 033d e4a6 e7bd
00000290: c1c2 0abe 98d6 39bd f7d6 323d 1bab 793d
000002a0: 9981 dfbd 48b4 ee3d 4834 5f3c 59c7 8bbd
000002b0: 1321 5c3d def2 c63c a8c0 0c3e f3ef da3c
000002c0: 0924 9c3c 5161 15be 3201 30bd 2208 043d
000002d0: 921e 4bbe 31cb 1ebe 5501 943d a486 a23d
000002e0: a858 32bd 6a15 8fbc dd60 1b3d b7a5 1abc
000002f0: dfbe 0fbe 2e14 323d de5c 33bd 5dc7 72bd
00000300: 7408 a7bd c64e 8bbd 1e9d a33d b7e1 4dbd
00000310: 55fa f53c 215b c63d 88a9 b7bd ccd2 e63d
00000320: 281c 3d3e e6a3 ac3c 4535 b43d bddd a13e
00000330: 7363 a1bd 0127 2c3d b618 813d 959c e73c
00000340: 46ed 83be 514b 7d3c ad19 c0bd c5af 6abc
00000350: 5ae8 83be d8f9 f93d 7081 87bd d38c b2bc
00000360: 3b38 bdbc 7897 893d 9df0 d63d d997 87bd
00000370: 7b28 3fbe fdc3 83be a833 583e 71d1 ebbd
00000380: 70ef 17bd 7215 fa3c 83c9 81bc bfdb 953d
00000390: 4bb4 3e3e cedc 763d 1a50 ec3c b837 90bd
000003a0: 5f47 3bbd 9cd6 2cbe 5ee7 2b3d bfc6 c33d
000003b0: cb45 12bd 3f2b 393c ba28 19bd 913d cdbd
000003c0: 7d1e 46bd 4e61 ab3b c628 c63b abad 6bbd
000003d0: aec9 d1bc beb1 14be 0689 7ebe 6892 af3d
000003e0: 497e a33d 463d 7dbd 5502 95bd 1ada 1fbd
000003f0: b73f d03d 9db4 a93d 21de ca3d 7f5b 043d
-0.0045988113 -0.011796217 0.04875949 -0.014873949 0.024206763 -0.0573122 0.070686124 -0.0863517
-0.056537047 0.061969545 -0.06289176 -0.08205661 0.015863497 -0.014214302 -0.022671664 0.04776757
-0.024396105 0.001311652 0.048495024 -0.061561827 -0.081297 -0.036549423 0.00084689795 -0.030586483
0.017610375 -0.086851336 0.052200016 0.015884219 0.07022261 -0.04941932 0.034043252 -0.06972974
-0.089835465 -0.013718133 -0.041080862 -0.10722121 0.047499657 -0.10925952 -0.08347016 0.018994741
-0.07754425 -0.10922124 -0.044421628 0.039914064 0.08628917 0.059771247 -0.015906768 -0.112062424
-0.04293597 0.05039617 0.010086805 -0.074659176 -0.0145335505 -0.07122315 0.06367398 -0.02064031
-0.1159065 -0.070551366 -0.012021746 -0.054545745 0.054131065 0.0875432 -0.05037938 -0.027420761
-0.08885748 0.0061094174 -0.05851866 -0.005979879 -0.07020424 0.08149211 0.04585987 0.056821063
0.026458668 0.03691714 0.014374772 0.0033594514 0.0040607117 -0.008585055 -0.072085105 -0.0032959236
-0.06791388 -0.04753291 0.049873166 -0.018268762 0.022567645 0.006871254 -0.11210795 -0.11877932
-0.028785512 -0.08822294 -0.08216964 0.034883954 -0.06947119 0.032749254 -0.06516777 0.0071551017
-0.0081411265 0.010907625 0.03785849 -0.11462073 -0.026046325 -0.011788894 -0.06736366 -0.05555666
-0.07424371 -0.038456574 -0.05420682 -0.07290707 0.031156212 -0.03446622 -0.006160468 0.021814018
-0.10815484 -0.04464261 -0.010485047 -0.027803127 -0.04096762 -0.020496402 -0.061312094 -0.034573194
0.05503842 -0.019200249 -0.07400834 -0.010366554 0.034771666 0.024784833 -0.06533585 0.07103761
0.2057987 0.0020186524 -0.054160427 0.042209838 0.037302252 0.16241334 0.00916793 -0.18315655
-0.034167383 -0.02163449 0.028879382 0.12924506 0.19874255 -0.07345986 -0.068411954 0.042011343
-0.07327813 -0.052009348 -0.09034553 -0.014042065 -0.032127045 0.020634294 0.017927853 -0.029708218
-0.112397626 0.12933268 -0.11314965 0.10654401 -0.6820713 -0.14850542 0.034015846 -0.078067355
-0.058502518 0.14447096 0.032040857 -0.11311129 -0.13550855 -0.04537067 0.043662038 0.060954195
-0.10913391 0.1165548 0.013623305 -0.06825132 0.05374248 0.02428573 0.13745368 0.026725745
0.019060152 -0.14587905 -0.04296989 0.03223432 -0.1983588 -0.15507199 0.072268166 0.07935837
-0.04354158 -0.017466266 0.037934173 -0.009438924 -0.14037655 0.043476276 -0.043789737 -0.05927216
-0.08155909 -0.06802134 0.07988952 -0.050264087 0.030026594 0.0968535 -0.089678824 0.11270675
0.18467772 0.021074247 0.08799223 0.31614485 -0.078802966 0.042029385 0.06303541 0.028272906
-0.25766963 0.015459851 -0.09379897 -0.014324133 -0.25763208 0.12205857 -0.06616485 -0.021795666
-0.023098102 0.067183435 0.10495112 -0.066207595 -0.18667786 -0.25735465 0.21113455 -0.11514557
-0.03709358 0.030527804 -0.015843159 0.07317304 0.18623464 0.06026917 0.02884679 -0.070418775
-0.04572236 -0.16878742 0.041968696 0.09559392 -0.03571109 0.011301815 -0.037392356 -0.100215085
-0.04836892 0.0052301055 0.006047341 -0.05753867 -0.025608864 -0.14520928 -0.24856958 0.08572847
0.07983071 -0.061826013 -0.072758354 -0.039026357 0.10168403 0.082864024 0.09905649 0.03231382

fc3.bias f4 [64]
00000000: f8df 193d c434 743d fb22 053e 434a b63d
00000010: 6e95 773d ab02 bcbd 8239 5abc 021e 833d
00000020: d0d8 703d 5c2c a6bd 0195 16bd 914b 983d
00000030: 25f7 c9bb cb14 55bd cd1d 263d cd88 123e
00000040: 8c45 e7bc 9184 aebd 1b8b abbd da08 9ebd
00000050: b6e6 cabc 5b20 a83d e6b0 873d 49df 4a3c
00000060: 36ce 94bd dfd9 493d cdbe 573e f17f b43a
00000070: 6469 e13b 5ed4 12bd 4b7d 7b3d 995f 3bbc
00000080: 122b 093e ab71 a03d 82b1 20bd 3ddf 0e3d
00000090: 0aa4 a23d 0dfc 533b 888a afbe 24f9 8cbd
000000a0: dedf 39bc 86bc 2e3d 7e7e c23d 18d3 70bc
000000b0: c99f 8f3c f39a 03bd 74ab 5b3e 072d 333d
000000c0: 5ba8 3c3d 0573 493d e4ae 103d e9dc 5d3c
000000d0: a384 193d b116 8ebd 1c86 ef3e f760 5b3d
000000e0: 0b88 64bc 4f86 e23d a284 a3bc 5a66 173c
000000f0: 6777 d43d 2d62 c7bd 214c 12bd b678 32bc
0.03756711 0.059620634 0.13001625 0.08900883 0.06044524 -0.091801964 -0.013319375 0.06402208
0.05880052 -0.0811393 -0.036763195 0.07436288 -0.006163495 -0.052021783 0.040555764 0.14309998
-0.028231405 -0.08521379 -0.08376142 -0.07716532 -0.024768215 0.08209296 0.066255376 0.012382337
-0.07265894 0.049280044 0.21068878 0.001377104 0.0068790186 -0.03584706 0.061398786 -0.0114363665
0.13395336 0.078341804 -0.039231785 0.034880865 0.07941444 0.003234628 -0.34285378 -0.06883457
-0.011344878 0.04266026 0.09496783 -0.014698766 0.017532246 -0.032130193 0.21452123 0.043744113
0.046058994 0.049181957 0.03532304 0.013541439 0.037480008 -0.06937922 0.46782005 0.05355927
-0.013948451 0.110607736 -0.019960705 0.009240711 0.10374337 -0.097355224 -0.035717133 -0.010893038

fc4.weight f4 [2, 64]
00000000: d53a 9f3b d926 743e 9d82 d8bd d2b8 1a3d
00000010: 8cc2 5dbe e448 da3d 491d 9cbd c677 c8bd
00000020: 1301 9c3d 17eb 32be 57ba 20bc 8b02 ed3c
00000030: e270 70bd ada2 88bd f2e6 b93d 4e2c f03e
00000040: e0e6 4dbd 7cb3 c53d 4846 0cbd e30e b73c
00000050: 4faf a23d ee7b 253d 7f87 493d b442 633d
00000060: 911d 4abd 2dd2 d13c edd4 07bf c3b2 d73d
00000070: 8231 9a3d 7921 933e 16fb de3d 99f1 7d3d
00000080: eee9 10be 4e48 2f3e 1ae0 e0bd 323a b83d
00000090: 7c26 013e 2613 2abb cf2d 483f 1c1f aebd
000000a0: bedc 993d 703b f8bc 3f79 273e 8eb0 de3d
000000b0: 8746 c53d 5a0d fe3c a5d2 323e 754f a83d
000000c0: 9e91 67bd 8d6d 71bd ce4f adbc 9afa 103c
000000d0: 4544 89bd 29e1 353e 4a19 41bf 0e9a 833d
000000e0: 6c7f eebe bc38 a53d dd6d 28bc a68a 003e
000000f0: 5999 adbd d963 d93d 0843 baba af99 06be
00000100: fe5f ebbb e4fa 57bf 4c58 b13d a864 7cbd
00000110: 4bc8 673e 7999 9cbd 7fd0 a23d 3cd8 c0bc
00000120: 4464 643d 32ec 3dbe faf3 673f b93b e33d
00000130: 13ee 053b ce5a ecbd 6ebf 67bd ff4b 18bf
00000140: 4a4f 11be 60a5 4a3d 4f45 74bd 16ed 67be
00000150: fc4e 903d 8b8d fa3d 0f93 23bf b3f8 78bd
00000160: 907e 7bba b364 e5bd 6519 2abf 1b2b 003d
00000170: 78dc 27bd 1c3d adbe 25c7 b7bd e1a3 123e
00000180: 282a 623e 6f92 60bd e06c a4bd 93c6 39be
00000190: 895f 643d 7dbb 8a3c 1b77 813e a9f2 abbd
000001a0: 732c da3c d232 ffbd 4672 143e d2c0 e03d
000001b0: 437b ccbc a46d 96bd f614 c83e 3438 51bd
000001c0: a941 7ebd d66b 51bb 1b55 ebbd a4ce 91bd
000001d0: 0741 193d 2165 25bc 72b5 843e 66c1 2dbd
000001e0: bb50 99be 3596 adbd 23e1 cebc 66a9 6c3c
000001f0: d64e 9e3e 5e3c 6dbd c776 5dbd fc73 433e
0.0048593082 0.23842944 -0.105717875 0.037773915 -0.21656245 0.10658434 -0.07622773 -0.0978847
0.076173924 -0.17472492 -0.009810052 0.028931877 -0.058701403 -0.06671653 0.090772524 0.46908802
-0.050269008 0.096533746 -0.034246713 0.022345966 0.07943594 0.04040139 0.049201485 0.055483535
-0.049344603 0.025612915 -0.53059274 0.10532143 0.07528974 0.28736475 0.108877346 0.061997984
-0.14151737 0.17117426 -0.10980244 0.08995475 0.12612337 -0.0025951355 0.781949 -0.085020274
0.07512806 -0.03030178 0.16354845 0.10873519 0.09632593 0.031012226 0.17463167 0.0821828
-0.056535356 -0.058942366 -0.021156218 0.008848811 -0.067024745 0.17761673 -0.75429213 0.06425868
-0.4658159 0.08067462 -0.0102801 0.1255289 -0.08476514 0.106147476 -0.0014210651 -0.13144563
-0.007183074 -0.84367204 0.086594194 -0.06161943 0.22635 -0.0764646 0.07949924 -0.023540609
0.055759683 -0.18547133 0.90606654 0.110953756 0.0020436093 -0.11540757 -0.056579046 -0.5949096
-0.14190403 0.04947412 -0.05963641 -0.22649035 0.07046315 0.122340284 -0.6389627 -0.060784053
-0.00095937494 -0.112008475 -0.66445 0.03129111 -0.04098174 -0.33835685 -0.08973531 0.14320327
0.22086394 -0.05482715 -0.08028579 -0.18142156 0.055755172 0.016935105 0.25286183 -0.08395893
0.026632523 -0.12460865 0.14496717 0.109742776 -0.02496112 -0.07345131 0.39078492 -0.05107899
-0.062074337 -0.0031955144 -0.11490842 -0.07119492 0.03741553 -0.010094912 0.25919682 -0.042420767
-0.29944405 -0.08475915 -0.025253838 0.014444685 0.30919522 -0.0579189 -0.054068353 0.19087213

fc4.bias f4 [2]
00000000: 98ec f03d c1c3 87bc
0.11763877 -0.016572835
