model1_best.pth (torch, 72183 bytes, 8 tensors)

fc1.weight f4 [64, 9]
0.9551704 -0.10434967 -1.1275089 -0.5006694 0.07084625 0.14194714 0.7389304 1.1523237
-1.3581269 -0.314125 0.44778204 -0.18163297 -0.05729035 0.15283518 0.09786355 -0.95483494
-0.07429794 1.0854247 0.5101584 -0.34863803 0.027248332 -0.12107841 0.25771037 -0.21879794
-0.26297462 1.0821624 -0.13631286 0.6667671 0.25211203 -0.29569176 -0.058035422 0.2961876
0.27305156 -0.22668426 1.4713222 0.99283564 -0.113131806 -0.124916956 0.04244885 0.2711316
-0.07104671 -0.145957 0.23303434 0.0065928996 -0.14672339 0.22561672 0.25280896 0.09035811
0.2933487 -0.25804734 -0.08845422 0.31380334 0.26117846 -0.2743828 -0.172336 -0.36636218
0.18146671 0.020461861 -0.2360056 0.049636815 -0.13157672 -0.14383094 0.30500886 -0.018346667
-0.18404865 -0.28503 0.07797769 -0.23391645 -0.014815241 0.001883775 -0.25950605 -0.095637605
-1.5013424 0.6975344 0.42773002 0.30777708 0.24394792 0.27680162 -1.3021331 0.39034143
1.2472435 -0.40051085 0.25281826 -0.2564145 0.19233002 0.3243826 -0.174234 -0.78236085
1.3947464 0.83680844 -0.08756983 0.011926085 -0.06791851 -0.19018304 -0.11514072 -0.23117948
-0.006199926 0.0546861 -0.27648145 0.33831656 0.8045771 -0.11115605 -0.13493903 -0.1921932
0.3758995 0.5871912 0.1584725 3.1018157 -0.28484258 0.27800038 -0.16137783 -0.14482841
-0.15710092 -0.22425978 0.13066962 -0.00089147687 -0.16447064 0.3876185 -0.25564092 0.588524
-0.19881815 0.2145599 -0.18637669 -1.0701712 -1.1462842 -0.75891507 1.1284343 -1.1893716
-0.38176203 -0.37129733 0.11725204 0.15297401 1.5285887 -0.45526698 -0.8978746 -0.0042652786
-0.07305157 -0.057865262 -0.29307985 -0.3015649 -0.1997116 -0.059680343 -0.13613236 0.029678494
0.038173795 0.098342806 0.27538547 0.03142667 -0.11014244 -0.27627522 -0.01178363 -0.29399964
-0.16791472 0.20722017 -0.32949635 0.1282965 -0.327607 -0.22187917 -0.035177827 -0.06453657
0.16384196 -0.10310325 1.1370661 0.93533736 0.90508366 -0.28760636 0.016943771 0.0036157689
-1.0234089 -0.22249606 -0.8102036 -0.93091184 -0.68552685 -0.04343423 0.31799912 0.03640416
-0.1011248 0.16969013 -0.48687723 1.7874906 -0.13694951 0.7825915 -0.11475137 0.14073043
0.1320289 0.057023566 -0.3546261 0.67522454 0.67349505 -0.8646096 0.014858077 -0.5023536
-0.2849289 0.08602938 0.06686356 0.4485939 -0.54737383 -0.3157724 1.3701049 0.20208746
0.73118305 -0.28385687 0.07418982 -0.14139444 1.3190287 -1.2525691 -2.092346 -0.9628293
-0.23330407 -0.22884408 -0.019622225 0.2959289 0.012849964 0.22781499 -0.73507255 0.14212927
-0.5077235 -0.13052274 0.16557412 0.0060368124 -0.17339063 0.35939533 -1.0840471 0.71705514
-2.3450046 -0.07095313 0.27268782 -0.001765579 -0.15242362 -0.0843091 -0.25326476 0.16833916
-0.017006606 0.1755329 0.2960808 -0.10447025 0.044048756 -0.2260186 -0.17594478 -0.04183027
0.0015176237 0.08328259 -0.14806005 -0.79101825 -0.9444405 -0.1988763 -0.06564668 0.17742445
-0.36863625 0.48896223 -1.3564756 0.37160984 0.3106577 0.31733587 -0.26168033 0.30589947
00000000: 0c86 743f 48b5 d5bd 3652 90bf df2b 00bf
00000010: d717 913d 975a 113e 8b2a 3d3f 587f 933f
00000020: 1ad7 adbf fed4 a0be b043 e53e fefd 39be
00000030: 49a9 6abd d380 1c3e af6c c83d 1070 74bf
00000040: 8529 98bd 32ef 8a3f be99 023f af80 b2be
00000050: e537 df3c f5f7 f7bd 9df2 833e 910c 60be
00000060: 9ca4 86be 4c84 8a3f 9995 0bbe 40b1 2a3f
00000070: d414 813e e964 97be 8db6 6dbd e7a5 973e
00000080: 6acd 8b3e eb1f 68be 4954 bc3f 7a2a 7e3f
00000090: a6b1 e7bd 76d4 ffbd d8de 2d3d c3d1 8a3e
000000a0: f080 91bd c075 15be 8ea0 6e3e 4009 d83b
000000b0: a83e 16be 1208 673e 2d70 813e ac0d b93d
000000c0: cd31 963e c81e 84be 7c27 b5bd d5aa a03e
000000d0: 2fb9 853e e77b 8cbe d978 30be d393 bbbe
000000e0: 69d2 393e a29f a73c 74ab 71be f94f 4b3d
000000f0: 0cbc 06be 6b48 13be 1f2a 9c3e c04b 96bc
00000100: 4077 3cbe 74ef 91be c4b2 9f3d cb87 6fbe
00000110: a0bb 72bc 00e9 f63a fadd 84be a6dd c3bd
00000120: fd2b c0bf 9d91 323f 6eff da3e f594 9d3e
00000130: 7ccd 793e f1b8 8d3e 4cac a6bf d5da c73e
00000140: ada5 9f3f c20f cdbe 6571 813e c348 83be
00000150: 29f2 443e 7a15 a63e 666a 32be cd48 48bf
00000160: 0d87 b23f 1439 563f d057 b3bd a065 433c
00000170: dc18 8bbd 58bf 42be e6ce ebbd 50ba 6cbe
00000180: c028 cbbb 88fe 5f3d fa8e 8dbe d437 ad3e
00000190: c4f8 4d3f c8a5 e3bd 752d 0abe 4bce 44be
000001a0: e675 c03e 2a52 163f 9d46 223e 2684 4640
000001b0: e3d6 91be 1156 8e3e 3b40 25be e64d 14be
000001c0: 10df 20be 5ba4 65be 42ce 053e 00b2 69ba
000001d0: fe6a 28be ef75 c63e 5ee3 82be 82a9 163f
000001e0: fc96 4bbe 97b5 5b3e 88d9 3ebe 5ffb 88bf
000001f0: 71b9 92bf 4248 42bf 8970 903f 543d 98bf
00000200: 5076 c3be af1a bebe d621 f03d 38a5 1c3e
00000210: cba8 c33f c118 e9be 1cdb 65bf c0c3 8bbb
00000220: 109c 95bd 2004 6dbd 900e 96be b766 9abe
00000230: 3381 4cbe 6073 74bd 4866 0bbe 5020 f33c
00000240: 205c 1c3d f467 c93d 53ff 8c3e 40b9 003d
00000250: 5c92 e1bd f273 8dbe 2010 41bc 1f87 96be
00000260: d6f1 2bbe 8631 543e bfb3 a8be 2860 033e
00000270: 1bbc a7be 4b34 63be a016 10bd c02b 84bd
00000280: 30c6 273e cc27 d3bd 628b 913f 4572 6f3f
00000290: 90b3 673f 2441 93be aacd 8a3c 89f6 6c3b
000002a0: 10ff 82bf 02d6 63be 8169 4fbf 3d50 6ebf
000002b0: b07e 2fbf 17e8 31bd c8d0 a23e 871c 153d
000002c0: 851a cfbd 40c3 2d3e f947 f9be 7ecc e43f
000002d0: 7e3c 0cbe eb57 483f c402 ebbd a31b 103e
000002e0: 9532 073e 8b91 693d 8d91 b5be 84db 2c3f
000002f0: 2c6a 2c3f 0e57 5dbf 4b6f 733c 3f9a 00bf
00000300: 33e2 91be 2c30 b03d c3ef 883d 1aae e53e
00000310: b120 0cbf ecac a1be 995f af3f 04f0 4e3e
00000320: d02e 3b3f b055 91be d5f0 973d b4c9 10be
00000330: efd5 a83f 2f54 a0bf ffe8 05c0 fb7b 76bf
00000340: 43e7 6ebe 1a56 6abe cabe a0bc fe83 973e
00000350: a888 523c 5548 693e b72d 3cbf 568a 113e
00000360: 2bfa 01bf c1a7 05be 438c 293e 74d0 c53b
00000370: 508d 31be aa02 b83e 0ec2 8abf ed90 373f
00000380: 8e14 16c0 e04f 91bd bd9d 8b3e 006b e7ba
00000390: f014 1cbe 40aa acbd ebab 81be 1a61 2c3e
000003a0: 7051 8bbc e6be 333e e797 973e 80f4 d5bd
000003b0: 786c 343d 6b71 67be de2a 34be 3856 2bbd
000003c0: 00eb c63a 1090 aa3d 0e9d 17be 2c80 4abf
000003d0: dac6 71bf 3ba6 4bbe c471 86bd c1ae 353e
000003e0: e4bd bcbe 4259 fa3e fea0 adbf a543 be3e
000003f0: 870e 9f3e d979 a23e f7fa 85be db9e 9c3e

fc1.bias f4 [64]
-0.5667155 0.115663916 0.07893733 0.34700733 0.2979206 -0.16543314 0.2949359 0.22435406
0.25924367 0.1619161 -0.07283178 0.015647827 0.12671807 -0.19298321 -0.16164717 -0.25393674
0.11147103 -0.20632796 -0.24139103 0.09342092 0.00082833413 -0.28587663 -0.22207338 0.32286164
-0.3037655 -0.015195489 0.29100648 -0.12373481 0.112338215 -0.20635593 0.5716684 0.04357681
0.2791082 0.051073164 -0.19936912 -0.47230226 -0.28742597 0.116517514 -0.21676031 0.03598693
0.18367732 -0.25218743 0.38282612 -0.2969616 0.045541435 0.12504913 -0.06474564 0.007348454
-0.16550896 0.24175633 0.018382054 0.10234848 -0.12565123 -0.05177167 0.18327156 0.3235717
0.08903582 0.1425406 -0.30667102 -0.013992979 -0.031707074 0.12477953 0.19196853 0.25216395
00000000: 4414 11bf 34e1 ec3d e5a9 a13d f2aa b13e
00000010: 0d89 983e 4e67 29be d701 973e 12bd 653e
00000020: 96bb 843e 56cd 253e d428 95bd df2f 803c
00000030: 62c2 013e 649d 45be d686 25be ff03 82be
00000040: ec4a e43d a347 53be 362f 77be 7853 bf3d
00000050: 9024 593a 6c5e 92be 3467 63be 1f4e a53e
00000060: 2787 9bbe 80f6 78bc cdfe 943e ad68 fdbd
00000070: 9411 e63d f84e 53be dc58 123f 997d 323d
00000080: 45e7 8e3e 1832 513d 6b27 4cbe 9ad1 f1be
00000090: 7f29 93be bca0 ee3d 6af6 5dbe 0867 133d
000000a0: e815 3c3e b61e 81be c901 c43e 5a0b 98be
000000b0: a889 3a3d e10c 003e 5d99 84bd 4dcb f03b
000000c0: 2e7b 29be f98e 773e f695 963c 149c d13d
000000d0: b7aa 00be 880e 54bd 8aab 3b3e 31ab a53e
000000e0: 6958 b63d 2af6 113e fc03 9dbe cf42 65bc
000000f0: 47df 01bd 698c ff3d 6693 443e a21b 813e

fc2.weight f4 [128, 64]
0.077071965 0.07613294 0.11508547 -0.10940811 -0.11018649 0.045157194 -0.006945014 0.121182635
-0.095959276 -0.040564846 0.04245247 0.083493106 0.10978134 -0.02446986 0.10096322 0.0028414875
0.038390696 -0.03704214 -0.046256825 -0.033367813 -0.11003158 -0.026183063 -0.07340831 -0.08609534
-0.033170003 0.124052316 -0.11595422 0.021514567 0.0048704594 0.0038510908 -0.005633941 0.029588958
-0.0706968 -0.018532366 0.04854105 0.096127324 -0.030600429 -0.021594614 0.07788815 -0.10064985
-0.13006525 0.01060316 -0.03532827 -0.09321824 -0.12581915 -0.06326279 0.0048685884 -0.1268676
-0.042036135 -0.056949243 -0.0007580706 -0.04461657 0.03724975 -0.06713423 -0.059802383 -0.0043234825
-0.12617575 -0.116208695 0.10635397 0.02371532 0.078628585 -0.024974694 0.052897606 -0.030549794
0.068788044 -0.07225344 -0.08555837 0.020659825 -0.07610434 -0.10206425 -0.09812021 0.0019300133
0.061734397 0.006259978 -0.022244707 0.072797395 0.025733888 -0.11518577 -0.05246354 0.05300297
-0.11036649 -0.09140116 0.051500354 -0.04171911 -0.08952432 -0.037133776 -0.041384786 -0.098708116
-0.060945533 0.01258941 -0.055420965 0.0072381943 0.10260917 0.06866593 -0.06562887 -0.044221736
0.11739233 -0.052870527 -0.11139909 -0.059634976 -0.025438115 -0.04544185 0.0664817 -0.07892373
0.042760387 -0.119094595 -0.13005383 -0.11682532 0.04894179 -0.046945333 -0.008748248 -0.11291026
0.11713172 0.096549384 0.04050026 -0.07750516 -0.021502873 0.11444345 -0.06327459 0.1184711
0.02284027 -0.073400356 0.11861746 0.050724283 0.05918434 0.065624185 0.022623137 0.029524332
-0.017874777 -0.031128556 -0.010485157 0.059048593 0.01717341 -0.012855396 -0.10658243 -0.10029459
-0.12209776 -0.04727651 0.046628416 -0.053050354 -0.12298073 -0.04295008 0.050154418 0.07245892
-0.047870338 -0.115980595 -0.063939154 0.063047916 0.046051666 -0.08448224 0.033573866 -0.059376016
0.03328663 -0.033342272 -0.04124093 -0.107492045 -0.104735 0.09090121 -0.109194905 0.05949278
0.04849845 0.093238994 -0.107748255 -0.051813185 -0.0054487586 0.004266709 -0.11518967 -0.10138336
0.030785412 -0.008883715 0.08006321 0.0049608797 0.07114811 -0.042436495 0.08977544 -0.028593108
-0.016269296 0.123741135 -0.08381292 -0.12007967 0.05266361 -0.119909674 -0.06705116 0.04530765
0.07142255 -0.10522051 0.096352234 0.08729592 -0.119414344 0.04473479 0.0864484 0.058156878
0.0012762994 -0.07356347 -0.032525882 -0.1041453 0.02003844 0.12499891 -0.009375855 -0.074175775
-0.0089187175 -0.066907585 0.093544126 0.110260725 -0.11391002 -0.08326547 -0.07031728 -0.10508208
-0.065241605 0.040808573 0.07899222 0.014726907 -0.08326846 -0.0816496 0.061897844 -0.07550579
0.08477637 0.036405757 0.11980668 0.014764786 0.038410127 0.048667535 0.008352712 0.023199156
0.053343624 0.0649727 -0.021840826 -0.07163258 -0.08741538 0.025600925 -0.05052063 0.028415248
0.07252924 -0.099879086 -0.09039019 0.08941917 0.055277973 0.045639634 -0.122237355 0.031171173
0.0212657 0.08284518 -0.056114525 -0.005442351 -0.008105084 0.012619287 -0.11105329 -0.09948358
-0.045293152 0.020206451 -0.12149215 -0.02844286 -0.03899443 -0.017704755 -0.05650039 -0.09049912
00000000: e8d7 9d3d 96eb 9b3d eeb1 eb3d 5c11 e0bd
00000010: 74a9 e1bd c0f6 383d 0093 e3bb 9a2e f83d
00000020: 4c86 c4bd 5327 26bd a4e2 2d3d 6ffe aa3d
00000030: 0ad5 e03d 0475 c8bc cec5 ce3d 4038 3a3b
00000040: 903f 1d3d 80b9 17bd cc77 3dbd b0ac 08bd
00000050: 3d58 e1bd dd7d d6bc 1957 96bd c152 b0bd
00000060: 45dd 07bd 240f fe3d 6879 edbd 513f b03c
00000070: 6098 9f3b 9562 7c3b ec9c b8bb 8b64 f23c
00000080: 7cc9 90bd 30d1 97bc fbd2 463d 67de c43d
00000090: c0ad fabc 30e7 b0bc d383 9f3d 8221 cebd
000000a0: d32f 05be e0b8 2d3c 60b4 10bd 34e9 bebd
000000b0: bcd6 00be ec8f 81bd ae88 9f3b 95e9 01be
000000c0: 152e 2cbd 9c43 69bd 42b9 46ba ddbf 36bd
000000d0: 3293 183d ac7d 89bd 58f3 74bd 00ac 8dbb
000000e0: 3734 01be d3fe edbd 1cd0 d93d a146 c23c
000000f0: 0608 a13d bb97 ccbc 29ab 583d 9043 fabc
00000100: bfe0 8c3d 9df9 93bd 3a39 afbd cb3e a93c
00000110: 98dc 9bbd 1007 d1bd 40f3 c8bd 80f8 fc3a
00000120: 35dd 7c3d 8020 cd3b 883a b6bc cd16 953d
00000130: e0cf d23c 84e6 ebbd 02e4 56bd a419 593d
00000140: d407 e2bd 8830 bbbd 09f2 523d a8e1 2abd
00000150: 8758 b7bd 9619 18bd 1883 29bd 7b27 cabd
00000160: 06a2 79bd d043 4e3c 1801 63bd 602e ed3b
00000170: c224 d23d b9a0 8c3d 6e68 86bd da21 35bd
00000180: 646b f03d c48e 58bd 3525 e4bd ce43 74bd
00000190: 9863 d0bc 3c21 3abd 8f27 883d c4a2 a1bd
000001a0: 8425 2f3d dee7 f3bd d52c 05be 1d42 efbd
000001b0: 3077 483d c049 40bd d054 0fbc 7f3d e7bd
000001c0: c1e2 ef3d afbb c53d 9ae3 253d 06bb 9ebd
000001d0: cb26 b0bc 5461 ea3d 1c96 81bd faa0 f23d
000001e0: 851b bb3c ed52 96bd b6ed f23d 44c4 4f3d
000001f0: 476b 723d f965 863d 2854 b93c 03dd f13c
00000200: 206e 92bc 5001 ffbc f0c9 2bbc f0dc 713d
00000210: 40af 8c3c 709f 52bc e447 dabd 4067 cdbd
00000220: 640e fabd 04a5 41bd 70fd 3e3d 544b 59bd
00000230: 52dd fbbd 6cec 2fbd b86e 4d3d 5865 943d
00000240: b013 44bd 3c87 edbd 88f2 82bd 441f 813d
00000250: aca0 3c3d 0605 adbd c084 093d 4434 73bd
00000260: 9057 083d e891 08bd 40ec 28bd ca24 dcbd
00000270: 4e7f d6bd 6a2a ba3d 94a1 dfbd b4ae 733d
00000280: 50a6 463d 16f4 be3d 1eab dcbd 103a 54bd
00000290: 808b b2bb c0cf 8b3b 90e8 ebbd 14a2 cfbd
000002a0: b031 fc3c 008d 11bc 2ef8 a33d e08e a23b
000002b0: 1ab6 913d e4d1 2dbd 30dc b73d 183c eabc
000002c0: 3047 85bc fe6b fd3d 1ca6 abbd 54ec f5bd
000002d0: ccb5 573d 3493 f5bd 1e52 89bd 8494 393d
000002e0: fc45 923d da7d d7bd 5254 c53d 34c8 b23d
000002f0: 828f f4bd d43b 373d dc0b b13d e835 6e3d
00000300: 8049 a73a 72a8 96bd dc39 05bd 224a d5bd
00000310: a827 a43c 6eff ff3d 309d 19bc 78e9 97bd
00000320: d01f 12bc d806 89bd 1094 bf3d 60d0 e13d
00000330: a849 e9bd 1687 aabd 8202 90bd 4635 d7bd
00000340: 649d 85bd e426 273d acc6 a13d 2049 713c
00000350: a888 aabd e837 a7bd 9888 7d3d c8a2 9abd
00000360: 3c9f ad3d 341e 153d 345d f53d 00e8 713c
00000370: f053 1d3d 9c57 473d d0d9 083c 280c be3c
00000380: d87e 5a3d 6810 853d 88eb b2bc 1ab4 92bd
00000390: d606 b3bd 08b9 d13c b8ee 4ebd 18c7 e83c
000003a0: 368a 943d 688d ccbd 7e1e b9bd 6621 b73d
000003b0: 286b 623d a0f0 3a3d 9457 fabd b05a ff3c
000003c0: 6835 ae3c bcaa a93d 58d8 65bd c055 b2bb
000003d0: 30cb 04bc 20c1 4e3c e86f e3bd 0cbe cbbd
000003e0: 5085 39bd 0088 a53c e0d0 f8bd 0001 e9bc
000003f0: a0b8 1fbd 9009 91bc f46c 67bd 9a57 b9bd

fc2.bias f4 [128]
-0.04075488 -0.05418319 0.03368686 0.09516451 -0.023097515 0.066700116 0.23177618 -0.054894194
0.023105804 -0.09014085 -0.087657675 -0.03905603 0.025811004 0.00986775 0.16153795 -0.006908864
-0.043495853 0.07646474 0.02465412 -0.0011503994 -0.17311792 0.09872481 0.051272787 0.15625794
0.11752179 -0.21886393 0.085105464 -0.116933644 0.10795615 -0.022605373 0.024755277 -0.08812833
0.16955526 0.053321987 -0.037946135 -0.27272087 -0.007866278 0.058894888 -0.008493986 0.0934946
-0.110400274 -0.022854494 0.048992805 -0.06970717 -0.15394937 0.097678035 0.1130071 -0.22798693
-0.107198134 0.034817774 0.11739448 0.010581392 0.31026053 -0.039501682 0.008381903 0.111065805
0.05780186 0.13435344 -0.13311447 0.06631209 0.050085615 -0.13432106 0.055130035 -0.03973864
0.016941948 -0.10974145 -0.09449615 0.05340589 -0.24558178 0.079437375 -0.15655607 -0.103473276
-0.11213982 0.10246822 -0.01413016 -0.19242795 0.0003377723 -0.060391515 0.071457714 -0.06101601
0.3428977 -0.021767376 -0.009221777 0.13688058 0.08044262 -0.09144939 0.08737824 0.60892177
0.08464877 -0.07165727 0.0150102675 0.20877177 -0.13031934 0.011565104 0.1538204 0.098368086
0.019690977 0.011952839 0.26445282 -0.06740358 -0.16778828 -0.03122925 0.06359739 0.065082386
0.013711381 0.29133403 -0.12603493 -0.09078443 0.005896747 -0.043207206 -0.10367565 0.12608035
-0.26017368 0.06738428 0.21573193 -0.025331322 -0.058680475 -0.18374862 0.13602328 -0.038735896
0.035956964 -0.07821775 0.052457217 -0.10365094 0.06364131 0.102692276 0.07985222 0.1342768
00000000: 97ee 26bd 31ef 5dbd 3cfb 093d 9ce5 c23d
00000010: 0037 bdbc 129a 883d bc56 6d3e bcd8 60bd
00000020: 6248 bd3c c49b b8bd de85 b3bd 37f9 1fbd
00000030: 9971 d33c 58ac 213c 346a 253e c063 e2bb
00000040: b528 32bd 8c99 9c3d 70f7 c93c 00c9 96ba
00000050: d345 31be 3c30 ca3d 6a03 523d 1502 203e
00000060: 44af f03d de1d 60be c64b ae3d e87a efbd
00000070: 1d18 dd3d e72e b9bc 94cb ca3c a07c b4bd
00000080: e59f 2d3e 2868 5a3d 686d 1bbd 12a2 8bbe
00000090: 90e1 00bc c43b 713d 5c2a 0bbc 197a bf3d
000000a0: 8a19 e2bd 5939 bbbc aeac 483d a2c2 8ebd
000000b0: e7a4 1dbe 6c0b c83d 4470 e73d 6875 69be
000000c0: b28a dbbd 159d 0e3d 846c f03d 935d 2d3c
000000d0: 78da 9e3e 84cc 21bd 4054 093c 7876 e33d
000000e0: a5c1 6c3d f393 093e 294f 08be a2ce 873d
000000f0: 9326 4d3d 768b 09be 08d0 613d fcc4 22bd
00000100: d7c9 8a3c 20c0 e0bd 3387 c1bd 22c0 5a3d
00000110: ca79 7bbe 10b0 a23d 3c50 20be cce9 d3bd
00000120: 90a9 e5bd dcda d13d 3082 67bc d50b 45be
00000130: 0817 b139 185d 77bd 6c58 923d eceb 79bd
00000140: 4a90 af3e 7f51 b2bc f016 17bc 6c2a 0c3e
00000150: 1abf a43d d149 bbbd 5df3 b23d 4ce2 1b3f
00000160: 565c ad3d 0cc1 92bd a0ed 753c 44c8 553e
00000170: 6f72 05be 907b 3d3c 1883 1d3e 3575 c93d
00000180: f94e a13c d7d5 433c 5c66 873e e30a 8abd
00000190: b1d0 2bbe 7cd4 ffbc 593f 823d ea49 853d
000001a0: b3a5 603c bc29 953e 4d0f 01be 30ed b9bd
000001b0: 8039 c13b 0afa 30bd e653 d4bd 351b 013e
000001c0: 7c35 85be c500 8a3d d5e8 5c3e a283 cfbc
000001d0: f05a 70bd 9928 3cbe b049 0b3e 88a9 1ebd
000001e0: 9c47 133d a130 a0bd 61dd 563d f246 d4bd
000001f0: 6056 823d 5450 d23d 9089 a33d dc7f 093e

fc3.weight f4 [64, 128]
0.075618975 0.024046473 0.026968576 0.04942607 0.052148096 0.04995825 0.02142717 0.0045819506
0.07798185 -0.02769975 0.05685287 0.049251072 -0.037801255 0.008177467 -0.025026217 -0.016098313
0.08609318 0.003571242 0.029153377 0.021517828 0.04952895 0.06643241 -0.046789374 0.06652952
0.082012825 0.07935128 -0.009451903 0.032781057 -0.052621983 -0.05481756 -0.04979413 0.03707748
-0.058887362 -0.018194728 0.08700841 0.08751624 -0.011670418 -0.015539713 -0.04261098 -0.010080397
-0.069755 -0.033365384 0.07983663 -0.082782544 -0.05208835 0.06613728 0.03868585 0.03250447
0.07230622 0.0719429 0.08278292 -0.009921759 -0.027178343 0.056324728 -0.061575703 0.07003222
-0.019138306 0.03189864 0.012225926 -0.039549675 -0.045248855 -0.066673756 0.066650145 -0.057723187
-0.010252871 -0.053159 -0.02913523 0.05451224 -0.07575246 -0.02338463 -0.058053777 0.024185002
0.03258577 -0.06794606 0.044703312 0.040430762 0.008160748 0.033326313 0.057463385 -0.07712226
-0.025082558 0.0072178766 0.07983873 -0.058180783 0.032082506 0.038691886 -0.04987701 -0.05417083
-0.032653745 -0.01728788 0.011227362 -0.0451529 0.054470517 -0.042783696 -0.028249104 -0.0395763
-0.048086297 -0.05025884 -0.026597716 0.0139709115 -0.015925616 -0.046769314 -0.036838137 -0.063784435
-0.045322243 0.07246523 -0.0773128 0.07497003 -0.018220663 0.07235231 0.019708738 0.068538345
0.015473604 0.0870005 -0.07416072 -0.048447687 -0.047643304 -0.030924354 0.022389501 0.032620437
0.05085493 -0.05894026 0.07470975 -0.08225428 0.06475172 -0.006995 -0.029303282 -0.008073494
-0.073812224 0.074794255 0.007388808 -0.015411615 -0.07702593 -0.036376536 -0.028413007 0.028639287
0.0394934 0.033711094 -0.072353065 -0.12829721 -0.0670907 -0.0028457611 0.041152563 -0.08405524
-0.0695692 0.06001738 -0.080631085 0.050504915 0.06347928 0.020792289 -0.048385162 0.0066276994
0.0059033814 0.08195544 0.03904829 0.021558344 0.08693198 -0.017238228 -0.00028054073 0.07589608
0.039517168 -0.0736511 -0.0836266 0.08894022 0.08629013 -0.010041632 0.011268778 -0.08070816
-0.073601924 0.07319085 -0.085809916 0.08140546 0.059926055 0.04185532 -0.050704766 -0.02099199
-0.054366343 -0.0345964 -0.052265685 -0.025773605 0.011666114 0.06534583 -0.06288941 -0.017583936
0.05779157 0.060364522 -0.04017564 -0.09150267 -0.066740796 0.03932999 0.07686054 0.004161993
0.04820155 0.06293514 -0.014825362 0.04539227 0.21392779 -0.017275063 0.031669375 -0.011181913
0.052609123 0.08587662 -0.05817872 0.080354564 0.03548608 0.0065380484 0.040563144 0.07338514
0.04260825 -0.067690186 -0.06279052 -0.0039044828 -0.1214916 -0.012295105 0.021635512 -0.05930137
0.049902406 -0.052396033 -0.06944716 0.0222934 0.08303937 0.0298691 0.02785719 -0.023356946
0.021996723 -0.046209663 -0.17097925 0.012920579 0.09673175 -0.034222823 -0.016729897 0.06856223
0.0055938275 -0.0034675936 -0.0064699748 0.0407831 0.019065864 -0.008239224 0.06874014 -0.035368636
0.064193904 -0.04429908 -0.07100917 0.08392267 -0.025796946 -0.034061015 -0.07403741 -0.0731556
-0.011699617 0.08814043 -0.09462535 0.0023033768 -0.10058891 -0.07352868 0.0380292 0.012323445
00000000: 1fde 9a3d 1cfd c43c 34ed dc3c fe72 4a3d
00000010: 3e99 553d 06a1 4c3d 0888 af3c 3024 963b
00000020: f3b4 9f3d 96ea e2bc 8ede 683d 7ebb 493d
00000030: 7dd5 1abd c8fa 053c c803 cdbc 9ce0 83bc
00000040: 9f51 b03d 800b 6a3b 10d3 ee3c 2846 b03c
00000050: dede 4a3d b70d 883d 37a6 3fbd a140 883d
00000060: 57f6 a73d ed82 a23d 28dc 1abc 6e45 063d
00000070: 268a 57bd 6188 60bd eef4 4bbd 8ede 173d
00000080: e033 71bd 1c0d 95bc 7731 b23d b73b b33d
00000090: 4835 3fbc 489a 7ebc da88 2ebd 4028 25bc
000000a0: b6db 8ebd 24aa 08bd 6381 a33d e589 a9bd
000000b0: 985a 55bd fb72 873d 0e75 1e3d 6823 053d
000000c0: 4915 943d cd56 933d 178a a93d e08e 22bc
000000d0: 1ea5 debc c2b4 663d ce36 7cbd 0d6d 8f3d
000000e0: f0c7 9cbc 26a8 023d 404f 483c d7fe 21bd
000000f0: dd56 39bd 408c 88bd df7f 883d 266f 6cbd
00000100: a8fb 27bc 40bd 59bd 02ad eebc 3a48 5f3d
00000110: 1b24 9bbd 2091 bfbc ccc9 6dbd a01f c63c
00000120: a878 053d 4e27 8bbd d21a 373d ba9a 253d
00000130: a8b4 053c 2c81 083d ba5e 6b3d 47f2 9dbd
00000140: f079 cdbc f083 ec3b 7d82 a33d f94e 6ebd
00000150: f268 033d 627b 1e3d d64b 4cbd 3be2 5dbd
00000160: efbf 05bd 509f 8dbc f8f2 373c 3ff2 38bd
00000170: 7a1c 5f3d f53d 2fbd aa6a e7bc c21a 22bd
00000180: 23f6 44bd 37dc 4dbd 74e3 d9bc 40e6 643c
00000190: 7076 82bc 2e91 3fbd 96e3 16bd 6aa1 82bd
000001a0: d1a3 39bd a768 943d 2c56 9ebd e389 993d
000001b0: 8043 95bc 732d 943d 3874 a13c d55d 8c3d
000001c0: 0085 7d3c 512d b23d 93e1 97bd 1571 46bd
000001d0: a025 43bd 1255 fdbc 306a b73c 029d 053d
000001e0: 424d 503d 586b 71bd 6d01 993d ef74 a8bd
000001f0: 8d9c 843d 5036 e5bb 700d f0bc b046 04bc
00000200: dd2a 97bd bb2d 993d d01d f23b 0081 7cbc
00000210: c5bf 9dbd 90ff 14bd 65c2 e8bc f09c ea3c
00000220: d5c3 213d a514 0a3d d82d 94bd 5860 03be
00000230: d966 89bd f37f 3abb 978f 283d 2725 acbd
00000240: 4c7a 8ebd c9d4 753d e921 a5bd 3ede 4e3d
00000250: 6d01 823d 9754 aa3c 852f 46bd 2c2d d93b
00000260: 2771 c13b 41d8 a73d 1af1 1f3d 209b b03c
00000270: 6509 b23d 2f37 8dbc 8a15 93b9 676f 9b3d
00000280: c1dc 213d 63d6 96bd 6c44 abbd 4a26 b63d
00000290: e1b8 b03d a885 24bc aea0 383c 524a a5bd
000002a0: 9bbc 96bd 16e5 953d 1cbd afbd e8b7 a63d
000002b0: 0675 753d 7c70 2b3d cdaf 4fbd 65f7 abbc
000002c0: 3eaf 5ebd f4b4 0dbd 8b14 56bd 2b23 d3bc
000002d0: 3b23 3f3c 09d4 853d 2acc 80bd 300c 90bc
000002e0: dab6 6c3d ca40 773d 368f 24bd c065 bbbd
000002f0: 66af 88bd 7c18 213d 0f69 9d3d 5461 883b
00000300: fd6e 453d 24e4 803d 13e6 72bc 3fed 393d
00000310: e30f 5b3e 6f84 8dbc bfb7 013d 5834 37bc
00000320: aa7c 573d 15e0 af3d cf4c 6ebd ef90 a43d
00000330: da59 113d 203d d63b 8a25 263d f34a 963d
00000340: fd85 2e3d 27a1 8abd 5198 80bd 5ae2 7fbb
00000350: 97d0 f8bd 6871 49bc f53c b13c fee5 72bd
00000360: 7766 4c3d 399d 56bd 503a 8ebd a6a0 b63c
00000370: 8c10 aa3d 0bb0 f43c c334 e43c 1157 bfbc
00000380: 7932 b43c 5846 3dbd 2f15 2fbe d6b0 533c
00000390: 4c1b c63d 3b2d 0cbd 230d 89bc 5b6a 8c3d
000003a0: 6d4c b73b 9140 63bb 1502 d4bb 2e0c 273d
000003b0: 0430 9c3c cffd 06bc a1c7 8c3d b4de 10bd
000003c0: 1878 833d f472 35bd 416d 91bd a6df ab3d
000003d0: 1e54 d3bc 9083 0bbd eda0 97bd 9ad2 95bd
000003e0: c0af 3fbc f882 b43d efca c1bd 40f4 163b
000003f0: 8f01 cebd 3496 96bd 82c4 1b3d 46e8 493c

fc3.bias f4 [64]
0.040231533 -0.0945736 -0.03672614 0.16613878 0.04409082 -0.15449862 -0.02162623 0.1479115
-0.057983734 -0.029537471 0.2396955 -0.07783969 -0.07161362 0.27600676 -0.17913209 0.13409261
-0.07097702 0.056997787 0.20434189 0.009230176 -0.15840979 -0.035887573 -0.22641641 -0.050947532
0.14211275 -0.11457604 0.078885 -0.05479004 -0.02873296 0.03006026 0.01557482 -0.045851253
-0.3406136 -0.050614465 0.0037571595 0.23430184 -0.07730326 -0.13296098 0.076997034 -0.051216125
-0.09264799 0.15849797 0.017737003 -0.018691905 -0.099703856 0.106010236 0.21833512 -0.07454544
0.1453921 -0.2049307 0.14333446 0.2747497 -0.10613897 0.11511123 -0.15314665 -0.07591117
0.23831162 -0.2670091 -0.04632313 0.050952286 -0.12066613 0.1170984 -0.005379584 -0.13632514
00000000: d2c9 243d ceaf c1bd 266e 16bd 4920 2a3e
00000010: 9398 343d e334 1ebe 7e29 b1bc 1d76 173e
00000020: 5a80 6dbd 91f8 f1bc bd72 753e 6a6a 9fbd
00000030: 29aa 92bd c250 8d3e 676e 37be 934f 093e
00000040: 665c 91bd 8376 693d 003f 513e 2a3a 173c
00000050: 2d36 22be d9fe 12bd b4d9 67be 5cae 50bd
00000060: 0186 113e d8a6 eabd 758e a13d 856b 60bd
00000070: 6261 ebbc ef40 f63c 882d 7f3c 86ce 3bbd
00000080: e864 aebe 1d51 4fbd ad3a 763b d2ec 6f3e
00000090: 2c51 9ebd ec26 08be 9fb0 9d3d 00c8 51bd
000000a0: 3bbe bdbd 4b4d 223e 314d 913c c41f 99bc
000000b0: 8931 ccbd e51b d93d 3e93 5f3e 48ab 98bd
000000c0: abe1 143e 5ad9 51be 45c6 123e feab 8c3e
000000d0: 635f d9bd 70bf eb3d 7ad2 1cbe 5177 9bbd
000000e0: f607 743e 6bb5 88be 53bd 3dbd 58b3 503d
000000f0: ce1f f7bd 49d1 ef3d 3947 b0bb d198 0bbe

fc4.weight f4 [2, 64]
-0.122730166 0.023523549 -0.12915473 -0.053164408 -0.0020687822 -0.06646783 0.10863307 0.032389723
-0.014965072 -0.09059469 -0.021635715 0.11271964 0.11892119 0.05616938 0.13754663 0.056656163
0.09659679 -0.044186343 0.07564977 0.013269037 -0.11248274 0.08531177 -0.26862365 -0.030289307
0.08282991 -0.018261285 0.0105507225 0.04081365 -0.07085599 -0.07681153 0.00026997924 -0.11459
0.69254905 -0.027317597 -0.013189595 0.07137673 -0.10665853 0.026536783 -0.10896696 -0.0066959956
0.026108915 -0.04573524 0.43282065 -0.059512943 -0.06160793 0.13394096 0.13396314 0.052898355
0.009627974 -0.052428517 -0.053712975 0.07192164 -0.021335397 -0.072848804 -0.17259532 -0.062717915
0.120826945 -0.03306512 0.2666512 -0.08390362 0.01801381 0.009061092 -0.1092462 0.046788465
0.09736557 0.047457464 0.1055096 0.5353981 -0.07873371 0.10995587 0.026445214 -0.062471893
-0.084063075 -0.02939508 -0.13686192 0.079384595 0.10622083 -0.070815526 0.01700786 -0.07229208
0.047503617 0.04388972 -0.12689725 0.13013975 0.030058376 0.062267214 0.13519195 0.03505881
-0.111221716 0.111723356 -0.05393879 -0.045424517 0.1052497 -0.010782653 -0.047050565 0.03321197
-0.017284939 0.033401012 0.033030722 -0.102611795 0.0009690374 0.093858026 -0.10184218 0.079449676
0.085919864 -0.058437627 -0.060173433 -0.033542708 0.05251538 -0.017281538 -0.09868411 0.022863358
-0.03787588 0.02339426 -0.0960465 -0.06506441 -0.027594205 -0.11713326 0.009597458 0.005988553
-0.09642997 0.5589088 0.046553113 -0.03996178 0.09227314 -0.099288546 0.012151302 0.014687752
00000000: f459 fbbd 75b4 c03c 2341 04be ecc2 59bd
00000010: 6894 07bb 4920 88bd 047b de3d 16ab 043d
00000020: 1030 75bc b589 b9bd 623d b1bc 8ed9 e63d
00000030: f48c f33d dd11 663d 06d9 0c3e 4b10 683d
00000040: 8ad4 c53d bdfc 34bd 44ee 9a3d 6066 593c
00000050: 5a5d e6bd f0b7 ae3d 0a89 89be 4821 f8bc
00000060: baa2 a93d b198 95bc f0dc 2c3c 372c 273d
00000070: f21c 91bd 5d4f 9dbd 008c 8d39 29ae eabd
00000080: e54a 313f 27c9 dfbc 2c19 58bc f72d 923d
00000090: ca6f dabd ab63 d93c 122a dfbd 156a dbbb
000000a0: 5de2 d53c e054 3bbd ab9a dd3e d8c3 73bd
000000b0: 9958 7cbd d227 093e a22d 093e f2ab 583d
000000c0: a6be 1d3c 49bf 56bd 2302 5cbd a74b 933d
000000d0: 92c7 aebc c131 95bd d4bc 30be 4072 80bd
000000e0: 1e74 f73d 4b6f 07bd 8286 883e a9d5 abbd
000000f0: b391 933c f974 143c 79bc dfbd 43a5 3f3d
00000100: 9a67 c73d c262 423d 6b15 d83d da0f 093f
00000110: 243f a1bd 8b30 e13d a2a3 d83c 87e2 7fbd
00000120: 4329 acbd f3cd f0bc 8825 0cbe 6494 a23d
00000130: 4e8a d93d bb07 91bd 1154 8b3c df0d 94bd
00000140: 2793 423d b5c5 333d 5af1 01be 5b43 053e
00000150: fc3c f63c e80b 7f3d c26f 0a3e d499 0f3d
00000160: 36c8 e3bd 37cf e43d ecee 5cbd 0f0f 3abd
00000170: 288d d73d b9a9 30bc 18b8 40bd 4609 083d
00000180: 2599 8dbc 80cf 083d 394b 073d 2226 d2bd
00000190: 0007 7e3a a338 c03d a292 d0bd 83b6 a23d
000001a0: c1f6 af3d 4b5c 6fbd 6b78 76bd 1464 09bd
000001b0: 5e1a 573d 0392 8dbc e51a cabd f04b bb3c
000001c0: bd23 1bbd 52a5 bf3c 07b4 c4bd 7d40 85bd
000001d0: 3e0d e2bc 90e3 efbd a83e 1d3c a03b c43b
000001e0: 137d c5bd a614 0f3f 7aae 3e3d f7ae 23bd
000001f0: b3f9 bc3d cb57 cbbd 4116 473c e6a4 703c

fc4.bias f4 [2]
-0.075168766 -0.23742183
00000000: 15f2 99bd b51e 73be
