model1_last.pth (torch, 71415 bytes, 8 tensors)

fc1.weight f4 [64, 6]
0.10724914 -0.08079982 -0.16430637 0.31671423 -0.051864266 -0.11082506 -0.24490145 0.32184684
0.023222238 -0.049748182 -0.3843571 -0.13575721 0.17969203 0.23469824 -0.019700259 0.12466276
-0.039534718 -0.013467312 0.28499287 0.2870079 -0.26496485 -0.19778699 0.15472057 0.33144447
-0.31220186 0.3103161 -0.33490145 0.077620536 -0.32071897 -0.35941082 0.1339423 -0.08665361
-0.33581626 0.21321684 0.203424 -0.0136126755 0.06273912 0.10809038 0.23418206 -0.0005419173
0.11477218 -0.058897577 0.51596445 0.33862138 0.09635827 0.292046 0.1342971 0.09254273
0.03891851 0.064195074 0.114833415 0.11938792 0.22748893 0.07708375 0.14391512 0.11832542
-0.40277648 -0.07694172 0.16259168 0.27157378 -0.38340694 -0.28054523 -0.27060166 0.00030955672
-0.31813523 0.0017353296 0.38982826 0.04196322 -0.21511617 -0.16336973 -0.31363443 -0.16818115
0.026638614 -0.33048677 -0.011835891 0.18022984 0.009297004 0.07015633 -0.3155633 0.10586437
0.11543614 -0.14667732 0.16058396 -0.0688119 -0.011087328 -0.21769023 -0.3471206 0.19556648
-0.20215811 -0.15641916 0.33627898 0.3138011 -0.19755474 -0.04758492 -0.048211217 -0.111420244
-0.37950465 -0.038793933 0.29733288 0.17964394 0.21150626 0.009767142 -0.11016503 0.16021603
-0.34648308 0.05964929 -0.21825399 0.22392154 0.08698207 -0.17894784 0.06357762 -0.25817513
-0.40345976 -0.02655226 0.21720648 0.12419921 0.2948436 -0.28202447 -0.13511354 -0.29311106
-0.31512836 -0.4754513 0.34561753 -0.34424594 0.19378574 0.2834073 0.33593357 -0.29943523
0.19081798 0.22321981 0.07264475 -0.34058923 0.13382113 0.34651047 0.11676055 0.12227827
-0.08129865 -0.082342654 -0.27472234 -0.14089431 0.21097238 -0.0033261387 0.11968607 0.18373248
-0.011454999 0.08476719 -0.15820092 -0.17213811 -0.11018333 0.25527537 -0.55223334 -0.36233583
-0.25095382 -0.19945365 0.0083195735 0.3825478 -0.03547761 0.33992547 -0.13077068 0.18936372
-0.1437436 0.051121473 -0.12281519 0.050936043 -0.19845289 0.29392844 -0.024261236 0.018051356
0.11150518 -0.3431728 -0.37203884 0.059679825 0.136232 -0.15539415 0.16922396 0.36657822
-0.21767548 0.08715436 -0.1849731 0.21770447 0.39237094 -0.1121231 -0.10228813 0.27831233
-0.09089768 0.24046844 -0.15927418 -0.11594879 0.21253727 0.22748975 0.22787577 0.20609902
0.21101266 -0.37403435 0.24256575 0.00020352006 -0.17811772 -0.21724229 0.34618038 -0.23867942
0.19085307 -0.17360419 0.16600783 0.21256906 0.050244436 0.03190803 -0.1687878 -0.3321273
0.2357271 -0.14058915 0.31367642 -0.23291959 0.10434568 -0.20669396 -0.11478382 0.34967834
0.24207205 -0.023062259 0.30786502 0.15577364 -0.10157046 -0.020407826 -0.09530306 -0.23471116
0.30245054 -0.11455634 -0.3344144 -0.3934058 0.24301285 -0.21653871 -0.18921506 -0.37661874
-0.3874163 -0.026468664 -0.13210171 0.21815145 0.35812056 -0.21834528 -0.22019827 0.32931572
0.11224935 0.24079669 -0.2731512 0.3657854 0.3588729 0.39835733 0.025701525 0.35259244
-0.2560827 -0.07854028 0.3019591 0.29575604 0.04903263 -0.2619996 0.27248305 0.18090576
00000000: 70a5 db3d 607a a5bd ee3f 28be 5e28 a23e
00000010: a06f 54bd 40f8 e2bd 72c7 7abe 1cc9 a43e
00000020: 903c be3c c0c4 4bbd 74ca c4be f003 0bbe
00000030: 3001 383e bc54 703e 7062 a1bc 304f ff3d
00000040: 28ef 21bd 00a6 5cbc 96ea 913e b3f2 923e
00000050: 79a9 87be ac88 4abe 126f 1e3e 17b3 a93e
00000060: ecd8 9fbe c0e1 9e3e 3478 abbe 84f7 9e3d
00000070: 4735 a4be b204 b8be 2c28 093e 7377 b1bd
00000080: 1cf0 abbe 8455 5a3e 624e 503e b307 5fbc
00000090: 5e7d 803d 7d5e dd3d 6ccd 6f3e 740f 0eba
000000a0: ad0d eb3d 963e 71bd 3f16 043f c85f ad3e
000000b0: 7c57 c53d 0e87 953e 2e85 093e 0b87 bd3d
000000c0: 0469 1f3d b578 833d c82d eb3d a781 f43d
000000d0: dcf2 683e 16de 9d3d 7c5e 133e 9954 f23d
000000e0: b838 cebe 9f93 9dbd 6f7e 263e b80b 8b3e
000000f0: ea4d c4be a0a3 8fbe 4d8c 8abe 004c a239
00000100: 9fe2 a2be 0074 e33a 9297 c73e a0e1 2b3d
00000110: 6a47 5cbe 654a 27be b194 a0be ae37 2cbe
00000120: 3939 da3c 9035 a9be 53eb 41bc 2c8e 383e
00000130: 7652 183c 1fae 8f3d 8391 a1be 6bcf d83d
00000140: c869 ec3d 9432 16be 1f70 243e 41ed 8cbd
00000150: a0a7 35bc 30ea 5ebe cbb9 b1be 9442 483e
00000160: 8902 4fbe 582c 20be c22c ac3e 8aaa a03e
00000170: ca4b 4abe 68e8 42bd 2079 45bd 4c30 e4bd
00000180: 6f4e c2be 63e6 1ebd 043c 983e 95f4 373e
00000190: 1995 583e 5d06 203c 349e e1bd ac0f 243e
000001a0: 3b66 b1be d052 743d f97d 5fbe b04b 653e
000001b0: a823 b23d 1a3e 37be fc34 823d 882f 84be
000001c0: 4792 cebe 2084 d9bc 606b 5e3e 285c fe3d
000001d0: bef5 963e 8365 90be 345b 0abe a712 96be
000001e0: 8158 a1be 5a6e f3be c8f4 b03e 0141 b0be
000001f0: c56f 463e c31a 913e 7cff ab3e 934f 99be
00000200: ca65 433e bc93 643e c5c6 943d b661 aebe
00000210: 6808 093e d269 b13e 2820 ef3d 086d fa3d
00000220: e87f a6bd 44a3 a8bd 68a8 8cbe 9946 10be
00000230: 2509 583e 59fb 59bb f81d f53d 5e24 3c3e
00000240: c0ad 3bbc 6c9a ad3d 6cff 21be f944 30be
00000250: cca7 e1bd 74b3 823e 2a5f 0dbf 1584 b9be
00000260: 057d 80be 943d 4cbe d24e 083c 4edd c33e
00000270: f850 11bd b60a ae3e c0e8 05be 90e8 413e
00000280: 8631 13be c064 513d 8886 fbbd 50a2 503d
00000290: 3c37 4bbe ca7d 963e 80bf c6bc 70e0 933c
000002a0: d45c e43d 58b4 afbe e07b bebe d572 743d
000002b0: 6780 0b3e a51f 1fbe 0c49 2d3e 24b0 bb3e
000002c0: 52e6 5ebe fc7d b23d 9769 3dbe eced 5e3e
000002d0: d8e4 c83e cca0 e5bd 707c d1bd f47e 8e3e
000002e0: 9028 babd 5c3d 763e c518 23be 8f76 edbd
000002f0: 5fa3 593e 13f3 683e 4458 693e 9f0b 533e
00000300: b413 583e 6e81 bfbe 2863 783e 0068 5539
00000310: 7e64 36be c374 5ebe 8e3e b13e 6168 74be
00000320: fd6e 433e 4cc5 31be f5fd 293e b4ab 593e
00000330: 1ccd 4d3d ffb1 023d b6d6 2cbe 970c aabe
00000340: 7262 713e 9af6 0fbe 329a a03e 7982 6ebe
00000350: 30b3 d53d 95a7 53be c813 ebbd 0a09 b33e
00000360: bce1 773e 10ed bcbc 7ca0 9d3e 2083 1f3e
00000370: 2c04 d0bd 502e a7bc 402e c3bd 1f58 70be
00000380: ccda 9a3e 849c eabd 5d38 abbe 7c6c c9be
00000390: 5cd8 783e 53bc 5dbe 98c1 41be 2cd4 c0be
000003a0: 6e5b c6be d0d4 d8bc ac45 07be 1863 5f3e
000003b0: 945b b73e e895 5fbe a87b 61be 129c a83e
000003c0: fde2 e53d 6893 763e 79da 8bbe 3948 bb3e
000003d0: 30be b73e 7ef5 cb3e 018c d23c ff86 b43e
000003e0: 461d 83be bad9 a0bd 629a 9a3e 566d 973e
000003f0: 70d6 483d d024 86be e682 8b3e 5c3f 393e

fc1.bias f4 [64]
0.047658235 0.20496303 0.040833414 0.3021805 -0.05451101 -0.07645702 0.061288822 0.31789565
0.10112469 0.3953812 -0.18657064 -0.13510817 -0.3845619 0.36985874 -0.35724577 0.34726107
0.3069367 0.033725053 -0.40177575 0.19519955 0.14461806 0.3026095 -0.38379547 -0.17399618
0.40240473 -0.0998626 0.40574944 0.067769915 0.1568718 -0.067062855 0.23293018 -0.13181253
-0.21168315 -0.062854655 0.23050651 0.31858122 -0.08587286 -0.13441357 -0.31589398 -0.3830636
0.00042301803 0.05354965 0.35590476 -0.03331718 -0.32992795 -0.4078031 -0.15638377 -0.33341205
0.07088956 -0.14835179 0.34426317 -0.37349993 0.045986593 -0.33088192 -0.233919 -0.33641508
-0.1154834 -0.11024508 0.32790023 -0.37299657 -0.12724125 -0.09174633 -0.34125566 0.07937592
00000000: 4835 433d d4e1 513e f040 273d 67b7 9a3e
00000010: f046 5fbd 8095 9cbd fd09 7b3d 38c3 a23e
00000020: 761a cf3d 686f ca3e 600c 3fbe cc59 0abe
00000030: 4ce5 c4be 205e bd3e ebe8 b6be 34cc b13e
00000040: cf26 9d3e 4823 0a3d 8db5 cdbe 64e2 473e
00000050: c216 143e a2ef 9a3e d780 c4be 0e2c 32be
00000060: fe07 ce3e c384 ccbd 64be cf3e f4ca 8a3d
00000070: 00a3 203e 4058 89bd 4085 6e3e ddf9 06be
00000080: 78c3 58be f1b9 80bd e609 6c3e 141d a33e
00000090: 1cde afbd b6a3 09be dbbc a1be ea20 c4be
000000a0: 85c8 dd39 e156 5b3d 2639 b63e 9877 08bd
000000b0: 51ec a8be 91cb d0be 1123 20be fcb4 aabe
000000c0: 8c2e 913d 88e9 17be 4343 b03e 623b bfbe
000000d0: 705c 3c3d 5b69 a9be 7688 6fbe 993e acbe
000000e0: 9082 ecbd 2cc8 e1bd 8ae2 a73e 68f9 bebe
000000f0: 884b 02be 80e5 bbbd 10b9 aebe d88f a23d

fc2.weight f4 [128, 64]
-0.09042452 -0.02044706 0.035886556 -0.12208404 -0.031524017 -0.092584275 -0.03451829 -0.0605965
-0.06791063 0.06411969 -0.04563278 0.08102305 0.0147359455 0.010287856 -0.054913312 0.093019605
-0.060678825 0.03587295 0.086834 -0.09415984 -0.039492853 0.008710174 0.09965736 0.056632906
0.112632036 0.07238652 -0.09290585 0.029601797 -0.06682606 -0.0838978 -0.036149144 0.06811712
-0.11531663 -0.078127906 -0.112129 0.088627815 -0.013473719 -0.09804949 0.07667349 -0.1062666
0.11686339 0.05501432 0.057029307 -0.07151663 -0.12693216 -0.093102545 0.01872665 0.10773465
0.08132759 -0.06789388 0.017778473 0.0068119313 0.041680977 -0.024432933 -0.01426374 -0.0924413
-0.003452465 -0.1029799 -0.052159145 0.031952515 -0.106316164 -0.10381442 -0.056294754 -0.06874439
0.0885486 0.056712016 0.09445007 0.039052244 0.03615117 -0.084581874 -0.113482766 0.099142656
-0.10379859 -0.114722 0.10689509 -0.02641952 -0.10838055 -0.033252727 -0.022899777 0.015462071
0.074072696 0.027402863 0.064741954 0.10503174 0.04998128 -0.10567675 0.005330801 -0.033175208
-0.0014623404 0.109043695 0.087595105 0.08459599 -0.09843322 -0.11010377 0.039028004 0.031178912
0.0049609244 -0.035152327 0.09046081 0.082786664 -0.089032024 0.11142133 -0.12373249 -0.10445653
-0.0426371 -0.007171354 0.01637128 0.081068665 0.01597136 -0.09544109 0.075627185 -0.010530734
0.09959787 0.06842306 -0.0075667505 0.019495705 -0.10980342 0.016911877 0.019230891 0.099311925
0.11123164 0.0092261555 0.09111422 -0.03780377 -0.069298014 0.02311711 -0.09647705 0.0582944
-0.05445747 0.080935374 -0.04310718 0.05848514 0.022395968 0.07035283 -0.11217115 -0.03879601
-0.015856307 0.000129122 0.042146996 -0.08739708 -0.008662877 0.07782556 -0.054323047 -0.030664355
0.09883186 -0.043682903 0.024815306 -0.028184325 -0.0921618 -0.08825372 -0.05577095 -0.046187315
-0.11647095 0.029413067 -0.1162726 -0.12124534 0.10938678 -0.018165946 0.10439271 -0.046112936
-0.11229992 0.060249254 -0.03026653 0.088288784 -0.044290245 -0.055748597 0.04548101 -0.107461855
-0.103741005 0.081155926 0.04106225 0.024743646 -0.02590401 -0.114293545 0.11586394 0.013262405
-0.016486675 -0.021623224 -0.052030917 -0.05587421 0.08811183 -0.10341044 0.0005975188 0.0033415242
-0.057820573 -0.089760765 -0.10416944 -0.089928076 0.04097195 -0.016687334 -0.09240106 -0.103912055
0.014477432 0.1139514 -0.049693853 0.11654349 -0.01682803 -0.109527394 -0.030688122 0.022310957
-0.082107484 -0.117181435 0.03702812 -0.032827884 0.03317839 -0.030536756 0.02709648 -0.100086495
-0.10732877 -0.053824008 -0.0037478954 0.079485744 -0.012189165 0.11283085 -0.05095072 -0.030898124
-0.08948757 -0.048564985 -0.11885111 -0.030911371 0.060036793 0.014613822 -0.06351717 -0.07709816
-0.035878077 0.04091999 -0.08153179 0.04631199 0.119999185 0.064878896 0.003199622 -0.038311765
-0.047964364 -0.04807383 -0.11209926 -0.038825512 -0.027510732 -0.07283722 -0.07134318 0.032058597
-0.030516684 -0.0107946545 -0.03216687 0.104861796 -0.10375132 0.011693642 -0.07347058 -0.09421024
0.096629485 0.02517879 0.034215286 -0.101814196 0.08784187 0.026532456 0.013779923 0.09167892
00000000: 7e30 b9bd 9880 a7bc c8fd 123d 3207 fabd
00000010: 541f 01bd d39c bdbd 0d63 0dbd 0934 78bd
00000020: ba14 8bbd 2f51 833d 70e9 3abd 6aef a53d
00000030: 096f 713c 658e 283c c8ec 60bd 1081 be3d
00000040: 5c8a 78bd 84ef 123d 06d6 b13d e0d6 c0bd
00000050: 42c3 21bd 1eb5 0e3c 2819 cc3d e8f7 673d
00000060: a0ab e63d 623f 943d 6c45 bebd 787f f23c
00000070: 1adc 88bd 9cd2 abbd 2011 14bd fd80 8b3d
00000080: 202b ecbd 8601 a0bd e4a3 e5bd 8082 b53d
00000090: e0c0 5cbc 2cce c8bd fe06 9d3d 4ea2 d9bd
000000a0: 1356 ef3d b256 613d 9097 693d 5077 92bd
000000b0: 81fa 01be 8cac bebd a268 993c fca3 dc3d
000000c0: 148f a63d f20b 8bbd 29a4 913c 9f36 df3b
000000d0: acb9 2a3d 9327 c8bc 76b2 69bc dd51 bdbd
000000e0: c042 62bb 20e7 d2bd d4a4 55bd a4e0 023d
000000f0: 4abc d9bd a89c d4bd 5495 66bd dcc9 8cbd
00000100: f858 b53d dc4a 683d 0a6f c13d 3ff5 1f3d
00000110: 4013 143d 4339 adbd a769 e8bd 4e0b cb3d
00000120: 5b94 d4bd 5ef3 eabd d0eb da3d c06d d8bc
00000130: 9ff6 ddbd 0334 08bd 5098 bbbc a054 7d3c
00000140: 6db3 973d f87b e03c 6e97 843d e21a d73d
00000150: 2cb9 4c3d 0d6d d8bd 00ae ae3b bae2 07bd
00000160: 00ac bfba 4d52 df3d 1065 b33d aa40 ad3d
00000170: 5b97 c9bd 167e e1bd d4db 1f3d eb6a ff3c
00000180: 408f a23b e3fb 0fbd 8443 b93d 0e8c a93d
00000190: 6c56 b6bd de30 e43d 7667 fdbd 4eed d5bd
000001a0: 3da4 2ebd adfd eabb 101d 863c 5407 a63d
000001b0: 5fd6 823c 9e76 c3bd 6de2 9a3d 1a89 2cbc
000001c0: f8f9 cb3d 6421 8c3d 81f2 f7bb 75b5 9f3c
000001d0: 9ee0 e0bd c78a 8a3c 1a8a 9d3c 0d64 cb3d
000001e0: 6acd e33d 4d29 173c 189a ba3d 20d8 1abd
000001f0: 1eec 8dbd 1860 bd3c c295 c5bd 1cc6 6e3d
00000200: cc0e 5fbd 72c1 a53d 2891 30bd 1d8e 6f3d
00000210: c077 b73c 2515 903d fdb9 e5bd 91e8 1ebd
00000220: 16e5 81bc ec64 0739 54a2 2c3d 3efd b2bd
00000230: bdee 0dbc 0263 9f3d d881 5ebd d033 fbbc
00000240: 5c68 ca3d d8ec 32bd 7849 cb3c d0e2 e6bc
00000250: 53bf bcbd 5ebe b4bd 1470 64bd e92e 3dbd
00000260: 5288 eebd acf3 f03c 5420 eebd 7a4f f8bd
00000270: 2d06 e03d c0d0 94bc d8cb d53d ebe0 3cbd
00000280: 80fd e5bd ecc7 763d 84f1 f7bc c0d0 b43d
00000290: b069 35bd a458 64bd 4c4a 3a3d f614 dcbd
000002a0: 2a76 d4bd 1435 a63d e430 283d 30b3 ca3c
000002b0: a534 d4bc bc12 eabd 134a ed3d 8f4a 593c
000002c0: 100f 87bc 3023 b1bc 5f1e 55bd 5bdc 64bd
000002d0: fa73 b43d dac8 d3bd cfa2 1c3a 79fd 5a3b
000002e0: 44d5 6cbd 7ed4 b7bd ca56 d5bd 362c b8bd
000002f0: 34d2 273d e0b3 88bc c43c bdbd d8cf d4bd
00000300: c032 6d3c 5a5f e93d c88b 4bbd 5aae ee3d
00000310: f0da 89bc e64f e0bd a865 fbbc 78c5 b63c
00000320: f827 a8bd d2fc efbd ccaa 173d 8876 06bd
00000330: 10e6 073d 3828 fabc 70f9 dd3c 26fa ccbd
00000340: 30cf dbbd 9076 5cbd 409f 75bb 6cc9 a23d
00000350: 10b5 47bc dc13 e73d b4b1 50bd 101e fdbc
00000360: 4245 b7bd 14ec 46bd 3668 f3bd d839 fdbc
00000370: 24e9 753d d06e 6f3c 4a15 82bd a4e5 9dbd
00000380: e4f4 12bd b89b 273d 24fa a6bd a4b1 3d3d
00000390: 22c2 f53d 3adf 843d c0b0 513b ccec 1cbd
000003a0: 4876 44bd 10e9 44bd 4c94 e5bd 8007 1fbd
000003b0: 305e e1bc ae2b 95bd 601c 92bd e04f 033d
000003c0: 20fe f9bc 10dc 30bc 68c1 03bd c8c1 d63d
000003d0: 927b d4bd b096 3f3c be77 96bd 4cf1 c0bd
000003e0: aee5 c53d c043 ce3c 5425 0c3d f683 d0bd
000003f0: 70e6 b33d 985a d93c 30c5 613c 28c2 bb3d

fc2.bias f4 [128]
0.047771767 0.05481994 0.05677853 0.06428869 -0.1011741 0.07440376 0.08285844 -0.079684936
-0.017844003 -0.099653766 0.0634162 0.09564002 0.11547584 -0.072872676 -0.009934987 -0.056780294
-0.03323375 -0.039111495 0.009516708 0.0234229 -0.1135574 -0.066919476 -0.013843145 -0.11276102
0.09006214 0.042729884 -0.008004278 0.069208026 0.1022747 -0.02920118 0.036206547 0.027026579
-0.07451167 0.02716598 -0.0025656074 0.10566869 0.07858817 0.024285143 -0.0413058 -0.11874106
-0.0010389686 0.09105588 0.0074546183 0.04860069 -0.049265042 -0.10545565 0.060266033 -0.11980595
0.024752608 -0.10744651 0.0913805 0.027371615 -0.010074797 -0.070746586 -0.11905904 -0.080355525
-0.03610784 -0.04106015 0.011563793 -0.12632377 0.0089738965 -0.12335044 -0.077252135 -0.07063575
-0.029200166 -0.054489177 -0.11905352 -0.03161807 0.0858146 -0.08898918 -0.11315425 -0.031082496
0.020599956 0.07643711 0.029480591 -0.021383462 -0.11394662 0.030614763 0.000842765 -0.022290526
0.007062415 0.07710388 -0.050997026 -0.10431081 -0.0017964691 -0.03229321 -0.0008576207 -0.04566811
0.02338475 0.0062016984 -0.086443 0.044735715 0.08765421 -0.04662529 0.045820296 -0.06254558
0.06378031 0.07475969 0.12374258 0.029654287 -0.08068394 -0.019898092 0.03880203 0.000153929
0.07736799 0.059256002 -0.021723956 -0.1180464 0.12363985 -0.12082097 0.103637256 0.0427803
0.09121114 -0.0036387146 -0.0739629 -0.08202416 -0.033134356 0.09775844 -0.017119706 0.116321966
-0.029262915 -0.0061410107 -0.029253408 0.07838324 0.0580267 0.06816472 -0.013361871 0.010623721
00000000: 54ac 433d e08a 603d 9b90 683d caa9 833d
00000010: 5e34 cfbd 0061 983d b0b1 a93d db31 a3bd
00000020: 962d 92bc 4617 ccbd 5ae0 813d eade c33d
00000030: 997e ec3d 453e 95bd 5bc6 22bc 7492 68bd
00000040: 1d20 08bd 6033 20bd f7eb 1b3c 62e1 bf3c
00000050: c890 e8bd 140d 89bd 5cce 62bc 40ef e6bd
00000060: 8072 b83d 8805 2f3d 6024 03bc f0bc 8d3d
00000070: 6675 d13d 5037 efbc 514d 143d d866 dd3c
00000080: 9399 98bd 308b de3c c023 28bb d368 d83d
00000090: d6f2 a03d a3f1 c63c 4530 29bd 832e f3bd
000000a0: 002e 88ba 817b ba3d df45 f43b 8411 473d
000000b0: 24ca 49bd 22f9 d7bd 84d9 763d d25c f5bd
000000c0: fbc5 ca3c ea0c dcbd b325 bb3d 703a e03c
000000d0: c310 25bc 96e3 90bd 3ad5 f3bd 7091 a4bd
000000e0: d0e5 13bd b02e 28bd 1076 3d3c 055b 01be
000000f0: 4007 133c 289f fcbd 5e36 9ebd 7aa9 90bd
00000100: 3035 efbc 0b30 5fbd 55d2 f3bd f381 01bd
00000110: 91bf af3d f63f b6bd 6abd e7bd b8a0 febc
00000120: 3dc1 a83c 0f8b 9c3d 4881 f13c 5f2c afbc
00000130: d85c e9bd d0cb fa3c 00ed 5c3a 9f9a b6bc
00000140: d56b e73b a4e8 9d3d 42e2 50bd e8a0 d5bd
00000150: 8077 ebba e345 04bd f3d1 60ba 7c0e 3bbd
00000160: 6091 bf3c 9e37 cb3b 0709 b1bd cc3c 373d
00000170: 0d84 b33d 29fa 3ebd 10ae 3b3d e617 80bd
00000180: 409f 823d 9c1b 993d c06c fd3d 8ced f23c
00000190: 9f3d a5bd 5301 a3bc e1ee 1e3d 0068 2139
000001a0: 1c73 9e3d 6cb6 723d 70f6 b1bc 50c2 f1bd
000001b0: e436 fd3d fc70 f7bd c53f d43d 653a 2f3d
000001c0: e8cc ba3d 8077 6ebb dc79 97bd 48fc a7bd
000001d0: e4b7 07bd 9435 c83d a03e 8cbc 363a ee3d
000001e0: c8b8 efbc 883a c9bb d8a4 efbc 6487 a03d
000001f0: 68ad 6d3d f299 8b3d c0eb 5abc 1e0f 2e3c

fc3.weight f4 [64, 128]
0.009782568 -0.0034543376 0.019378638 0.075787686 -0.0067730695 0.030032441 -0.07227164 -0.0403843
-0.052082315 -0.07427389 0.05658687 -0.011331662 0.016051954 -0.079927996 -0.038928136 -0.047326643
-0.019083226 0.055770867 0.010000512 0.07551131 -0.004465118 0.02886945 0.05041401 -0.0043572336
0.020037517 0.043035217 0.054374337 -0.06644124 -0.025894128 0.051293395 0.030611558 0.00028587133
0.0046308516 -0.07665624 -0.044348158 -0.086209 -0.02979761 0.007485701 0.014969673 0.03643295
0.048411064 0.0627183 0.08126223 -0.03782438 -0.048987262 -0.07267858 -0.03810172 -0.03738456
0.014783095 -0.051623113 0.05249715 -0.046885345 -0.029133374 0.013272225 -0.070819266 -0.023328625
-0.017914198 -0.049365077 -0.074388914 -0.067900136 0.06708076 0.07338556 -0.029426109 0.032184124
0.06256423 -0.047697145 -0.031008089 -0.08867647 0.05758637 -0.04601674 0.039120376 -0.082548834
0.07568234 0.0062074475 -0.07418218 -0.024554985 -0.016178668 0.067266606 -0.02455467 0.0088338405
0.06207094 0.010599561 0.052186966 0.06786866 0.06526724 0.045670286 -0.0500364 -0.0007644098
-0.008120589 -0.0033511089 0.019585324 0.065144934 0.057022512 -0.075447254 -0.028939892 -0.053471938
-0.028710673 -0.07825524 0.081448324 -0.02843118 -0.015157208 -0.034727752 0.021936074 -0.07502599
-0.003601499 -0.06857984 0.08002221 0.026949197 -0.07629485 -0.02307304 -0.031778224 -0.01858332
0.067664124 -0.03418334 0.057381354 0.024823649 -0.06294592 0.040429838 -0.059204467 0.031552196
0.06095533 0.049720258 0.009881772 -0.06725152 0.000870429 -0.017043054 0.059754677 -0.05446067
0.034269683 -0.06290811 0.065259464 -0.054820668 0.043071248 -0.009596415 -0.009363279 -0.07914976
0.07568494 -0.08802717 0.08599033 -0.04907597 0.025877483 0.039218374 0.0824131 0.027694002
-0.03428864 -0.0013848841 -0.0033874512 0.01246392 0.056979813 0.020491049 -0.06883466 -0.0743231
-0.06853848 -0.07335952 0.073905 0.013056286 0.07406277 0.061739422 -0.08267612 -0.026690934
-0.0009455234 -0.033059217 -0.02348023 -0.030002877 0.053727962 -0.08799623 0.032426372 0.020299248
0.036862753 0.029723927 -0.02185493 0.05191014 0.04845751 0.060725354 0.030725501 0.07708461
-0.06041447 -0.0019787028 -0.01564809 0.066423096 0.08697844 0.017980888 -0.03393835 -0.03565025
0.013251282 -0.027393535 -0.05777949 0.076887436 0.009941302 0.032237194 0.05424378 -0.029366396
0.039756797 0.038845606 -0.070747994 -0.03898083 0.044697948 0.008578181 0.010054655 -0.04402188
-0.037451733 0.06380469 -0.032906044 -0.058360793 -0.07329385 0.034713365 0.03081096 0.022262193
-0.051436804 0.07740421 0.034791283 -0.00093042105 0.023458295 0.04912021 -0.06368682 0.06938665
0.059548013 -0.0052410364 0.044178642 -0.0021141246 0.021214321 0.020756185 0.08317541 -0.010473885
0.02030968 -0.029442228 -0.06657535 -0.025727414 0.033791088 0.018548533 0.003732346 -0.01942499
0.02093599 0.072600015 0.045806684 -0.009623244 -0.06248034 0.046771206 -0.07450064 0.088275306
0.060933866 0.001207158 -0.062996626 -0.045200102 -0.012029722 0.057074778 0.041613005 -0.02659719
0.010359287 -0.08258913 -0.028817464 0.0030085146 0.060893886 -0.076757684 0.009887986 -0.04165589
00000000: 1047 203c 2b62 62bb f3bf 9e3c 9336 9b3d
00000010: a0f0 ddbb 9806 f63c 2703 94bd 026a 25bd
00000020: 4454 55bd e91c 98bd a2c7 673d 6fa8 39bc
00000030: 637f 833c 4ab1 a3bd 1c73 1fbd 95d9 41bd
00000040: 6d54 9cbc fe6f 643d 30d9 233c aca5 9a3d
00000050: 2050 92bb a07f ec3c ec7e 4e3d 20c7 8ebb
00000060: b825 a43c b245 303d a0b7 5e3d 5812 88bd
00000070: ec1f d4bc 0619 523d 17c5 fa3c 00e1 9539
00000080: 66be 973b f2fd 9cbd 6aa6 35bd 588e b0bd
00000090: 1e1a f4bc 9c4a f53b 5c43 753c b83a 153d
000000a0: ae4a 463d 7472 803d d06c a63d bded 1abd
000000b0: dea6 48bd 82d8 94bd 8d10 1cbd 8d20 19bd
000000c0: cb34 723c c272 53bd 4007 573d d90a 40bd
000000d0: 1da9 eebc bf73 593c b109 91bd ac1b bfbc
000000e0: ccc0 92bc 0933 4abd 3759 98bd 3a0f 8bbd
000000f0: a361 893d 2b4b 963d 060f f1bc 80d3 033d
00000100: ad21 803d 155e 43bd ad04 febc 029c b5bd
00000110: afdf 6b3d 0d7c 3cbd b03c 203d 5d0f a9bd
00000120: 58ff 9a3d d867 cb3b d4ec 97bd 8927 c9bc
00000130: 2089 84bc 13c3 893d e026 c9bc d0bb 103c
00000140: 193e 7e3d c8a9 2d3c 00c2 553d b9fe 8a3d
00000150: d5aa 853d c410 3b3d f8f2 4cbd ac62 48ba
00000160: 380c 05bc 479e 5bbb 6771 a03c b56a 853d
00000170: 7090 693d 1784 9abd 5a13 edbc 6405 5bbd
00000180: a532 ebbc 4944 a0bd 61ce a63d 82e8 e8bc
00000190: f055 78bc b03e 0ebd 48b3 b33c 3aa7 99bd
000001a0: 2007 6cbb 9673 8cbd afe2 a33d 90c4 dc3c
000001b0: 7940 9cbd ac03 bdbc e229 02bd 0c3c 98bc
000001c0: 7d93 8a3d d403 0cbd b608 6b3d f75a cb3c
000001d0: cae9 80bd c299 253d 6280 72bd e03c 013d
000001e0: 4cac 793d 78a7 4b3d 28e7 213c 2abb 89bd
000001f0: 802d 643a e09d 8bbc 52c1 743d 2712 5fbd
00000200: 5e5e 0c3d f8d5 80bd c1a6 853d a38b 60bd
00000210: 7a6b 303d 483a 1dbc 7068 19bc 4519 a2bd
00000220: b500 9b3d 9747 b4bd b31b b03d e203 49bd
00000230: 04fd d33c 72a3 203d 33c8 a83d 88de e23c
00000240: 3f72 0cbd 0085 b5ba 0000 5ebb 7835 4c3c
00000250: aa63 693d d8dc a73c 30f9 8cbd b636 98bd
00000260: e75d 8cbd 843d 96bd 815b 973d 08ea 553c
00000270: 39ae 973d 7ae2 7c3d 1952 a9bd f2a6 dabc
00000280: 00dd 77ba 1a69 07bd 9c59 c0bc 98c8 f5bc
00000290: da11 5c3d 5e37 b4bd 84d1 043d 9c4a a63c
000002a0: 66fd 163d 987f f33c 1c09 b3bc ba9f 543d
000002b0: 627b 463d 26bb 783d 0cb4 fb3c 89de 9d3d
000002c0: 2a75 77bd 20ad 01bb 6c30 80bc d508 883d
000002d0: c121 b23d a84c 933c f002 0bbd ff05 12bd
000002e0: e81b 593c 6868 e0bc 30aa 6cbd 2977 9d3d
000002f0: d8e0 223c 260b 043d ba2e 5e3d cc91 f0bc
00000300: 06d8 223d 921c 1f3d 53e4 90bd 5daa 1fbd
00000310: 3215 373d 808b 0c3c 48bc 243c 4950 34bd
00000320: fd66 19bd 09ac 823d 7dc8 06bd ba0b 6fbd
00000330: 161b 96bd 9a2f 0e3d 4467 fc3c 345f b63c
00000340: 66af 52bd 1986 9e3d 4e81 0e3d 80e7 73ba
00000350: 9c2b c03c 4632 493d 3c6e 82bd 971a 8e3d
00000360: 9ee8 733d 00bd abbb aaf4 343d 208d 0abb
00000370: a8c9 ad3c e008 aa3c df57 aa3d a89a 2bbc
00000380: 7c60 a63c d430 f1bc a858 88bd 4cc2 d2bc
00000390: 8668 0a3d 18f3 973c 609a 743b 2821 9fbc
000003a0: f481 ab3c 51af 943d ca9f 3b3d d0aa 1dbc
000003b0: 63eb 7fbd 2a93 3f3d cb93 98bd afc9 b43d
000003c0: ca95 793d 8039 9e3a 6004 81bd be23 39bd
000003d0: 5018 45bc 3ec7 693d 6672 2a3d 5ae2 d9bc
000003e0: 00ba 293c 7d24 a9bd 9a12 ecbc 802a 453b
000003f0: de6b 793d 2233 9dbd 3801 223c 5e9f 2abd

fc3.bias f4 [64]
0.042513907 -0.03588073 0.077361114 0.0042113494 -0.07158368 0.05115638 -0.020394158 -0.025037447
0.07018194 -0.08730835 -0.04860879 0.08388098 -0.05940717 0.01899068 -0.067293614 0.019993274
-0.009751208 -0.014594041 0.033493653 0.079139635 0.022971986 -0.06329032 0.051289372 -0.011894986
0.08755473 -0.03900162 -0.0591478 -0.0020734146 0.008999184 0.037071623 0.018188313 -0.0447338
-0.06716294 -0.058970574 -0.06967879 -0.04568266 -0.0067860647 0.081933364 -0.07121014 -0.042340282
-0.04839301 -0.036176577 0.021801416 0.009301028 -0.05449898 0.028623514 0.029288655 -0.0066221603
0.08006492 0.06678765 0.024838535 -0.05734373 0.055237554 0.07066638 0.017111167 0.08577105
0.020703455 0.046996005 -0.07713928 0.03095503 0.00085971504 -0.055177063 -0.040065836 0.04930091
00000000: 1023 2e3d acf7 12bd 816f 9e3d 5cff 893b
00000010: 779a 92bd 5a89 513d a611 a7bc 551b cdbc
00000020: 8dbb 8f3d b8ce b2bd 031a 47bd cbc9 ab3d
00000030: ef54 73bd 5892 9b3c 3cd1 89bd efc8 a33c
00000040: 88c3 1fbc d81b 6fbc a430 093d f613 a23d
00000050: bf2f bc3c 5b9e 81bd ce14 523d 30e3 42bc
00000060: e54f b33d 2ac0 1fbd f744 72bd 20e2 07bb
00000070: 5071 133c 6ad8 173d a8ff 943c ca3a 37bd
00000080: b98c 89bd 218b 71bd c1b3 8ebd be1d 3bbd
00000090: a35d debb aecc a73d 9fd6 91bd 016d 2dbd
000000a0: c037 46bd e42d 14bd e298 b23c 5763 183c
000000b0: 533a 5fbd dc7b ea3c c3ee ef3c b5fe d8bb
000000c0: 14f9 a33d f7c7 883d 2f7a cb3c 42e1 6abd
000000d0: c640 623d 89b9 903d b82c 8c3c bba8 af3d
000000e0: 4b9a a93c e27e 403d 33fb 9dbd 6795 fd3c
000000f0: 805e 613a 5801 62bd 131c 24bd c0ef 493d

fc4.weight f4 [2, 64]
0.07049056 0.0043312013 -0.06805512 -0.03377517 0.038334135 -0.09765139 -0.062465064 0.05175458
0.07985568 0.027084444 -0.028198645 0.03836944 -0.03187664 -0.10515209 0.047180668 -0.034616653
0.0011615902 -0.11494273 -0.04200686 0.11192993 -0.115698256 0.011478604 0.11070196 0.08916259
-0.023997903 0.040121224 0.07278699 0.01967509 0.014064178 -0.01063278 0.037406415 0.03275226
0.08848178 0.09961426 0.11412297 0.09751384 0.10295004 -0.0847526 -0.007992123 0.117703065
-0.09397027 -0.014389589 0.055901315 -0.107266635 -0.124175236 0.042653263 0.0068285936 -0.044628277
0.09719481 -0.017557144 0.08013698 0.091854215 -0.09322633 -0.10862692 -0.037206605 -0.07931149
0.04531242 0.022181436 0.08865319 0.06349104 -0.108039886 -0.10713848 -0.045380104 -0.058499254
-0.112571485 0.055193797 0.0711383 0.0013328831 -0.030863013 0.09058595 0.036258098 -0.018111413
0.046079874 -0.06868555 -0.06546831 -0.0349148 0.057240553 -0.022808256 0.047125876 -0.11553573
0.07498428 0.07710199 -0.043186087 -0.012628175 -0.119123854 0.0017257958 -0.022702172 -0.0055287927
-0.11451936 0.043614384 -0.030545264 -0.10745373 0.06598839 0.042873893 -0.10864432 -0.08197716
-0.0561668 0.102953374 -0.12014803 -0.08217819 0.09505588 0.07475331 -0.046139684 0.020385444
-0.026608378 -0.002105534 0.10479121 -0.09789513 -0.10584417 0.029878989 0.11557501 0.108703285
-0.11611943 -0.06595974 0.069523364 0.112437055 -0.043773606 -0.0175087 0.11879182 0.04829444
-0.04091745 -0.043208733 0.05689687 -0.083156236 0.10251653 0.09119286 -0.061094325 -0.11768656
00000000: 5b5d 903d c0ec 8d3b 7c60 8bbd d557 0abd
00000010: 4104 1d3d 74fd c7bd 5edb 7fbd 9cfc 533d
00000020: 608b a33d 32e0 dd3c d800 e7bc 4629 1d3d
00000030: 1491 02bd fb59 d7bd 8440 413d 31ca 0dbd
00000040: 8040 983a 1867 ebbd 630f 2cbd 853b e53d
00000050: 35f3 ecbd c110 3c3c b6b7 e23d e09a b63d
00000060: 4097 c4bc 2756 243d 5811 953d a82d a13c
00000070: 706d 663c 1d35 2ebc 7837 193d 3c27 063d
00000080: ef35 b53d 9002 cc3d 4eb9 e93d 56b5 c73d
00000090: 78d7 d23d c592 adbd 65f1 02bc 4e0e f13d
000000a0: 7c73 c0bd 50c2 6bbc c7f8 643d 9cae dbbd
000000b0: 964f febd 30b5 2e3d 65c2 df3b 24cc 36bd
000000c0: 130e c73d 00d4 8fbc db1e a43d 101e bc3d
000000d0: 72ed bebd ca77 debd f465 18bd 106e a2bd
000000e0: 8499 393d d8b5 b53c ce8f b53d 9707 823d
000000f0: 0444 ddbd 6b6b dbbd 7de0 39bd ea9c 6fbd
00000100: e18b e6bd e412 623d f5b0 913d 23b4 ae3a
00000110: 6ed4 fcbc 2085 b93d 5f83 143d 635e 94bc
00000120: 40be 3c3d 02ab 8cbd 4014 86bd d202 0fbd
00000130: 1275 6a3d 61d8 babc 1007 413d ff9d ecbd
00000140: 5c91 993d a6e7 9d3d e5e3 30bd 68e6 4ebc
00000150: 35f7 f3bd 1934 e23a e8f9 b9bc e02a b5bb
00000160: 2089 eabd ffa4 323d 103a fabc b410 dcbd
00000170: ec24 873d 899c 2f3d ea80 debd a4e3 a7bd
00000180: 290f 66bd 38d9 d23d 2c10 f6bd 0a4d a8bd
00000190: a8ac c23d 4318 993d f7fc 3cbd 60ff a63c
000001a0: d0f9 d9bc 00fd 09bb c69c d63d 3e7d c8bd
000001b0: d4c4 d8bd c8c4 f43c 97b2 ec3d d49f de3d
000001c0: 06d0 edbd e615 87bd 4462 8e3d 6645 e63d
000001d0: f44b 33bd 686e 8fbc 2049 f33d 64d0 453d
000001e0: 0e99 27bd a4fb 30bd b10c 693d d14d aabd
000001f0: 30f4 d13d 52c3 ba3d 0b3e 7abd a705 f1bd

fc4.bias f4 [2]
-0.10568381 -0.060484737
00000000: c170 d8bd d8be 77bd
